models/lstm_model.pt (torch, 562165 bytes, 18 tensors)

lstm.weight_ih_l0 f4 [256, 10]
0	0x3dccdcb2	0.10003032
1	0x3e974de4	0.29551613
2	0xbd91738c	-0.07102117
3	0xbe85367b	-0.26018128
4	0xbe3a1bc7	-0.18174659
5	0x3d2cbfee	0.042175226
6	0xbde45261	-0.11148525
7	0x3e560d49	0.20903505
8	0xbe19117c	-0.14948076
9	0xbd9cec80	-0.07662296
10	0xbe523fa2	-0.20532086
11	0xbdd7c6d1	-0.10535968
12	0xbdcf1972	-0.10112275
13	0xbb842f46	-0.0040339557
14	0x3e10789f	0.14108513
15	0xbd9b4c0a	-0.07582863
16	0xbe00c08f	-0.12573455
17	0xbe9c40b3	-0.30518112
18	0xbd1c8c31	-0.038219634
19	0xbe228c6e	-0.15873882
20	0xbd716e2a	-0.05894295
21	0x3e2bb91b	0.16769831
22	0xbe987dbe	-0.29783434
23	0xbe3115a0	-0.17293406
24	0x3d5360a5	0.05160584
25	0x3c93aa0d	0.018025422
26	0xbcbcec59	-0.023061918
27	0xbe1c8258	-0.15284097
28	0xbcdc13b2	-0.02686486
29	0xbea5264f	-0.3225579
30	0x3e620a4a	0.22074237
31	0x3d52ebe6	0.0514945
32	0xbdac8637	-0.08424037
33	0xbe6aaa66	-0.22916564
34	0x3c9a1871	0.018810483
35	0xbd5c15d9	-0.053731773
36	0x3d3d959a	0.04628525
37	0x3e46356c	0.19356316
38	0x3d628426	0.055301808
39	0xbd857594	-0.06516567
40	0x3df294d9	0.11844797
41	0x3e206caf	0.1566646
42	0x3c9ef0e2	0.019401971
43	0xbe6161fa	-0.22010031
44	0xbe0ced23	-0.13762335
45	0x3e45086e	0.19241497
46	0xbcb6d689	-0.022319095
47	0x3e14784b	0.14499013
48	0xbe4117b0	-0.18856692
49	0x3d3cfa1d	0.046136964
50	0xbd57c8fb	-0.052681904
51	0x3df362f9	0.11884112
52	0xbdcebdd5	-0.10094801
53	0x3d833395	0.06406323
54	0x3dbf632e	0.09345089
55	0x3c854f51	0.016273173
56	0x3da24e3a	0.07925077
57	0x3d4b7d42	0.049680002
58	0x3f3cd6e4	0.737654
59	0x3f60fbba	0.87884104
60	0x3e412631	0.18862225
61	0xbdaeda9f	-0.085377924
62	0xbe70382f	-0.23458932
63	0xbd23601a	-0.03988657
64	0xbd351e39	-0.044218276
65	0x3e7193c7	0.23591529
66	0xbc6fa0ff	-0.014625787
67	0x3d66ee05	0.056379337
68	0xbf26f0cb	-0.6521117
69	0x3d29fbb9	0.041499827
70	0xbdff5649	-0.124676295
71	0xbe81cc33	-0.25351104
72	0xbe71a2fa	-0.23597327
73	0x3e4c4b4c	0.19950598
74	0x3e129380	0.1431408
75	0xbee7098e	-0.45124477
76	0xbd9b7d16	-0.075922176
77	0xbe7ca654	-0.24672824
78	0xbe68d466	-0.22737274
79	0xbd5797fd	-0.05263518
80	0x3dcb92df	0.09940123
81	0x3e0acc3a	0.13554469
82	0xbba5056f	-0.005036048
83	0x3d12c4e0	0.035832286
84	0x3e033c54	0.12815982
85	0x3d45ffe4	0.04833974
86	0x3c3d57f1	0.011556611
87	0xbe1e7174	-0.15472966
88	0x3d85873e	0.06519936
89	0xbd3581a0	-0.044313073
90	0xbe6d977b	-0.23202316
91	0xbe53a8b2	-0.20669821
92	0x3e15bb60	0.14622259
93	0x3e01dd7a	0.12682143
94	0xbcf06c26	-0.029348444
95	0xbd011a79	-0.031519387
96	0x3dbda3df	0.092597716
97	0x3cd31942	0.02576888
98	0x3f26dc16	0.65179574
99	0x3db78b7a	0.0896215
100	0xbb13db7c	-0.0022561243
101	0xbddc41fd	-0.10754774
102	0x3e0235c6	0.12715825
103	0x3d97547c	0.07389161
104	0x3bdcd55c	0.0067393016
105	0x3dc24885	0.09486488
106	0xbcb78286	-0.022401106
107	0x3c9bead9	0.019032883
108	0xbddd8e51	-0.1081816
109	0x3e639e56	0.22228369
110	0x3bb028b4	0.005375946
111	0xbe11542b	-0.14192264
112	0x3e1b7e0f	0.15184806
113	0x3dca4adb	0.09877559
114	0xbd4c2133	-0.04983635
115	0xbe71a644	-0.23598582
116	0x3cd32bb3	0.025777673
117	0x3e602bcf	0.21891712
118	0x3d0df400	0.034656525
119	0x3ea477a2	0.32122523
120	0xbe47c5d5	-0.1950906
121	0xbc714c34	-0.014727641
122	0x3d90d90d	0.07072649
123	0xbd4e7fb6	-0.050414763
124	0xbb213fa1	-0.0024604576
125	0x3e633c74	0.2219103
126	0x3cfbf9d5	0.030758778
127	0xbd2f40ac	-0.042786285
128	0xbdc1cad3	-0.09462514
129	0x3e1691f5	0.14704116
130	0x3d60b721	0.054862145
131	0xbe816084	-0.25268948
132	0xbe096ce4	-0.13420445
133	0x3e890d8d	0.2676815
134	0x3e381ee0	0.17980528
135	0xbe3c8e2d	-0.18413611
136	0xbb88d989	-0.004176323
137	0xbb64e600	-0.003492713
138	0xbe1fb611	-0.15596797
139	0xbec06c6a	-0.37582713
140	0x3c40687b	0.01174366
141	0xbdb54c9c	-0.08852503
142	0x3e5e87fc	0.21731561
143	0xbd8bd99a	-0.068286136
144	0x3e3e79f8	0.18601215
145	0xbd6055c1	-0.05476928
146	0x3df2abdc	0.11849186
147	0xbd2d8f3a	-0.04237292
148	0x3dfa4342	0.1221986
149	0x3cb77937	0.022396667
150	0x3e24d08d	0.16095181
151	0x3d079919	0.03310499
152	0x3ebe12ef	0.3712382
153	0x3cc4e05d	0.024032766
154	0x3d854121	0.06506563
155	0xbd43f131	-0.04783744
156	0x3e246bb5	0.16056712
157	0xbd8e590b	-0.06950577
158	0x3e8a5234	0.2701584
159	0x3e066130	0.13123012
160	0x3df72ba1	0.120688684
161	0x3e08b91d	0.13351865
162	0x3e1f25c7	0.15541755
163	0xbc6b95ea	-0.014379004
164	0x3dab3e8b	0.083615385
165	0x3d2207e3	0.039558303
166	0xb93ce964	-0.00018016022
167	0x3dd27f5e	0.102781996
168	0x3ec686ed	0.38774815
169	0xbf175e2a	-0.5912806
170	0xbdd5cf71	-0.10439957
171	0xbd1c7f6e	-0.038207464
172	0x3d54b8b7	0.05193397
173	0xbb841e84	-0.004031958
174	0x3ce15840	0.027507901
175	0x3dd8bc94	0.105828434
176	0x3cf07e23	0.029357022
177	0x3d974a0f	0.073871724
178	0x3e951d75	0.29124036
179	0x3f4d72fb	0.8025357
180	0xbde55683	-0.111981414
181	0xbe18218c	-0.14856547
182	0x3d96d510	0.07364857
183	0xbe78a1bc	-0.24280447
184	0xbdd210ec	-0.10257134
185	0xbd89289d	-0.066971995
186	0x3d8671a4	0.06564644
187	0x3d8f8cee	0.07009302
188	0x3e423d17	0.18968616
189	0xbd9800dc	-0.07422039
190	0xbe30e8bd	-0.17276283
191	0xbdcb8dd2	-0.099391595
192	0x3d3f4aa9	0.04670206
193	0xbc53151e	-0.012883453
194	0x3dce81b6	0.10083334
195	0xbe505ee6	-0.20348701
196	0x3da4d842	0.080490604
197	0xbdae6048	-0.08514458
198	0xbe197ae1	-0.14988281
199	0xbe848ad7	-0.25887176
200	0xbc7fde89	-0.015617021
201	0x3cf3ab8a	0.029744882
202	0xbd7fa3a9	-0.062411938
203	0xbcbdfda9	-0.023192244
204	0x3d7b0832	0.061287113
205	0x3e8046d0	0.25054026
206	0x3ebb6ebd	0.36607924
207	0xbd2433f9	-0.040088627
208	0x3ddc9210	0.10770047
209	0x3ce79d78	0.02827333
210	0xbe0f48bf	-0.13992594
211	0xbe64b64f	-0.2233517
212	0xbf038161	-0.5136929
213	0x3e153289	0.14570059
214	0x3e5a64d7	0.2132753
215	0xbec80246	-0.39064234
216	0x3e2a076b	0.16604392
217	0x3e0dd329	0.13850082
218	0xbef446d9	-0.47710302
219	0x3ec59412	0.3858953
220	0xbe848c1d	-0.25888148
221	0xbc59a173	-0.013283121
222	0xbd608193	-0.05481107
223	0x3bde027b	0.006775198
224	0xbe3b7a10	-0.18308282
225	0x3d110909	0.035409007
226	0xbcade354	-0.021226563
227	0xbe155c63	-0.14586024
228	0x3d125282	0.035723217
229	0xbe8d3643	-0.2758046
230	0x3e18c0fb	0.14917366
231	0xbdbf26ca	-0.0933357
232	0xbe591d0a	-0.21202484
233	0xbe283b9f	-0.16428994
234	0xbb8abd17	-0.004233967
235	0x3e865e95	0.26244035
236	0x3be5ceed	0.007013193
237	0xbe1b4c90	-0.15165925
238	0xbe5bdff1	-0.21472146
239	0x3f1361ac	0.5757091
240	0x3e4feb30	0.2030456
241	0x3e30168a	0.17196098
242	0xbd94d3ce	-0.07266961
243	0x3e090bfa	0.13383475
244	0x3e04bf1a	0.12963524
245	0x3c891ef4	0.016738392
246	0x3d450541	0.048100714
247	0xbdd7fa08	-0.105457366
248	0x3e943878	0.28949332
249	0xbe3c66e3	-0.18398623
250	0xbcafe6e3	-0.0214724
251	0xbde47572	-0.111552134
252	0xbd81a7bc	-0.06330821
253	0x3dc731d1	0.097262986
254	0x3ce12f00	0.027488232
255	0x3da2dd22	0.07952334

lstm.weight_hh_l0 f4 [256, 64]
0	0xbdd8f198	-0.10592955
1	0xbe5caf86	-0.21551332
2	0x3d35f645	0.044424314
3	0x3b7d999e	0.00386963
4	0x3d995e8e	0.07488738
5	0x3e21b375	0.15791114
6	0xbdbac7ae	-0.09120117
7	0xbdde0ed1	-0.1084267
8	0x3e180921	0.14847232
9	0x3e2b5598	0.1673187
10	0x3e07126d	0.13190623
11	0xbd8421ce	-0.0645176
12	0xbdd12415	-0.1021196
13	0xbe1b60c6	-0.15173635
14	0xbe753740	-0.23946857
15	0xbd9edf09	-0.07757384
16	0x3ddc15b8	0.1074633
17	0xbceb3189	-0.028710144
18	0xbd4127a5	-0.04715695
19	0x3eb9e1b4	0.3630501
20	0xbdc6f7ed	-0.09715257
21	0x3e132216	0.14368472
22	0xbd05e358	-0.032687515
23	0xbdc3d43b	-0.09561964
24	0xbe4594eb	-0.19295089
25	0xbe5b1e3d	-0.21398254
26	0xbda68b5b	-0.08132049
27	0xbe70be3b	-0.23510067
28	0x3ddb5602	0.10709764
29	0x3d806ab1	0.0627035
30	0x3d8d0795	0.06886212
31	0x3e95a83d	0.29229918
32	0xbe47c22f	-0.19507669
33	0xbe253478	-0.16133296
34	0xbc8c9f61	-0.017165842
35	0xbd9eaa5d	-0.07747338
36	0x3dc4c4fa	0.09607883
37	0x3e4d907a	0.20074645
38	0xbe347b34	-0.17625123
39	0xbdb8d0fa	-0.09024234
40	0xbd9cbbfe	-0.07653044
41	0xbd5cb0db	-0.0538796
42	0xbc451535	-0.012028982
43	0xbde87d26	-0.11351995
44	0xbe22bf0e	-0.15893194
45	0x3c372919	0.011179232
46	0x3dc4abe2	0.096030965
47	0xbe0c2ee2	-0.1368976
48	0xbd07ffd6	-0.03320297
49	0x3d85e842	0.0653844
50	0x3d8ad3ed	0.06778703
51	0x3c9a8f04	0.018867023
52	0xbd958a94	-0.07301822
53	0x3e20c2ee	0.1569936
54	0xbe831f32	-0.25609738
55	0xbcadb7b8	-0.021205768
56	0x3de74a78	0.11293501
57	0x3d930bf7	0.071800165
58	0xbe762a20	-0.24039507
59	0x3e9c43b7	0.30520412
60	0x3e353527	0.17696057
61	0x3e1abb72	0.15110567
62	0x3cdf0409	0.027223604
63	0xbe6b0961	-0.22952797
64	0x3d3b765b	0.04576717
65	0xbe1b155d	-0.15144868
66	0xbd858ee5	-0.065213956
67	0xbe0a40bd	-0.13501258
68	0x3e171596	0.14754328
69	0xbe67255a	-0.22572842
70	0xbdcf9c42	-0.10137226
71	0xbe0ea0f5	-0.13928588
72	0xbc919ccb	-0.01777496
73	0x3dd638c4	0.10460046
74	0x3e1ff15a	0.15619412
75	0xbdb376c3	-0.087628864
76	0x3df6f9e4	0.120593816
77	0x3dceeec0	0.10104132
78	0x3dde6902	0.108598724
79	0xbe0a5b39	-0.13511361
80	0x3e06956a	0.13142934
81	0x3e5b8330	0.21436763
82	0xbe28715e	-0.16449496
83	0xbe76de85	-0.24108322
84	0xbd39f0ec	-0.045395777
85	0x3d3badf6	0.0458202
86	0x3e4e4d4d	0.20146675
87	0xbe3f8f7a	-0.18707076
88	0x3d23823e	0.03991913
89	0x3e4ab26e	0.19794628
90	0xbe286ec3	-0.16448502
91	0x3d357e4d	0.044309903
92	0x3c85def5	0.016341666
93	0x3de25a42	0.110523716
94	0x3db913f7	0.09037011
95	0x3d095ffb	0.0335388
96	0xbe0d7f6b	-0.13818137
97	0x3e835277	0.25648853
98	0xbe1fe39e	-0.15614173
99	0xbdff60b7	-0.12469619
100	0x3d44d98b	0.048059028
101	0xbe1e1ce9	-0.15440716
102	0x3e773e06	0.24144754
103	0x3e7a4527	0.24440442
104	0xbe10a2a0	-0.14124537
105	0xbe9a22cd	-0.30104676
106	0xbd35fb53	-0.044429135
107	0xbd351b07	-0.04421523
108	0xbd9dba29	-0.07701523
109	0xbe622a5a	-0.22086468
110	0xbc2287b3	-0.0099200485
111	0xbdbbc0ba	-0.09167619
112	0xbda8dcb8	-0.08245224
113	0x3d9cd8d5	0.07658545
114	0x3e10e372	0.14149264
115	0x3c2b0841	0.01043898
116	0x3e82413a	0.2544039
117	0x3c4d722f	0.0125394305
118	0xbdd09518	-0.101846874
119	0x3dd1657a	0.10224433
120	0xbdc6e280	-0.0971117
121	0x3e1bcdf2	0.1521528
122	0x3d1cfc53	0.038326573
123	0x3da5e550	0.081003785
124	0xbe568235	-0.20948108
125	0xbe101556	-0.14070639
126	0x3bcd81fb	0.0062715984
127	0xbd8b1709	-0.06791503
128	0x3dd5e2f5	0.10443679
129	0xbe015b5a	-0.12632504
130	0x3b537959	0.0032268374
131	0x3e69910a	0.22809234
132	0xba751217	-0.0009348704
133	0x3d58fcb5	0.052975375
134	0xbe99c38b	-0.30032
135	0xbe7c88dc	-0.24661583
136	0xbd0b47cc	-0.034004018
137	0x3da94a05	0.08266071
138	0x3d6cc9e7	0.057809737
139	0xbe39524e	-0.18097803
140	0xbdc12fb9	-0.094329305
141	0x3b6c56f6	0.0036062575
142	0xbdc07c27	-0.0939868
143	0x3cfd2f6e	0.030906405
144	0xbbba50cb	-0.005685901
145	0xbd1e7b71	-0.03869194
146	0xbc2a30d3	-0.010387617
147	0xbca92c17	-0.020650906
148	0xbe3b1453	-0.18269472
149	0xbd8252fd	-0.06363485
150	0xbd552bfd	-0.052043904
151	0x3d0f0c4b	0.034923833
152	0xbe112a37	-0.1417626
153	0xbcc9490e	-0.024570968
154	0x3ded61f7	0.11590951
155	0xbe32aa5b	-0.17447798
156	0xbcc6ae97	-0.024253173
157	0xbd87ed3c	-0.06637046
158	0xbded60f2	-0.115907565
159	0x3c744f0c	0.014911424
160	0xbdd78461	-0.10523296
161	0xbda70fcc	-0.0815731
162	0xbd9e8b03	-0.07741358
163	0x3e874f8b	0.26427874
164	0x3d04cd67	0.03242245
165	0x3e0f3927	0.13986646
166	0xbe5b6f45	-0.21429165
167	0xbe682cd9	-0.22673358
168	0x3dcbd8cd	0.09953461
169	0xbe0293f6	-0.12751755
170	0x3d801a15	0.06254975
171	0x3d65057d	0.055913437
172	0xbdd07e16	-0.10180299
173	0xbd931fb8	-0.07183784
174	0x3b9b6365	0.0047420734
175	0x3b791ef5	0.0038012837
176	0x3dde2c06	0.108482406
177	0xbda9949d	-0.08280299
178	0xbd0ebc61	-0.03484762
179	0xbe3e7296	-0.18598399
180	0x3d98c207	0.07458883
181	0xbcc08c7c	-0.023504488
182	0xbe2d9fb8	-0.16955459
183	0xbc3aca23	-0.011400732
184	0x3daabc14	0.08336654
185	0x3d636ec1	0.055525545
186	0xbe77d5b3	-0.24202614
187	0xbcb3c31c	-0.021943621
188	0xbd96ddcb	-0.073665224
189	0xbe91ea07	-0.2849886
190	0xbe03b106	-0.12860498
191	0xbd4c07e0	-0.049812198
192	0xbd6fd93d	-0.058556784
193	0xbe2349fd	-0.15946193
194	0x3e0aa8a9	0.13540901
195	0xbdafc71a	-0.085828975
196	0x3ded5360	0.11588168
197	0x3e5a6158	0.21326196
198	0x3d7cd768	0.061728865
199	0x39cbe8e4	0.00038892694
200	0xbdd35ba7	-0.10320216
201	0x3dcb4f50	0.09927237
202	0x3d0f8dc2	0.0350473
203	0x3e20283f	0.15640353
204	0x3c9f8b37	0.019475562
205	0xbdd36632	-0.103222266
206	0x3d27acc3	0.040936243
207	0x3e3b44e9	0.18288006
208	0x3d0c97dc	0.034324512
209	0x3e6085d0	0.21926045
210	0x3dcb70d3	0.09933629
211	0x3e027186	0.12738618
212	0x3d590b21	0.05298913
213	0x3e36243f	0.17787264
214	0xbdb2ef0e	-0.08737002
215	0xbe5726be	-0.21010873
216	0xbceefe5b	-0.02917402
217	0xbdd4654a	-0.10370882
218	0xbe4e835d	-0.20167299
219	0xbd9ec8a8	-0.07753116
220	0xbcd8a431	-0.02644548
221	0xbdc44673	-0.095837496
222	0x3d6d8b87	0.05799439
223	0x3db3501c	0.08755514
224	0x3ce21cd3	0.027601635
225	0xbe1713c0	-0.14753628
226	0xbc51c828	-0.012804069
227	0xbd36b66f	-0.044607576
228	0xbe073206	-0.13202676
229	0x3ce68d18	0.02814345
230	0x3d8d1cbf	0.068902485
231	0xbdeb6511	-0.11493886
232	0x3d0f397e	0.03496694
233	0x3e368243	0.17823128
234	0xbe005718	-0.12533224
235	0x3cc1487a	0.02359413
236	0x3daa3c8c	0.0831233
237	0x3ddfc969	0.10927088
238	0xbdd5d0c1	-0.10440207
239	0x3d1a325c	0.037645683
240	0x3b14cedc	0.0022706306
241	0xbdb986b1	-0.090588935
242	0x3baa7a84	0.0052025933
243	0xbdce4372	-0.10071458
244	0xbdab06e0	-0.08350921
245	0x3ce127bb	0.027484765
246	0xbdd06128	-0.10174781
247	0xbd58544b	-0.052814763
248	0xbd96aab4	-0.07356778
249	0x3d452977	0.048135247
250	0x3afdadd7	0.0019354176
251	0x3e182567	0.14858018
252	0x3e27326e	0.16327831
253	0x3e4f4c7a	0.20244017
254	0xbdcf25db	-0.10114642
255	0xbcdf200b	-0.027236959

lstm.bias_ih_l0 f4 [256]
0	0xbdb1f3c0	-0.0868907
1	0x3e74b978	0.23898876
2	0x3e84431d	0.25832453
3	0x3bb715dc	0.0055873226
4	0x3c5cf601	0.013486386
5	0x3e89b2cd	0.26894227
6	0xbcdf86c9	-0.02728595
7	0x3cf74d10	0.030188113
8	0x3c8a7a3e	0.016903993
9	0x3d2a978a	0.041648425
10	0x3e9e4261	0.30910018
11	0x3d9d9b89	0.076956816
12	0x3ee25cd5	0.4421145
13	0x3e086171	0.13318421
14	0x3e124d91	0.14287402
15	0x3e2ee3be	0.17079064
16	0x3e6e1d41	0.23253347
17	0x3ea97469	0.33096626
18	0xbdbd9f2b	-0.092588745
19	0x3cc25077	0.02372001
20	0xbdc13d17	-0.0943548
21	0x3d2f7eb7	0.042845454
22	0x3eab1340	0.33413124
23	0x3e26f955	0.1630605
24	0x3bf5e847	0.0075044963
25	0x3e3b562e	0.18294594
26	0x3d8c8cc2	0.06862785
27	0x3e8171df	0.2528219
28	0xbdd6686e	-0.10469137
29	0x3e0a79a8	0.1352297
30	0x3db7564e	0.08952008
31	0x3e1750e9	0.14776959
32	0xbdb94c5d	-0.09047768
33	0x3d661836	0.056175433
34	0x3ec7698d	0.38947716
35	0x3e3877d5	0.18014462
36	0x3de767c5	0.11299089
37	0x3ed764d5	0.42069116
38	0x3e302cc6	0.1720458
39	0x3eec2b04	0.46126568
40	0x3dc76e91	0.09737886
41	0xbd96e719	-0.07368297
42	0x3d5b563f	0.053549048
43	0x3e52fc31	0.20604016
44	0x3e31cc21	0.17363025
45	0x3e9d9695	0.30778947
46	0x3cc67e01	0.024230005
47	0xbd9fc2ca	-0.07800825
48	0x3dc6643c	0.09687087
49	0x3de77552	0.11301674
50	0xbaa56317	-0.0012618032
51	0xbbec7e34	-0.007217193
52	0x3e866f93	0.26257
53	0x3e04027c	0.12891573
54	0x3dfab79b	0.12242051
55	0x3e2a209b	0.16614
56	0x3e98db5d	0.2985486
57	0x3e96809d	0.29395
58	0x3ed2c9e3	0.41169652
59	0xbbf033b1	-0.007330381
60	0x3eb6e68e	0.35722774
61	0x3e10ee38	0.14153373
62	0x3eebbd75	0.46042982
63	0x3d8aad64	0.06771353
64	0xbe201f5c	-0.15636963
65	0xbcb72b57	-0.022359533
66	0x3d91ed72	0.07125367
67	0xbddf97bb	-0.10917612
68	0x3d128ef7	0.035780873
69	0xbe0b4616	-0.13600954
70	0x3be07e0f	0.006850965
71	0xbcf9346c	-0.030420505
72	0xbc5992de	-0.013279645
73	0x3ca14306	0.01968528
74	0xbe1b0065	-0.15136869
75	0xbe218d2c	-0.15776509
76	0xbe3f9631	-0.18709637
77	0x3db4a223	0.088199876
78	0xbcced2da	-0.025247026
79	0x3dd25cb7	0.1027159
80	0xbc507d01	-0.012725116
81	0xbe4d55c2	-0.20052245
82	0xbd956b20	-0.07295823
83	0xbdf86457	-0.12128513
84	0xbe2ecf96	-0.17071375
85	0xbd014030	-0.031555355
86	0xbdb14a7a	-0.086567834
87	0xbe1b51af	-0.15167879
88	0x3c315331	0.010823057
89	0x3de1c731	0.11024321
90	0xbe052e41	-0.13005926
91	0x3da09970	0.07841766
92	0x3e1eb1aa	0.15497461
93	0x3da1070a	0.07862671
94	0xbb43a345	-0.0029851955
95	0xbd0d0a62	-0.03443373
96	0x3e34515c	0.17609161
97	0xbcc72346	-0.024308812
98	0x3d37fb6e	0.044917516
99	0xbe0f7548	-0.14009583
100	0xbd00ed55	-0.031476337
101	0xbdbe3594	-0.09287563
102	0xbdc7fbd2	-0.09764828
103	0xbe1c911f	-0.15289734
104	0xbdd3536e	-0.10318647
105	0x3e29f358	0.16596735
106	0xbd8a6309	-0.06757171
107	0xbd17bb6a	-0.037043966
108	0x3d70429d	0.058657277
109	0xbea96448	-0.3308432
110	0x3df98dd3	0.12185254
111	0x3dad9ea5	0.08477525
112	0x3de9a3c5	0.1140819
113	0xbe6556ca	-0.22396389
114	0xbdc8beea	-0.09802039
115	0xbdf47019	-0.119354434
116	0xbdd0c3c4	-0.10193589
117	0xbb872419	-0.004124176
118	0x3ce7e1cd	0.028305912
119	0xbe04e076	-0.1297625
120	0xbe8da638	-0.27665877
121	0xbe125e5e	-0.1429381
122	0xbe601824	-0.21884209
123	0x3dc48716	0.09596078
124	0x3d8a2005	0.067443885
125	0x3d88a67f	0.066723816
126	0xbdd89413	-0.10575118
127	0xbbdbf81c	-0.0067129266
128	0x3d747cbc	0.05968927
129	0x3d9f0607	0.077648215
130	0x3e18a993	0.14908437
131	0x3ddf792b	0.10911783
132	0xbde0c791	-0.10975564
133	0xbe2799ac	-0.16367215
134	0xbbe3ab19	-0.0069478867
135	0xbd5a5873	-0.053307008
136	0x3dca86bb	0.09888979
137	0xbd8d8c4c	-0.06911525
138	0xbd4368bd	-0.047707308
139	0xbe0e4fcd	-0.13897629
140	0xbda6a1b6	-0.08136313
141	0xbe1d302b	-0.15350406
142	0x3dc00d7f	0.09377574
143	0xbe2c4037	-0.16821371
144	0x3e24fba9	0.16111626
145	0x3d0451ec	0.03230469
146	0x3dfb649e	0.122750506
147	0xbd96483a	-0.07337995
148	0x3d289c1e	0.04116451
149	0xbd41e3ad	-0.04733627
150	0x3da90705	0.08253292
151	0xbcf72e86	-0.030173551
152	0xbd2ea4eb	-0.042637747
153	0x3ba8a639	0.0051467684
154	0x3da20c0e	0.079124555
155	0xbe0cb128	-0.13739455
156	0xbdd52bf0	-0.10408771
157	0xbdbc0aed	-0.091817714
158	0xbd4c0429	-0.049808655
159	0xbe0ad9f9	-0.13559712
160	0xbe2775b2	-0.16353491
161	0x3e11e1f8	0.14246356
162	0xbe0bd91f	-0.13657044
163	0x3d823223	0.06357219
164	0xbd02a2f9	-0.031893704
165	0xbdb1d28d	-0.086827375
166	0xbde6a7ae	-0.11262451
167	0x3e46b97f	0.19406699
168	0x3d654e33	0.05598278
169	0x3e241659	0.1602415
170	0x3d58eaed	0.052958418
171	0x3bc13b02	0.005896927
172	0xbd7bbafc	-0.06145762
173	0x3db91281	0.090367325
174	0x3e1f5a7b	0.1556186
175	0x3e194cb0	0.1497066
176	0xbd493592	-0.049123354
177	0x3cbcd032	0.023048494
178	0x3c7a4305	0.015274768
179	0xbe3ba471	-0.18324448
180	0x3d15cbd7	0.03657135
181	0xbd5fb87b	-0.054619294
182	0xbdfcd28d	-0.12344847
183	0x3d02a233	0.031892966
184	0x3cd82b15	0.02638773
185	0xbcd5a975	-0.02608178
186	0xbe10517c	-0.14093584
187	0x3df65ae4	0.12029055
188	0xbe297277	-0.16547571
189	0xbd5cbc18	-0.053890318
190	0xbc618277	-0.013764015
191	0xbb3b3e65	-0.0028571126
192	0x3e0fc473	0.14039783
193	0x3de9d246	0.114170596
194	0xbd0ad4a4	-0.033894196
195	0x3cc0e042	0.023544434
196	0xbdc45c34	-0.09587899
197	0x3ed6cc9d	0.41952983
198	0xbd391488	-0.045185596
199	0x3da345bf	0.079722874
200	0x3dafa07e	0.08575533
201	0x3e0817b4	0.13290292
202	0x3e38aead	0.18035384
203	0x3e0fbeed	0.14037676
204	0x3eb8f9c7	0.36128065
205	0x3df8da6e	0.12151037
206	0x3e0e18e4	0.13876683
207	0x3e21bcf8	0.15794742
208	0x3de3025f	0.110844366
209	0x3ee71f7c	0.45141208
210	0xbe261398	-0.16218412
211	0x3de482f6	0.11157791
212	0x3dbae2b0	0.091252685
213	0x3d893528	0.06699592
214	0x3dd8f7a8	0.10594112
215	0x3e43751a	0.1908764
216	0x3e095190	0.1341002
217	0x3dbd77b6	0.09251349
218	0x3e3aae32	0.18230513
219	0x3dff4138	0.12463611
220	0x3e1c5c07	0.1526948
221	0xbd85c491	-0.06531633
222	0x3d4e9068	0.050430685
223	0x3cc997b0	0.024608463
224	0xbd9edb09	-0.077566214
225	0xbd3d1012	-0.046157904
226	0x3e885328	0.26625943
227	0x3e2b3b6c	0.16721886
228	0x3dcc2593	0.09968104
229	0x3efa2e5d	0.48863497
230	0x3e9fa0a4	0.31177247
231	0x3eb5164f	0.35368583
232	0x3ea3ae51	0.3196893
233	0x3e58ba3a	0.2116479
234	0xbcdeb0a9	-0.027183848
235	0x3e5718bf	0.21005534
236	0x3e8ba656	0.27275342
237	0x3ebff560	0.37491894
238	0xbd2a5438	-0.041584224
239	0x3c983bce	0.018583205
240	0x3e2f7fa3	0.17138533
241	0x3e0e62d3	0.13904886
242	0x3b8d69bf	0.0043155844
243	0x3c126f54	0.0089376755
244	0x3e9405c4	0.2891065
245	0xbcabf5b9	-0.020991193
246	0x3e1fb141	0.15594961
247	0x3ecdbb8d	0.40182152
248	0x3eeb299b	0.4593018
249	0x3e821218	0.2540443
250	0x3e6b3a56	0.22971472
251	0x3e0a5913	0.13510542
252	0x3ed987f8	0.42486548
253	0x3d99e28e	0.07513915
254	0x3f08de5c	0.53464293
255	0x3e0d1f6b	0.13781516

lstm.bias_hh_l0 f4 [256]
0	0xbcc290ca	-0.023750681
1	0x3e180cd5	0.14848645
2	0x3dddb2ce	0.1082512
3	0xbd1c133e	-0.03810429
4	0xbc9e6ba9	-0.019338446
5	0x3ee09189	0.43861035
6	0xbced6db3	-0.028982973
7	0x3dac9a0a	0.08427818
8	0x3d9e0a98	0.07716864
9	0x3da57d42	0.08080532
10	0x3e6098cb	0.21933286
11	0x3e543d2a	0.20726457
12	0x3f03d010	0.51489353
13	0xbd9989ad	-0.07496963
14	0x3e31da15	0.17368348
15	0x3e341376	0.17585549
16	0x3e8596cd	0.26091614
17	0x3ee6bb41	0.45064738
18	0x3c3b6d12	0.011439579
19	0x3e5104f1	0.20412041
20	0x3d78bead	0.060728718
21	0x3d422b0f	0.047404345
22	0x3e6f50f5	0.23370726
23	0x3e7feff6	0.24993882
24	0x3d8b7966	0.06810264
25	0x3e197f1e	0.14989898
26	0x3c1307fb	0.008974071
27	0x3e30af25	0.17254312
28	0xbdcfff9c	-0.101561755
29	0x3e1fe0fc	0.15613168
30	0x3c5cd0d3	0.013477522
31	0x3de19a1f	0.110157244
32	0xbd85fd89	-0.065424986
33	0xbe186f85	-0.14886291
34	0x3e50495c	0.20340484
35	0x3e736b6b	0.23771445
36	0xbdc13a70	-0.09434974
37	0x3ec40f07	0.38292715
38	0x3eb04ee9	0.34435204
39	0x3f14e1b8	0.5815692
40	0x3e34531e	0.17609832
41	0x3c2339aa	0.009962479
42	0x3dd0f40c	0.10202798
43	0x3e832b97	0.25619194
44	0x3e7a51c4	0.24445254
45	0x3eb0d1f7	0.3453519
46	0x3e23937f	0.15974234
47	0x3d923172	0.07138337
48	0x3e31623d	0.17322631
49	0x3e1b04b5	0.15138514
50	0x3da6e971	0.08149994
51	0x3dd988a1	0.10621763
52	0x3e079377	0.13239847
53	0xbd10a259	-0.035311077
54	0x3ca2a2bf	0.019852994
55	0x3e8534ce	0.2601685
56	0x3eccfffc	0.4003905
57	0x3edd95bd	0.43278304
58	0x3e5913f3	0.21199016
59	0x3e41feba	0.18944827
60	0x3e60de20	0.21959734
61	0x3e94d4cc	0.290686
62	0x3eca6517	0.3953025
63	0x3cd400bb	0.025879255
64	0xbe2ab1da	-0.16669407
65	0x3d8bb556	0.068216965
66	0x3df31a52	0.118702546
67	0xbe08bdc8	-0.13353646
68	0xbcd640fe	-0.026154038
69	0xbd34dbfd	-0.04415511
70	0x3bc5daff	0.0060380693
71	0xbe1f22d5	-0.15540631
72	0xbd8e4931	-0.06947554
73	0x3d3dbfeb	0.046325605
74	0xbdf38c45	-0.11891989
75	0xbc4aa6d8	-0.01236888
76	0xbe99dd9b	-0.30051884
77	0xbb0eb9f8	-0.0021778326
78	0x3dbd3263	0.09238126
79	0xbb90d147	-0.004419479
80	0xbdf1c5e7	-0.11805325
81	0xbe480b2a	-0.19535509
82	0xbe23723b	-0.15961544
83	0x3d601628	0.05470863
84	0xbe1e109e	-0.15436026
85	0xbdaabe11	-0.083370335
86	0x3ceb67fb	0.028736105
87	0xbe07ef97	-0.1327499
88	0xbe59a9f3	-0.21256237
89	0xbdac076d	-0.08399854
90	0x3d89136a	0.06693156
91	0x3d4bf0df	0.04979026
92	0xbd687591	-0.056752745
93	0x3dac0444	0.08399251
94	0x3dcab5b6	0.0989794
95	0xbe237a8a	-0.15964714
96	0xbc283007	-0.010265357
97	0x3d1dba56	0.038507782
98	0xbd387f68	-0.04504338
99	0xbc4ddfe7	-0.0125655895
100	0x3d1f140f	0.03883749
101	0xbe52148c	-0.2051565
102	0xbda39ebe	-0.07989262
103	0xbe08e691	-0.13369204
104	0xbd9ea7d0	-0.077468514
105	0xbd5cf315	-0.05394276
106	0x3e346b1b	0.17618982
107	0xbe0514e7	-0.12996255
108	0x3de88492	0.11353411
109	0xbe074743	-0.13210778
110	0x3c8d1a70	0.01722452
111	0xbda79b0b	-0.08183869
112	0x3d5a2b40	0.053263903
113	0xbe6a7c10	-0.22898889
114	0xbdc3a99c	-0.09553835
115	0xbd0c8b45	-0.034312505
116	0x3d108c47	0.03529003
117	0xbd59fbfb	-0.053218823
118	0xbd5908c7	-0.052986886
119	0xbe1db031	-0.15399243
120	0xbe45f509	-0.19331755
121	0xbe0a76ce	-0.13521883
122	0xbe4220b8	-0.18957794
123	0x3e2afa72	0.166971
124	0xbd99b946	-0.07506041
125	0x3b825ed8	0.0039785914
126	0xbe337398	-0.17524564
127	0xba05dc17	-0.00051063433
128	0xbc3890b2	-0.011264967
129	0x3c0dd923	0.008657726
130	0x3e82d524	0.25553238
131	0x3db55e65	0.08855895
132	0x3d19b2d0	0.037524045
133	0xbe2eb910	-0.17062783
134	0xbd7abd36	-0.0612156
135	0x3bced5b3	0.006312096
136	0xbdf0c419	-0.11756153
137	0xbd599803	-0.053123485
138	0xbe16e425	-0.14735468
139	0x3d5492e2	0.05189789
140	0xbe460aee	-0.19340107
141	0xbe07781b	-0.1322941
142	0xbd33f05e	-0.043930404
143	0x3caccd95	0.021094123
144	0x3e007dfe	0.12548062
145	0xbddbccab	-0.10732397
146	0x3d7c03ef	0.06152719
147	0xbdb86a22	-0.09004618
148	0x3d90211d	0.07037566
149	0xbd13ed81	-0.036115173
150	0x3dbed52f	0.09318005
151	0xbd5b6449	-0.053562436
152	0xbd1d3481	-0.03838015
153	0xbe107001	-0.14105226
154	0xbcc71870	-0.024303645
155	0xbdee15fa	-0.116252854
156	0xbdb336ea	-0.087507084
157	0x3dc7cbb9	0.09755654
158	0xbc5904ea	-0.0132458005
159	0x3bbb1cee	0.005710236
160	0xbdf29482	-0.11844732
161	0xbd030a12	-0.031992026
162	0x3d30d32a	0.04317013
163	0xbd340dff	-0.04395866
164	0xbb863126	-0.0040952144
165	0xbe01c903	-0.12674336
166	0xbd9423c2	-0.07233383
167	0x3defdc30	0.11711919
168	0xbbd1a9bd	-0.006398408
169	0x3d7fd87d	0.06246232
170	0x3e17c8d9	0.14822711
171	0xbdff5183	-0.12466719
172	0xbe319ad2	-0.17344216
173	0xbe005fe1	-0.12536575
174	0x3dd44615	0.103649296
175	0x3dd13826	0.102157876
176	0x3e029738	0.12752998
177	0x3cd8a586	0.026446115
178	0x3d01c1f5	0.031679112
179	0xbd289fe0	-0.041168094
180	0xbcbcc62d	-0.023043716
181	0xbe1e7410	-0.15473962
182	0x3cc60c09	0.02417566
183	0xbe0b2490	-0.13588166
184	0xbd92c587	-0.071665816
185	0xbdf2735b	-0.118384086
186	0xbe3c2f5a	-0.18377438
187	0x3c983282	0.018578772
188	0xbe304089	-0.17212118
189	0xbd22b51c	-0.0397235
190	0x3d85e401	0.06537629
191	0x3ddcea91	0.107869275
192	0x3cd145d1	0.025545986
193	0x3e0c84aa	0.13722482
194	0x3da6c1c7	0.08142429
195	0xbd004bf6	-0.031322442
196	0x3d3f0740	0.046637774
197	0x3ec3ba6d	0.3822817
198	0x3d9b23df	0.07575201
199	0x3dda7371	0.1066655
200	0x3d38ea6b	0.045145433
201	0xbb0182ec	-0.0019761873
202	0x3e0c1759	0.13680781
203	0xbd4ee459	-0.050510738
204	0x3f0a8ffb	0.54125947
205	0x3e006e2c	0.12542027
206	0x3e59d627	0.21273099
207	0x3c6dd9f4	0.014517296
208	0x3e48bb1a	0.19602624
209	0x3f03d2d1	0.51493555
210	0xbdb1516b	-0.08658107
211	0x3e04dd56	0.12975058
212	0x3da9a478	0.08283323
213	0x3cfdec32	0.030996416
214	0x3dd95e6e	0.10613714
215	0x3e29f008	0.16595471
216	0x3cfe1057	0.03101365
217	0x3d43ad8e	0.047772937
218	0x3e3745d2	0.17897728
219	0x3e218ed3	0.1577714
220	0x3d3a57e0	0.04549396
221	0x3e2bae6b	0.16765754
222	0x3d45d480	0.04829836
223	0x3de83088	0.113373816
224	0x3ce2104e	0.027595665
225	0x3ce50424	0.027956076
226	0x3e9b7a62	0.30366808
227	0x3e8b2f89	0.27184704
228	0x3d9db625	0.07700757
229	0x3ed7bef5	0.42137876
230	0x3e837367	0.25673983
231	0x3ec0467b	0.37553772
232	0x3e7c4ca4	0.24638611
233	0x3dcd5857	0.10026615
234	0xbda5482f	-0.080704086
235	0x3e57ade5	0.21062429
236	0x3e8bae2e	0.27281326
237	0x3f0776a6	0.5291542
238	0x3dbd2681	0.0923586
239	0xbd71aa4d	-0.059000302
240	0x3e0fad77	0.14031015
241	0x3e660520	0.22462893
242	0xbc14ecbd	-0.009089646
243	0x3b9f2122	0.0048562447
244	0x3e99a31d	0.30007258
245	0x3e51fe2c	0.20507115
246	0x3e4f623d	0.20252319
247	0x3e344e79	0.1760806
248	0x3ef6350b	0.48087344
249	0x3ecfaf03	0.4056321
250	0x3ec09497	0.37613365
251	0xbd0e4271	-0.034731332
252	0x3ee704f2	0.4512096
253	0x3d85f3e0	0.06540656
254	0x3ec321ec	0.38111818
255	0xbcd83f9a	-0.026397515

lstm.weight_ih_l0_reverse f4 [256, 10]
0	0xbd4170d6	-0.04722675
1	0xbe0c90ef	-0.13727163
2	0x3dbedbb2	0.09319247
3	0x3d05736b	0.032580774
4	0xbe2aebce	-0.16691515
5	0x3e039f07	0.12853633
6	0xbccccc35	-0.024999717
7	0xbc1f8ad2	-0.009737687
8	0xbf87d6f2	-1.0612471
9	0xbfc4b61c	-1.5368075
10	0x3e86d7af	0.2633643
11	0x3d5b8430	0.05359286
12	0x3dad418e	0.08459769
13	0x3e541ce4	0.20714146
14	0x3dd64ec3	0.10464241
15	0x3e21397f	0.1574459
16	0x3dd03af5	0.10167495
17	0xbdb138e5	-0.0865343
18	0x3d876832	0.066116706
19	0xbe1cb994	-0.15305167
20	0xbc540cee	-0.012942536
21	0x3d4ba92e	0.04972189
22	0xbd4f896d	-0.05066817
23	0x3dad4bbc	0.08461711
24	0xbd015886	-0.031578563
25	0x3dda8e79	0.10671706
26	0x3e1d10e2	0.15338472
27	0xbada2b51	-0.0016644989
28	0xbe3f8b49	-0.18705477
29	0xbcba2321	-0.022721829
30	0xbe99cdf5	-0.30039945
31	0xbe05409d	-0.1301293
32	0x3ea68e3e	0.32530397
33	0xbd244bc9	-0.040111337
34	0x3da6e672	0.08149423
35	0x3cb319e4	0.021862932
36	0x3e10d9ca	0.1414558
37	0x3dfb4a09	0.122699805
38	0x3d7c159c	0.061544046
39	0x3f50ff03	0.81639117
40	0x3d3e7464	0.046497717
41	0xbdcc950a	-0.099893644
42	0xbd85d6e6	-0.06535129
43	0xbe2e9dc9	-0.17052378
44	0xbc3abd49	-0.011397668
45	0xbd3bec6b	-0.045879763
46	0x3d665e48	0.056242257
47	0xbdbdcfb6	-0.09268133
48	0xbef1858d	-0.47172204
49	0x3d396cca	0.045269765
50	0xbc33ce69	-0.010974505
51	0xbdecc0bc	-0.11560199
52	0x3df61a3b	0.12016722
53	0x3e8ecd45	0.27890983
54	0x3ea52269	0.32252815
55	0x3d906016	0.07049577
56	0xbdbcbd31	-0.09215773
57	0xbd2b98ba	-0.0418937
58	0xbd8e04b4	-0.06934491
59	0x3de57b31	0.112051375
60	0xbed1149b	-0.40836033
61	0x3de401c6	0.11133151
62	0x3e153190	0.14569688
63	0xbc76168b	-0.015020023
64	0xbda39700	-0.07987785
65	0x3d8f1a71	0.06987465
66	0x3c9d85e7	0.019228889
67	0x3ea3b892	0.31976753
68	0x3ebf0247	0.37306425
69	0xbd3131a2	-0.043260224
70	0xbe314a00	-0.17313385
71	0xbdb1c613	-0.08680358
72	0xbe0774ef	-0.132282
73	0x3c2f7bf3	0.010710704
74	0x3e0ee5a3	0.13954787
75	0x3dbaf59d	0.09128878
76	0x3c7e03d5	0.015503843
77	0xbe337d4b	-0.17528264
78	0x3f26426f	0.6494512
79	0x3fb821bf	1.4385298
80	0xbeb8e38c	-0.36111104
81	0x3e06f413	0.13179044
82	0x3e66bc38	0.22532737
83	0x3a62988d	0.00086439477
84	0xbe2cabdc	-0.16862434
85	0x3eaf5bc3	0.34249696
86	0x3e2d6e3e	0.16936585
87	0x3d1d290e	0.03836923
88	0x3e407e31	0.18798138
89	0xbe85e5de	-0.26151937
90	0x3e3914f7	0.18074404
91	0xbd1ab6f6	-0.03777214
92	0xbd064984	-0.032784954
93	0xbd368140	-0.044556856
94	0x3c867d68	0.01641722
95	0xbcf29b64	-0.029615112
96	0x3da3cbd4	0.079978615
97	0x3dade44f	0.08490812
98	0x3e4a28cf	0.1974213
99	0x3ce8f35d	0.028436357
100	0xbe0df963	-0.13864665
101	0x3e87c908	0.26520562
102	0xbd4b90c6	-0.049698614
103	0xbb957429	-0.0045609665
104	0xbd1de77a	-0.03855083
105	0x3df98f66	0.12185554
106	0x3e9e443b	0.3091143
107	0x3edf0e9d	0.43565837
108	0xbe238d11	-0.15971781
109	0x3e9e1e9f	0.30882737
110	0xbe84c78e	-0.25933498
111	0x3dddb4c5	0.10825495
112	0xbd857583	-0.06516554
113	0x3b769685	0.0037626338
114	0x3dd14035	0.10217325
115	0xbd751123	-0.059830796
116	0xbdcbc659	-0.09949941
117	0x3d07e2fe	0.03317546
118	0xbe5c0a4d	-0.21488304
119	0x3e4bc20b	0.1989824
120	0x3dfa5c04	0.12224582
121	0xbe05af16	-0.13055071
122	0xbebcfcba	-0.36911565
123	0xbe278b27	-0.16361676
124	0x3e207159	0.15668239
125	0x3c80eee8	0.01573892
126	0x3df22f4e	0.11825429
127	0xbe27d636	-0.16390309
128	0xbe92a4d3	-0.28641376
129	0xbd80d99c	-0.06291506
130	0x3e10abe7	0.14128076
131	0x3dd2d243	0.102940105
132	0xbe034170	-0.12817931
133	0xbe7a9bb6	-0.24473462
134	0x3caf1547	0.02137245
135	0x3dbe98b8	0.093064725
136	0xbe3e279a	-0.18569794
137	0x3d375f96	0.044768892
138	0xbf0a2713	-0.5396587
139	0x3ddd142a	0.107948616
140	0x3ea4355c	0.3207196
141	0x3d18fc37	0.037349906
142	0xbd11ecee	-0.035626344
143	0x3daec9cb	0.08534583
144	0x3d8a37c5	0.067489184
145	0x3e07aa7d	0.1324863
146	0x3e0fb5a8	0.1403414
147	0xbe080e93	-0.1328681
148	0x3e6acf9c	0.22930759
149	0x3c867f11	0.016418012
150	0xbe809ff1	-0.25122026
151	0x3ad99847	0.0016601168
152	0x3e2d4a69	0.16922916
153	0xbc7e4cd5	-0.015521248
154	0x3d11e475	0.035618264
155	0xbd9f36c3	-0.07774117
156	0xbd69a891	-0.057045523
157	0x3ca34482	0.019930128
158	0xbf0ce4ca	-0.55036604
159	0xbf8ea098	-1.1142759
160	0xbd8c8377	-0.068610124
161	0xbd1762ba	-0.036959387
162	0x3df9564b	0.12174662
163	0x3e144317	0.14478718
164	0x3da34c4e	0.07973538
165	0x3d8f9b47	0.07012039
166	0xbdbd2d02	-0.092371
167	0x3da987f1	0.08277882
168	0x3f163b07	0.5868382
169	0xbd62de4f	-0.05538779
170	0xbe173e8f	-0.14769958
171	0xbe1fb326	-0.15595683
172	0x3e995698	0.29948878
173	0x3d8926e5	0.06696872
174	0x3ddfad59	0.10921735
175	0xbde6232b	-0.112371765
176	0x3d0dccfe	0.034619324
177	0x3e1e8493	0.1548026
178	0x3ee1bda8	0.4409001
179	0x3ed0bd30	0.4076934
180	0x3d119f01	0.03555203
181	0x3e8aa91f	0.27082154
182	0xbdccd528	-0.10001594
183	0xbe263df9	-0.16234578
184	0xbdf4249b	-0.119210444
185	0x3cc522be	0.024064418
186	0x3e56d76a	0.20980611
187	0x3ddbf468	0.10739976
188	0x3da293c7	0.079383425
189	0x3e18c8c3	0.14920335
190	0x3e0cebc0	0.13761806
191	0x3d86ca42	0.06581546
192	0x3e47386c	0.19455117
193	0x3d30f08e	0.04319816
194	0xbc2448be	-0.010027109
195	0xbced22ac	-0.028947197
196	0xbe042e27	-0.1290823
197	0x3d88f29f	0.06686901
198	0x3e1ef107	0.15521632
199	0xbe067b81	-0.1313305
200	0x3e8f316f	0.27967402
201	0x3ce4e591	0.027941497
202	0xbd995828	-0.074875176
203	0xbde00796	-0.10938947
204	0xbc8d9012	-0.017280612
205	0x3e15bf5b	0.14623778
206	0xbb5a0f51	-0.003327329
207	0xbe691551	-0.22762038
208	0xbe3e6bf7	-0.18595873
209	0x3e70dd5a	0.23521939
210	0xbe5f3ba5	-0.21800096
211	0xbe62c1ab	-0.22144191
212	0xbe964c22	-0.2935496
213	0x3d40528e	0.04695373
214	0x3e42c207	0.19019328
215	0xbd8567f7	-0.0651397
216	0x3eca7320	0.39540958
217	0xbdd20f5f	-0.10256838
218	0x3d99a139	0.07501454
219	0xbe0f0962	-0.13968423
220	0x3ea20d62	0.31650835
221	0x3c631fa1	0.013862521
222	0x3e141f6d	0.14465113
223	0xbddac408	-0.10681921
224	0x3d73bb14	0.059504583
225	0xbb6a66bb	-0.0035766799
226	0xbce5a626	-0.028033327
227	0x3c816cc3	0.015798932
228	0x3d5eb428	0.05437103
229	0x3cd31275	0.025765637
230	0x3dc8ee5d	0.09811089
231	0x3e651eec	0.22375077
232	0xbcfad92e	-0.030621137
233	0x3dbb08e1	0.09132553
234	0xbe4690af	-0.1939113
235	0x3d851d40	0.064997196
236	0x3e52d588	0.20589268
237	0xbe216d48	-0.15764344
238	0xbe9f24f3	-0.31082878
239	0xbe78e409	-0.24305739
240	0xbd94aafd	-0.07259176
241	0xbe672fd6	-0.22576842
242	0x3dd6bd80	0.10485363
243	0xbd5c2ecd	-0.05375557
244	0x3de48b8c	0.11159429
245	0xbdcdfb7b	-0.10057732
246	0x3e303a34	0.17209703
247	0x3d39c0f0	0.045350015
248	0x3ecdeb60	0.4021864
249	0xbd213236	-0.039354526
250	0x3d992c5b	0.07479163
251	0xbd9a60c7	-0.0753799
252	0x3e158a62	0.1460357
253	0xbd21fe36	-0.039549075
254	0xbcaddc8f	-0.021223335
255	0x3db251f8	0.087070405

lstm.weight_hh_l0_reverse f4 [256, 64]
0	0xbf2a327a	-0.6648327
1	0x3e9fd240	0.31215096
2	0x3ddf4f60	0.109038115
3	0xbeb652ef	-0.35610148
4	0x3e507e80	0.20360756
5	0xbd465843	-0.048424017
6	0x3de37a67	0.11107331
7	0xbf179e62	-0.5922605
8	0x3df9a2db	0.12189265
9	0x3e8ce5b3	0.27518997
10	0xbd445f2b	-0.04794232
11	0xbec69707	-0.387871
12	0xbc2cd2f8	-0.010548346
13	0x3e3319c2	0.17490295
14	0xbd662e9e	-0.0561968
15	0x3f4dfd05	0.804642
16	0x3e12b64a	0.1432735
17	0xbe8f6b19	-0.28011397
18	0xbf0957a1	-0.53649336
19	0x3e07beb0	0.13256335
20	0xbe1cf89d	-0.15329213
21	0x3e086dc6	0.13323125
22	0xbda642dc	-0.08118221
23	0x3e204247	0.15650283
24	0x3e4be5fb	0.1991195
25	0x3e71b68c	0.23604792
26	0xbc56c34f	-0.013108089
27	0x3efd16a5	0.4943134
28	0x3e4d4b5f	0.20048283
29	0xbe46226c	-0.19349068
30	0xbecd2245	-0.40065208
31	0xbdb6cdb4	-0.089259535
32	0x3d9c5615	0.07633606
33	0x3dfa289f	0.12214779
34	0xbe273fc7	-0.16332923
35	0xbb19185a	-0.0023360462
36	0x3f3cd792	0.73766434
37	0xbe5e45a7	-0.21706258
38	0x3ec39433	0.38199005
39	0x3ddfd428	0.109291375
40	0x3d7c7dda	0.06164346
41	0xbeaf31ac	-0.34217584
42	0x3eae0b4e	0.33993
43	0x3d32e4cc	0.04367523
44	0x3ee79ad7	0.4523532
45	0xbcea6ccd	-0.028616333
46	0x3cc9da2a	0.024640162
47	0xbeb01c2d	-0.34396496
48	0x3db1dc27	0.08684569
49	0x3eb6cd7e	0.35703653
50	0xbe13b9b0	-0.14426303
51	0xbdd3803d	-0.10327194
52	0xbebdd9f2	-0.37080342
53	0xbd2db9f8	-0.04241368
54	0x3efe63f0	0.4968562
55	0xbe1ba5b0	-0.15199924
56	0x3e1f2947	0.1554309
57	0x3e8b3f28	0.27196622
58	0x3e96b9ec	0.29438722
59	0xbe13ee57	-0.14446388
60	0xbe80a0d3	-0.251227
61	0x3e235f12	0.15954235
62	0xbe8a55ea	-0.27018672
63	0x3d2f2761	0.042762164
64	0x3d6fa1ec	0.05850403
65	0x3dcea1d8	0.10089463
66	0x3d42f87e	0.047600262
67	0x3ded0e99	0.1157505
68	0x3e8b35b2	0.27189404
69	0xbcba85b5	-0.022768835
70	0xbe0010bc	-0.12506384
71	0x3e4a3f3b	0.19750683
72	0x3e5fb463	0.21846156
73	0xbd0ea72d	-0.0348274
74	0x3dc4692c	0.095903724
75	0x3d1c23cb	0.038120072
76	0x3e51d7bc	0.20492452
77	0x3d39662f	0.045263465
78	0x3d725cb4	0.05917044
79	0x3c09911b	0.008396412
80	0x3c01a8f3	0.007913816
81	0x3ab0d762	0.0013491923
82	0x3dee46c6	0.11634593
83	0xbd8aaf06	-0.06771664
84	0x3cc578ad	0.024105394
85	0x3df3afaf	0.11898743
86	0xbe52b018	-0.20574987
87	0xbe62148d	-0.22078152
88	0x3c725194	0.014789958
89	0xbd13c6bf	-0.03607821
90	0xbd96ed12	-0.07369436
91	0xbe20f6a9	-0.15719093
92	0x3e72b431	0.2370155
93	0x3d28f506	0.041249298
94	0x3e6faa6d	0.23404856
95	0xbd3784f3	-0.044804525
96	0xbdc0720b	-0.09396752
97	0xbc8611de	-0.016365942
98	0xbc853bd5	-0.016263882
99	0xbda84023	-0.08215358
100	0xbd347aba	-0.044062354
101	0xbe550b6a	-0.20805135
102	0x3dcb208a	0.09918316
103	0xbe567c84	-0.20945936
104	0xbe21db4a	-0.15806308
105	0xbc5b8d64	-0.013400409
106	0xbca1bbc4	-0.019742854
107	0x3da8e1da	0.08246203
108	0xbd550394	-0.052005365
109	0x3e80e9a3	0.2517825
110	0x3e99b8de	0.30023855
111	0x3dc28c9b	0.094994746
112	0x3d8be0b6	0.068299696
113	0xbe2e5607	-0.17025004
114	0x3a3a63fa	0.00071102346
115	0x3d76f32c	0.0602905
116	0x3e5e4132	0.21704558
117	0x3d2604f4	0.040532067
118	0x3e49c48a	0.1970388
119	0x3dd58e3e	0.10427521
120	0xbe3b100b	-0.18267839
121	0x3bd69c84	0.00654942
122	0x3a1a7105	0.0005891475
123	0xbdd2274a	-0.102614
124	0xbda21da8	-0.07915813
125	0xbdafb696	-0.085797474
126	0xbe5a487e	-0.21316716
127	0x3d0db6d2	0.03459818
128	0xbae410d6	-0.0017400037
129	0xbd0f3517	-0.03496274
130	0xbd0e7847	-0.034782674
131	0xbdd16a54	-0.102253586
132	0xbc49ff37	-0.012328914
133	0x3b7d3255	0.0038634737
134	0xbd43a3db	-0.047763687
135	0xbb3a1f62	-0.0028400053
136	0x3c200830	0.009767577
137	0x3dc9e530	0.09858167
138	0xbcdcbd2a	-0.02694567
139	0x3d8e58bb	0.06950518
140	0x3e6848bf	0.22684
141	0x3bc5e09c	0.0060387384
142	0x3dde4ca4	0.10854462
143	0x3d57f82f	0.05272692
144	0xbd37a37d	-0.04483365
145	0x38eae2fe	0.0001120027
146	0xbdbc78ff	-0.09202766
147	0xbd491fcb	-0.049102586
148	0x3dbf024d	0.09326611
149	0x3dcc7b98	0.09984511
150	0xbe83ed81	-0.2576714
151	0xbdc99ab9	-0.09843964
152	0x3de9f8d0	0.1142441
153	0xbdd77d8c	-0.10521993
154	0xbe3ffbce	-0.187484
155	0xbcb969e6	-0.022633504
156	0xbd568f3b	-0.05238269
157	0xbd810cd4	-0.06301275
158	0xbdf49128	-0.11941749
159	0x3da25239	0.07925839
160	0x3dae797c	0.08519265
161	0xbd0d448c	-0.0344892
162	0xbec76425	-0.38943592
163	0xbd660228	-0.0561544
164	0x3de5314e	0.11191045
165	0xbcfe9d8b	-0.031080982
166	0xbda7f7f9	-0.08201594
167	0x3c852bdd	0.016256267
168	0xbd6a25de	-0.05716502
169	0xbddd45d4	-0.10804334
170	0x3e0e0a5c	0.1387114
171	0xbdd442e2	-0.103643194
172	0x3d95b1aa	0.07309277
173	0x3e22b303	0.158886
174	0x3e21e076	0.15808281
175	0x3d8671e4	0.06564692
176	0x3d011c65	0.03152122
177	0x3ca7d0ed	0.020485366
178	0x3de09c90	0.10967362
179	0x3d934bc4	0.071921855
180	0x3e1bfc6d	0.15233012
181	0xbceafa21	-0.028683724
182	0x3bac7561	0.005263016
183	0xbd683e63	-0.05670012
184	0xbbfa5f3d	-0.007640748
185	0x3e32e464	0.17469937
186	0x3e385462	0.1800094
187	0xbc0c6841	-0.008569778
188	0x3da87a0e	0.08226405
189	0xbb8fc3a9	-0.004387338
190	0xbd32d532	-0.04366035
191	0x3df695a1	0.12040258
192	0x3e0f00f6	0.1396521
193	0x3e24c811	0.16091944
194	0x3e1e687a	0.15469542
195	0x3d148670	0.036261022
196	0xbe9876eb	-0.29778227
197	0xbeac2d05	-0.33628097
198	0xbe99fdb7	-0.30076382
199	0x3c4f2149	0.012642213
200	0xbeeb74b1	-0.45987466
201	0x3bbe0346	0.00579873
202	0x3dc880e1	0.09790207
203	0xbd7e80e8	-0.062134653
204	0xbd137d6c	-0.036008283
205	0xbec023cc	-0.3752731
206	0xbe130424	-0.14357048
207	0xbd1083c8	-0.035281926
208	0xbe5554b5	-0.20833094
209	0x3d793ea5	0.060850758
210	0xbba2bd18	-0.0049663894
211	0x3c9dbd21	0.019255223
212	0x3e279d42	0.16368583
213	0x3d4500e7	0.048096564
214	0xbe0fbd4a	-0.14037052
215	0x3d6cd1e4	0.057817355
216	0x3ee55fb1	0.4479957
217	0x3d74722f	0.059679206
218	0xbe13997d	-0.1441402
219	0x3eb815ba	0.35954076
220	0xbe50c1e4	-0.20386463
221	0xbe01b106	-0.12665185
222	0xbe8854c5	-0.26627174
223	0x3e9bfda3	0.30466947
224	0xbe5bddd3	-0.21471338
225	0x3d1a5bc7	0.037685182
226	0xbd31ca3b	-0.043405753
227	0x3d2233de	0.039600246
228	0x3d66dd7c	0.056363568
229	0x3e32007c	0.17382997
230	0xbe0119f2	-0.12607554
231	0x3e668f99	0.22515716
232	0x3e737d57	0.23778282
233	0x3b967bfb	0.0045924163
234	0xbdd2a41c	-0.10285208
235	0xbe8663ce	-0.2624802
236	0xbd40aca7	-0.047039654
237	0x3e2235ef	0.15840887
238	0xbd449161	-0.047990207
239	0xbe7a1fcb	-0.2442619
240	0xbe62e30e	-0.22156927
241	0x3e038ed0	0.12847447
242	0xbd562818	-0.05228433
243	0xbe8bd38d	-0.27309838
244	0x3d647721	0.055777673
245	0xbe16aebd	-0.14715095
246	0xbef0fba4	-0.47066987
247	0xbdddeade	-0.10835813
248	0x3db56d15	0.08858696
249	0x3e897bb0	0.2685218
250	0xbe216f6b	-0.15765159
251	0xbe383379	-0.17988385
252	0x3eede527	0.46463892
253	0xbe0af4a1	-0.13569881
254	0x3e3a6730	0.18203425
255	0x3c8e8f37	0.017402275

lstm.bias_ih_l0_reverse f4 [256]
0	0x3f2765be	0.6538962
1	0x3e8079b5	0.25092855
2	0x3c13d4e1	0.009022922
3	0x3f54aeca	0.83079207
4	0x3ddc1299	0.10745735
5	0xbd31e36c	-0.043429777
6	0x3ec73cc2	0.38913542
7	0x3f120bd9	0.5704933
8	0x3f1e920d	0.61941606
9	0x3c9bf99d	0.019039923
10	0xbe8a1936	-0.2697236
11	0xbd3d18b5	-0.04616614
12	0xbd0d0cc1	-0.03443599
13	0xbbb5dfed	-0.0055503757
14	0xbd0fcb04	-0.03510572
15	0x3f20bf94	0.62792325
16	0x3d3e772c	0.04650037
17	0x3d81b207	0.06332784
18	0xbd2267c7	-0.03964975
19	0xbdcbd1e6	-0.09952144
20	0x3d5a1194	0.05323942
21	0xbd29d547	-0.041463163
22	0x3e86a6e0	0.2629919
23	0xbd65b1da	-0.056077816
24	0xbdb9631b	-0.09052106
25	0xbc8e7407	-0.01738931
26	0x3e0943b2	0.1340473
27	0xbbc25910	-0.0059310272
28	0x3d4459bc	0.04793714
29	0xbd61760d	-0.055044223
30	0x3d037b4d	0.03210001
31	0xbe020144	-0.12695795
32	0xbd8ea5ff	-0.06965255
33	0xbb74e577	-0.0037368217
34	0xba83e6e2	-0.0010063315
35	0x3d1ac3ab	0.03778426
36	0x3e71eee0	0.2362628
37	0x3dccb30b	0.09995087
38	0x3eac52ce	0.33656925
39	0xbdc80eca	-0.09768446
40	0xbd8edeef	-0.06976115
41	0xbc08be94	-0.008346219
42	0x3f812d17	1.0091885
43	0xbe055504	-0.13020712
44	0xbcc21a49	-0.023694174
45	0x3c80defb	0.015731325
46	0xbdfa5c1b	-0.12224599
47	0x3bb6e033	0.005580926
48	0x3d652136	0.055939876
49	0x3dc04a79	0.093892045
50	0x3da78262	0.081791654
51	0xbcbca856	-0.023029488
52	0x3f0733cf	0.5281343
53	0x3d573ffe	0.052551262
54	0x3f1c9df7	0.61178535
55	0x3c8587ce	0.016300108
56	0x3d6d9a9b	0.05800877
57	0xbbfd4e18	-0.0077302568
58	0x3e9342b9	0.28761843
59	0xbe132ba4	-0.14372116
60	0x3e0dfca7	0.1386591
61	0xbe02e811	-0.12783839
62	0x3dc7f0fd	0.09762762
63	0xbbeecfba	-0.0072879465
64	0x3e2b9ccc	0.16759032
65	0x3e9932fe	0.29921716
66	0xbdf2de98	-0.11858863
67	0xbdcce298	-0.10004157
68	0x3cb2ca47	0.021824969
69	0xbe2dd9c1	-0.16977598
70	0xbdd83bc4	-0.105582744
71	0xbcac1ccd	-0.021009827
72	0x3cd1d8cd	0.025616074
73	0x3dde8808	0.1086579
74	0xbd84c408	-0.064827025
75	0x3ccfe560	0.02537793
76	0xbe456255	-0.19275792
77	0xbda684c3	-0.08130791
78	0x3d6f2951	0.05838901
79	0xbd243eb7	-0.040098872
80	0xbdceb514	-0.10093132
81	0x3c67f5b9	0.014157706
82	0x3cbd933b	0.023141494
83	0xbe10862c	-0.14113683
84	0xbdb84f83	-0.08999541
85	0xbd8b8d4a	-0.06814058
86	0x3e6f1e73	0.23351459
87	0xbdef22d5	-0.116765656
88	0xbda6a605	-0.081371345
89	0x3cd7c645	0.02633966
90	0x3d6b472b	0.057440918
91	0xbc3f1f18	-0.011665128
92	0xbddef319	-0.10886211
93	0x3d542947	0.051797178
94	0x3c422961	0.011850686
95	0xbc369268	-0.011143304
96	0xbd9f5263	-0.07779386
97	0xbdb1e415	-0.08686081
98	0xbcc7cad4	-0.024388708
99	0x3e0c90ef	0.13727163
100	0x3dc40149	0.095705576
101	0xbde2849a	-0.11060448
102	0xbe0f8a46	-0.14017591
103	0x3dd95080	0.10611057
104	0x3dd0db1a	0.1019804
105	0x3d812651	0.063061364
106	0x3e27db06	0.16392145
107	0xbe02617c	-0.127325
108	0xbc742272	-0.0149007905
109	0xbd6d883c	-0.05799125
110	0x3c3811a2	0.011234673
111	0xbccc5ce3	-0.024946636
112	0xbe32efc2	-0.17474273
113	0xbd3dedec	-0.046369478
114	0x3bb22dd5	0.0054375925
115	0x3d92a87b	0.07161041
116	0xbdd1bd9b	-0.102412425
117	0x3cc86d78	0.024466261
118	0xbd7a67c8	-0.06113413
119	0x3d0b715f	0.034043666
120	0x3d598ddb	0.0531138
121	0x3cb55ba1	0.022138419
122	0xbc933917	-0.017971558
123	0x3c6f9d84	0.014624957
124	0xbde21eae	-0.11041008
125	0x3d17c1da	0.037050106
126	0xbd6a17cd	-0.057151604
127	0x3de4064c	0.111340135
128	0xbdf5a66a	-0.119946316
129	0xbe274042	-0.16333106
130	0x3cc56843	0.024097567
131	0x3e32b95b	0.1745352
132	0x3c98cfc2	0.018653754
133	0x3d6e6940	0.058205843
134	0xbc691347	-0.0142257875
135	0x3e4f1d48	0.20226014
136	0x3da4aef0	0.08041179
137	0x3d0da96e	0.03458541
138	0x3db63c22	0.08898188
139	0x3dc0623a	0.09393735
140	0xbe11dec1	-0.1424513
141	0x3d22abeb	0.039714735
142	0xbddc4676	-0.10755627
143	0x3d5465bd	0.051854838
144	0x3df76d9a	0.12081452
145	0x3e2ace5f	0.16680287
146	0xbc0a1187	-0.00842703
147	0xbe1095f5	-0.14119704
148	0x3e3bda74	0.18345052
149	0xbc38a742	-0.011270346
150	0x3d63dd44	0.055630937
151	0xbc9d01a7	-0.019165827
152	0xbcaddabe	-0.021222468
153	0xbc63c075	-0.013900866
154	0x3e114f93	0.14190511
155	0xbdd228f3	-0.10261717
156	0x3ca615e7	0.020274116
157	0x3e0adce3	0.13560824
158	0x3e06b84b	0.1315624
159	0x3d0c9b6b	0.034327906
160	0xbe1a2cf6	-0.15056214
161	0xbd41120f	-0.047136363
162	0x3e2ba6c7	0.1676284
163	0x3b9e6e43	0.0048349216
164	0xbd8629af	-0.06550919
165	0x3d8d4b29	0.06899101
166	0x3afaedbb	0.0019144336
167	0xbd38f1eb	-0.045152586
168	0x399be0c0	0.00029731356
169	0x3d8d14ec	0.06888756
170	0x3e158667	0.14602052
171	0x3d1c03cf	0.03808957
172	0xbd8ecc33	-0.06972542
173	0x3d019555	0.031636555
174	0x3dc18cf4	0.09450713
175	0x3decc1da	0.11560412
176	0x3d58c9fe	0.05292701
177	0xbd8d9cc3	-0.069146655
178	0x3c440275	0.011963476
179	0xbddfb21a	-0.10922642
180	0x3d10a170	0.03531021
181	0xbced7b5c	-0.028989486
182	0x3d2edcc9	0.042691026
183	0xbd0d2ff7	-0.03446957
184	0x3c8ef801	0.017452242
185	0xbe088b1a	-0.13334313
186	0xbd1294b4	-0.035786346
187	0x3dbde2d0	0.09271777
188	0xbcc2d114	-0.023781337
189	0xbd86f1c2	-0.065890804
190	0xbba43333	-0.0050109862
191	0x3d8edb44	0.06975415
192	0x3f39fc3e	0.72650516
193	0x3df1f64e	0.11814557
194	0xbd763285	-0.060106773
195	0x3f612125	0.879412
196	0x3cce4856	0.025180977
197	0xbcca2897	-0.024677558
198	0x3ea96258	0.33082843
199	0x3f11c559	0.56941754
200	0x3f1b2947	0.6060986
201	0x3dfa3e33	0.12218895
202	0xbe3696de	-0.17830989
203	0x3d64753c	0.055775866
204	0xbdb884e0	-0.09009719
205	0x3bbb6969	0.005719353
206	0xbd95fe6c	-0.07323918
207	0x3f23352b	0.63753
208	0x3c18fa7e	0.009337066
209	0x3d1d4e6f	0.03840488
210	0xbd20fa6e	-0.03930133
211	0xbc7c9346	-0.015415972
212	0x3dc1adee	0.094570026
213	0x3aca63f2	0.0015441163
214	0x3e2543b0	0.16139102
215	0x3db0511d	0.08609221
216	0xbd85eae2	-0.06538941
217	0x3e096e24	0.13420922
218	0xbc8ac8c7	-0.016941441
219	0x3d4cebf3	0.050029706
220	0xbe00bd0b	-0.12572114
221	0x3dbdd9fe	0.09270094
222	0xbd53d92b	-0.05172078
223	0xbd6d9642	-0.058004625
224	0x3da71294	0.0815784
225	0xbcae0d8f	-0.0212467
226	0x3e3bccaa	0.18339792
227	0x3c55e4f7	0.013055078
228	0x3e647446	0.2230998
229	0x3d859402	0.06522371
230	0x3e8acf4c	0.2711128
231	0x3e1023aa	0.14076105
232	0x3cb850ac	0.022499405
233	0x3d9d1f91	0.076720364
234	0x3f5aa448	0.85406923
235	0x3d54fb0d	0.051997233
236	0x3caf423e	0.021393891
237	0xbe14d4c9	-0.14534296
238	0x3d370007	0.04467776
239	0x3d449830	0.0479967
240	0x3db641d7	0.08899277
241	0x3e2e511d	0.1702313
242	0x3da42fba	0.080169156
243	0x3c921992	0.017834459
244	0x3f0ec147	0.5576367
245	0x3e0aa1e2	0.13538316
246	0x3f062238	0.52395964
247	0xbc594384	-0.013260726
248	0xbc848b2e	-0.016179647
249	0x3d9bd516	0.07609002
250	0x3ef8b841	0.48578075
251	0x3cc4bd0d	0.024015928
252	0x3e2786fa	0.16360083
253	0x3d0b5e5f	0.034025546
254	0x3d56a837	0.052406516
255	0x3d95e6e0	0.073194265
