models/lstm_model.pt (torch, 562165 bytes, 18 tensors)

lstm.weight_ih_l0 f4 [256, 10]
00000000: 8b0b 84be 58f8 02be 8963 77bd 2724 613d
00000010: 66bf f23d 374d 4a3e 0801 c73d 63cb 853a
00000020: b184 843d 6512 08be 3c68 31be 5536 fcbd
00000030: 6137 2f3d 2c92 8bbe a6b2 02be 9bd0 9e3c
00000040: 3666 debd 0cbf a9be 7a11 bcbe 8569 c8be
00000050: 2c46 4bbe 33ba cebd 3f7a 273e a291 f43d
00000060: fad6 c13c ba1e 97bd 1d4e e13d 3617 5abe
00000070: eb34 28be d462 783e fa90 9c3d d0b9 bebe
00000080: 657d 383c d7b1 9f3e 9519 103e 1e74 eb3d
00000090: 2f55 213d 9361 c9bc 49f4 d5be 0f92 033d
000000a0: 3e84 90be 336b 683e 4017 96bc bf8f 56be
000000b0: ec85 8dbd 14f7 17be 9e45 393e 32f6 d53c
000000c0: eff0 053e 13be 93be c00b 8c3c d5d9 04bd
000000d0: 76db a5bd 488d dd3a 8dce c7bc 1010 8c3e
000000e0: b558 383e b475 f93c 2ced 1f3a 3b11 4e3e
000000f0: a022 953d d8f5 363b edd0 6e3d 2721 e63d
00000100: 6efc 25bd a204 f43b 2e8b f03d f4bc 153e
00000110: 8760 43bd f35b 19bf ff76 2dbe 9821 c73d
00000120: 8f51 2ebe 5182 123e 65c2 34bc 71a1 593e
00000130: e43a 4e3e a29c adbe 6e66 4b3c f26e 0e3f
00000140: 8777 8cbd 0dba cabe 71c6 383e 792a 67be
00000150: 7c62 623d 9997 32be 21e8 0a3e 0729 0d3e
00000160: 1fbf ce3e 5f37 023c f045 673e d400 7e3e
00000170: 1494 6cbe 7cc4 2e3c 11a0 1abd 2658 ae3e
00000180: f469 95bd 84d3 70be 4e8f b13d 4bf9 eb3d
00000190: 59f9 8e3e 9d34 cebd 78bb 0a3e 6db2 0fbe
000001a0: 2b22 77bd 6973 0e3e e680 5bbe 8cb1 a2bd
000001b0: 8b96 8cbe aacf 003e f36d a13d fbce eebc
000001c0: db0c 10bd 61e0 0a3d 4ed7 5bbe cc90 ce3c
000001d0: 0bc7 76be aeaf 43be c18f 6cbd 30dd 71be
000001e0: 1ca9 c23d dc91 5abd f7ed 1ebe 3750 2dbe
000001f0: 9525 d03d 09ab 753d 4f42 ecbd a6ab 9e3d
00000200: e70a fcbc 1727 843e c941 08be 0aa0 07bd
00000210: 2e8c bdbd 9f04 96be 1ce7 723c 421f f43d
00000220: 32c0 6abe 814d dbbd 6911 563e 1cd6 fabe
00000230: 7bba f23c 6f12 4ebe 14f9 95be 7630 4f3e
00000240: 6a8d 9f3d 79d3 173e 5a97 abbc 44e8 35be
00000250: e4a7 e83d 5e8b e4bd 432a a7bd f6f7 fb3d
00000260: 10c6 bb3d 5852 8fbb 7799 0fbe 4b0a df3d
00000270: 3320 53be d9e3 8a3e 0c6f c13d 399a f53e
00000280: 5a8d d93e 1e81 073e 10b5 38bd 9c84 d43d
00000290: 3456 6a3d 805a 403d 3f5e fa3d f72c 9abc
000002a0: 912b 2dbe 0cc1 34be 13be 02be e110 b8bd
000002b0: 98cf 923e 4499 0f3e a2d6 8a3d e24f 29be
000002c0: fd6f a93b a0bc 643e 9e81 aebc aafb 173f
000002d0: 6b83 59bd 23da c73d cac3 173e 54b3 6dbd
000002e0: d03c 9e3d 4bab febd 3d59 5f3d 3df1 813c
000002f0: e106 98be 440d 2d3f ed10 bc3d 0aaa 9d3c
00000300: 9247 a23e e3b6 453e 9ffd 863d 25c1 55be
00000310: 43c6 adbc 6472 323d 36f3 3a3e c3c9 763e
00000320: 12be fbbd bf9b a63e 0fce 223c 5fc0 1ebe
00000330: 306a 5fbe 7ad2 8f3a 964d 2b3e ebe0 55be
00000340: 776a 973e 42bc 5d39 278c 93be 356d 37bd
00000350: e051 983d c85b a43d 94f5 e03b 02a2 103e
00000360: 29b6 d03d 1055 1fbe 5ee1 b53d c334 2c3d
00000370: 2fcc 81bd 94aa 073d 68e4 78bc 0c4e f43d
00000380: 932b 873b 96fe d73d 9e27 673d 870a 24be
00000390: fa55 4e3f 09bb 043f 2d83 913e 3bac ab3d
000003a0: 4019 2dbe b5e0 c83c 6bef a3bb 0d11 07be
000003b0: b18c 7c3d 4b22 da3d 20b4 6a3e f22e 47be
000003c0: be79 05be 2eb2 0f3d 80fc 3abd d94a b7bc
000003d0: 0cc5 3f3e 4cd5 1c3e 7123 f8bd 8afc a23e
000003e0: 31ec 383e 72ee b93c 5f82 213e 564d c23c
000003f0: b575 1f3e 9527 06bc dc60 53bd f41d 2f3e
-0.25790057 -0.12790048 -0.06039766 0.05496612 0.118529126 0.19756018 0.097169936 0.0010207709
0.064706214 -0.13288267 -0.17324919 -0.123150505 0.042777423 -0.27259958 -0.12763461 0.01938658
-0.10859339 -0.3315357 -0.36732084 -0.39143005 -0.19850987 -0.100941084 0.16355227 0.1194184
0.02366208 -0.073789075 0.11001227 -0.21297917 -0.16426437 0.2425645 0.076448396 -0.3725114
0.011260365 0.3119037 0.14072259 0.11496757 0.039387878 -0.02458266 -0.41787937 0.032121714
-0.28225893 0.22697143 -0.018321633 -0.20953272 -0.06910309 -0.14840347 0.18092963 0.026118372
0.1308019 -0.28855953 0.017095447 -0.032434303 -0.080984995 0.0016903067 -0.024390483 0.27356005
0.18002589 0.030451633 0.000610071 0.2012376 0.07281995 0.002791753 0.058304716 0.11236792
-0.04052394 0.0074468413 0.117452964 0.14622861 -0.047699478 -0.5990593 -0.16939925 0.097232044
-0.170233 0.14307524 -0.011032675 0.21252991 0.20139652 -0.33908564 0.012414558 0.5563804
-0.068587355 -0.3959507 0.1804445 -0.22574796 0.055269703 -0.17440642 0.13565113 0.13785182
0.4038019 0.007947772 0.22585273 0.24805003 -0.23103362 0.010666963 -0.037750307 0.34051627
-0.072955996 -0.23518187 0.08669911 0.11522158 0.27924612 -0.10068629 0.13548076 -0.14032908
-0.06033532 0.13911213 -0.2143589 -0.07944021 -0.27458605 0.12579218 0.07882299 -0.02915143
-0.03516851 0.03390539 -0.21468851 0.025215529 -0.24099366 -0.19109985 -0.057754282 -0.23619533
0.09504911 -0.05336176 -0.15520464 -0.16925131 0.10163418 0.059977565 -0.11536085 0.07747583
-0.030766917 0.25811073 -0.13306345 -0.03311161 -0.09255253 -0.293004 0.014825609 0.119200245
-0.22924879 -0.10708142 0.20905079 -0.48991477 0.029629936 -0.2012422 -0.29291594 0.2023333
0.077906445 0.14826764 -0.020946193 -0.17764384 0.113601476 -0.11159395 -0.08162358 0.12303154
0.09168637 -0.00437383 -0.14023386 0.10890635 -0.20617752 0.2712696 0.09445009 0.47969225
0.42490655 0.13232848 -0.04509455 0.10376856 0.057211116 0.046961308 0.12225007 -0.018820269
-0.1691115 -0.17651767 -0.1276782 -0.089875944 0.28674006 0.1402331 0.06779219 -0.16534379
0.0051708207 0.2233758 -0.02130204 0.59368384 -0.053103846 0.09758403 0.14820781 -0.05803235
0.07726443 -0.12435015 0.054528464 0.015862102 -0.29692748 0.67598367 0.09182916 0.01924612
0.3169523 0.19308047 0.06591343 -0.2087446 -0.021212703 0.043566123 0.1825684 0.24100403
-0.122921124 0.325407 0.0099368235 -0.15503071 -0.21817851 0.0010972761 0.16728815 -0.2088658
0.29573414 0.00021146334 -0.28817865 -0.044781882 0.074374914 0.080253184 0.0068652127 0.14124301
0.10190994 -0.15559793 0.08880876 0.042042505 -0.06337773 0.03312166 -0.015191175 0.11928949
0.0041250675 0.10546605 0.056434266 -0.16019641 0.8059994 0.51847893 0.28420392 0.0838246
-0.16904163 0.024521211 -0.005002906 -0.13190098 0.06165761 0.10651072 0.22920275 -0.19451502
-0.13034722 0.035082035 -0.04565096 -0.022374557 0.18727511 0.15315741 -0.12116135 0.31833297
0.1805885 0.022696707 0.15772389 0.023718517 0.15572245 -0.008188148 -0.051606044 0.1710127

lstm.weight_hh_l0 f4 [256, 64]
00000000: 5127 adbd 3728 51bd d51c 26bb a3f9 753d
00000010: 3181 ea3d e470 46bd c7a0 88bb b9bd 2d3d
00000020: 0746 8ebe 3295 22be 2af4 dbbd 4786 593e
00000030: 747b a43e 31f6 523e 98f0 d8bd 983e 603e
00000040: b263 c43d 5ec0 32bd c9dc 283e 63c0 bd3d
00000050: 5feb 97bc d76e 31bd 2cbe 9b3e 398f 483e
00000060: e459 5ebe 9fbe 013e fe09 ccbe 092d dcbd
00000070: 7e8d 793e 56c4 29bd 98b7 0a3e 4113 383e
00000080: 4554 8d3d a8d9 fabd f8ed e83d 3d9e 4ebe
00000090: 0f36 96bc 563d a63e 7d6a debc f9d2 2e3c
000000a0: 6f3d 1abe 9434 13be 29b5 803d 88a5 c4bd
000000b0: 9be7 6abe 614e 9f3e 8c16 c3bb 3956 713e
000000c0: 6b8f 15be 6db1 913e 9175 32be 847c 873e
000000d0: 0157 cf3d 6290 9a3e e80e 06be 0156 2dbe
000000e0: 9c16 123e 19bb 4dbe c3e3 fbbc 1e77 993b
000000f0: 086e 4cbe cef1 3b3e 6a8e 0cbd 8225 4bbd
00000100: 247a 763c 7912 ca3c c3f3 86bb a5b1 d6bd
00000110: 1264 d3bd fe5f c03c 3de7 ab39 9317 a5bc
00000120: d5ab bebd 6348 12be a7ff 573d e29d 0a3e
00000130: 59ae 02be 66b8 c03d d95f 543d 35d9 2d3e
00000140: 5c5e 633d 2eaa 013d a871 34be 7d1c 3b3e
00000150: 4e18 07be ca3c 083e db33 14bd cb1f 55be
00000160: 9024 283e 2ca5 a33e 07c1 e23d eb79 13bd
00000170: ccfc 17be 5af9 2cbd 7917 e13b 78fe 6abd
00000180: f839 5a3c 6369 693d ccab 5fbd f1d1 523e
00000190: 703a 9fbc bb9d 0cbe a152 b83d 2677 8ebd
000001a0: 1f0c c43d a86a 2f3e aeda ef3d 7cfb f0bd
000001b0: 708e 91bd 4c91 ef3c 1260 50be a787 9f3e
000001c0: e9c0 63be 2f26 84be ed60 823c eb15 edbd
000001d0: 9286 31be 8931 0b3e 1adf 223e 0f8f 31bd
000001e0: 4b22 7dbd e012 9b3c e42c 7bbd 0f6f 0ebc
000001f0: bceb c73d 1e6b ecbd 0712 403e d687 d5bd
00000200: be9c d5bd 2a9a b03e 4abf 50bd f2d1 513e
00000210: 7b1e 283e 7088 e33c bb1f cd3d ae16 94bd
00000220: af5e 0ebe a768 abbb 74dd 19be 1945 e23d
00000230: cce2 393d 4ad8 8d3e 0109 70be 3aec 45bb
00000240: f64f 0b3e d2aa 323e bad1 cbbd a684 9a3d
00000250: 0508 d93d 59dd ae3d 1641 d63d e21a 20bc
00000260: e89b 023e ab47 96bd fc79 b1bc c485 bdbd
00000270: c39d 013e 6319 69be 8aaf 9c3b ecb9 523d
00000280: ca13 2c3d 4fad c7bd eeb7 21be 176e 8e3d
00000290: 8dac 9ebd 4928 f13d 32b2 1fbe 32bd 42be
000002a0: 7e8e 2ebd 2419 33be fd3b 9a3d a530 3fbd
000002b0: b68b 73bd d046 883e fdc8 a33d 7183 903e
000002c0: 2556 8c3d 0878 95bc e6c0 663d 8133 a9bb
000002d0: c2ad 243d b00f 893e 9b3e 46bd e9c6 1d3d
000002e0: e783 5a3e cd98 fabd dddd f63d 4495 0b3e
000002f0: e831 493d 1803 ee3d 7fe7 69bd c6dd 463e
00000300: 6944 893d 6811 15be 003f 7abd 11de c13c
00000310: 3e5b 363e d7ef 59be 909e 55be bae8 1ebd
00000320: 4701 9e3d 6ca1 22be d4c1 1dbe 6130 6a3e
00000330: d8a6 abbc 3a31 30be ef7a 1fbe b6df d73d
00000340: def1 89bd 27a0 febc 4a71 343d b64d 993d
00000350: c598 4ebe 7b88 5c3e 48dc fa3d 3f26 50bc
00000360: 60f1 663e 7ecb a53d f256 653d 015d 2a3d
00000370: 8efa 383d 9971 8dbe 2fc5 003e bc13 b7bd
00000380: 479e 8c3c e591 023c adee 253e 0647 443d
00000390: fe9a 5b3d ffc0 09be d284 843e e48f 5ebd
000003a0: db58 b5bc 80b7 03be 450c acbd 9943 3b3e
000003b0: 24dc 1abc ae95 bcbd fa1e 26be be68 fc3d
000003c0: e83d 26be b458 43bd f7c6 cfbe bd28 32be
000003d0: ef20 34be 42d5 e9bd 66af da3d 5d1f 57bd
000003e0: 70b8 0abe ff7a 93bc 2631 5cbe d02e 2c3e
000003f0: 0747 683d b7dd c6bd 778a aabd b7dc 743e
-0.08454765 -0.051063742 -0.0025346775 0.060052525 0.114504226 -0.048447505 -0.004169557 0.04241726
-0.27787802 -0.15877226 -0.1073993 0.21242629 0.32125437 0.20601727 -0.105927646 0.21898878
0.09589328 -0.043640487 0.16490473 0.092652105 -0.01854485 -0.043318596 0.30418527 0.19585885
-0.21713978 0.12670372 -0.39851373 -0.10750777 0.24370381 -0.041447006 0.13546598 0.17976095
0.06900839 -0.12248546 0.11373514 -0.2017755 -0.018336324 0.3246867 -0.027150387 0.010670417
-0.15062498 -0.14375526 0.062845536 -0.09601885 -0.22939913 0.31114486 -0.0059536155 0.23568048
-0.14605491 0.28455678 -0.1742766 0.26462185 0.101240166 0.3018828 -0.13091624 -0.16927339
0.14266437 -0.20090903 -0.030748254 0.0046833893 -0.19963849 0.1835396 -0.034315504 -0.049596317
0.015043769 0.024667012 -0.004118414 -0.10483102 -0.10321821 0.023483273 0.00032787948 -0.020152843
-0.09310118 -0.14285426 0.052734043 0.1353679 -0.12761821 0.09410171 0.05184922 0.16977389
0.05550991 0.031656437 -0.17621481 0.18272586 -0.13192865 0.13304439 -0.036182266 -0.2081291
0.16420197 0.31961954 0.11071973 -0.036004942 -0.14842528 -0.042229988 0.0068692532 -0.057371587
0.013319485 0.05698527 -0.054607198 0.20587899 -0.019437045 -0.13732044 0.09000135 -0.069563195
0.095726244 0.1713053 0.11711632 -0.11766717 -0.07107246 0.029244088 -0.20349148 0.31158182
-0.22241558 -0.25810382 0.015915358 -0.11576446 -0.17336491 0.13593115 0.15905419 -0.043349322
-0.061800282 0.018929899 -0.061322108 -0.008693471 0.0976176 -0.115438685 0.18756877 -0.10426299
-0.10430287 0.34492618 -0.050963677 0.20490244 0.16417877 0.02777502 0.10015818 -0.07230888
-0.13903306 -0.0052309814 -0.15025884 0.110483356 0.045382306 0.27704078 -0.23440935 -0.0030200616
0.13604721 0.17447975 -0.099521115 0.07544832 0.10597233 0.085383125 0.10461633 -0.009772034
0.12754786 -0.07337888 -0.021664612 -0.092540294 0.12657838 -0.2276359 0.004781668 0.05144684
0.04201106 -0.09749853 -0.1579282 0.06954592 -0.07747755 0.11775262 -0.1559532 -0.19017485
-0.04261636 -0.17490059 0.07530973 -0.04667725 -0.05945941 0.26616526 0.0799732 0.28225282
0.06852368 -0.018245712 0.056336306 -0.0051636104 0.04020477 0.2676978 -0.04839955 0.038519774
0.21339379 -0.12236176 0.12054036 0.13631159 0.04911986 0.11621684 -0.057105538 0.19420537
0.06702501 -0.14557421 -0.061095238 0.02366546 0.17808244 -0.21282898 -0.20861268 -0.038796164
0.077150874 -0.1588189 -0.15405971 0.22870018 -0.02095358 -0.17206278 -0.15574239 0.10540716
-0.06735586 -0.031082226 0.044053353 0.07485525 -0.20175464 0.21536438 0.122490466 -0.012704431
0.22553015 0.08095454 0.05599112 0.0415926 0.045160823 -0.2762573 0.1257522 -0.08939311
0.017165316 0.007969354 0.16204329 0.047919296 0.05361461 -0.13452528 0.25882584 -0.054336444
-0.022137096 -0.12862968 -0.08400778 0.18287505 -0.0094519 -0.09208237 -0.16222754 0.123246655
-0.16234553 -0.047692016 -0.40581486 -0.17398353 -0.17590688 -0.11417629 0.10677986 -0.052520145
-0.1354692 -0.018002985 -0.21503124 0.16814733 0.056708362 -0.097102575 -0.08327191 0.23912321

lstm.bias_ih_l0 f4 [256]
00000000: ee33 a73e 5d10 9ebd c533 633e b12e 04be
00000010: cd4d 21be 2c6a 7bbc 2bf8 2d3e 6b48 763d
00000020: 8f01 973d d81e aa3d dfe4 c63d e94b 2d3e
00000030: 45a5 8b3d 97e3 d53d 6346 00bd 394f 18bd
00000040: 3c33 fdbd 2d33 b13e 8c26 b93e d490 e43d
00000050: 0fca 9d3d e8f4 833e 3d58 e73e c115 d53d
00000060: 6023 9f3d e8c4 493e 8ee2 383d cab8 403e
00000070: 3959 903e 7eac e73d 6e81 fc3d 645c b83e
00000080: 29e0 8dbc e314 143e a4fc 803c 290d 7a3e
00000090: 88b1 63bc e369 473b 1bfa 813e 1910 bd3d
000000a0: c924 8f3e abef 8d3d 3341 f1bd bcc5 803d
000000b0: 0e8c 4d3e 32b9 8d3e 0ad3 793e be93 013d
000000c0: 7047 4e3e 502b 5b3e d89f 263e 80f9 593e
000000d0: 1b2c ed3e 2492 903e 7a15 2dbc 66b4 e6bc
000000e0: 37ee 293e 56bb 03bb 910d 143e f555 233e
000000f0: 35cd 153d 73ce c63e 9913 423e 90dd 3d3e
00000100: 17cb 3cbe bd93 813d 49b4 b2bc f21c ff3d
00000110: 5b34 dcbd af99 f8bd 9c3c 9abd 523d babd
00000120: 46b4 433e 7e21 acbd bcfb bd3d 3890 913d
00000130: 69b7 50bd 8980 083d 9df9 42bd b384 c93c
00000140: 738e 973d 469e 8fbd a634 e7bc f873 103e
00000150: 4d45 043d 9af9 35be 3f66 7fbd 59a8 59bb
00000160: 0cfe af3d b2b3 9abd db36 b8bd 7957 e6bc
00000170: 0b1d c2bd 653f f9bd b4d3 20be 03cd dbbc
00000180: 1201 133e 7cf1 eebc e17a 4f3e f943 b7bd
00000190: bf64 633d bce7 e3bd e86a ddbd 4ae0 00be
000001a0: 1295 43be 587c 90bc 9f8e 91bd c851 0b3d
000001b0: cf81 253c b3cd 953d dd90 65be 8517 d6bd
000001c0: 31b3 8fbe dbaa f43d 45a4 17bd adc1 333e
000001d0: 2feb c2bd b5ce 81be 37a0 263d a4e3 54bd
000001e0: e9d5 983d 72cd 37bd 753f 0b3d d9ea 9b3d
000001f0: eccd 8d3d f94c 5dbe a7af 5b3e e505 bdbd
00000200: c1fb fbbc 38ea 053d e80b f4bd 8ef3 28bd
00000210: 2b3d 19bd 994c 843d ca38 383d fb35 f53d
00000220: 8dfe 183e b878 83bd 99d6 03be 4ba0 1e3e
00000230: 133d 043e 4f75 d43d 848c 1dbe f0fd 083e
00000240: d3ce 9c3c aff0 d0bd f241 2a3e 1e74 063e
00000250: b78b 053e 508e ed3d a8b7 5a3e 7448 3f3e
00000260: 034e 2bbd 3476 0cbe 1f80 41be 40bd 563d
00000270: 7b3a 363e 3dce aa3c 4515 ff39 1e2e ad3d
00000280: d689 7abd ec08 04be eb66 fdbd fa33 01be
00000290: 17e6 1cbd 99b2 1d3e 6575 0abe 595e fbbc
000002a0: 7263 38be 547b 213d 980e 4f3d ea31 b5bc
000002b0: 51e9 563c 2da7 ac3d 5200 1d3e 9391 123e
000002c0: 99d7 30bd 1306 e1bc c24f 1abe 29f2 753d
000002d0: 4530 773b 9728 093e e615 a7bd c737 1ebe
000002e0: c883 b13c d5d5 d9bd e558 12be 1010 023c
000002f0: f8c1 e5bd b4c8 483e 51c3 4fbe ea1d 1c3d
00000300: e70f b03e bbd2 0e3e fc5f 583d 4f40 bcbc
00000310: 7df4 953c e644 8a3d 812d 083e 5a11 763d
00000320: 1a31 d83d 0fe7 6b3d f421 033e c3f7 163e
00000330: 648c 963e 94ba 903d e75f 69bd 7e22 edbc
00000340: 9980 30bd 1676 8c3e bed8 f43e 671f b13d
00000350: a3d3 4e3d 3f52 bb3e 504f b53e f223 543e
00000360: 4190 bd3d 7154 3e3e 8552 853d 1a07 e63d
00000370: d9ba 633e 0c93 7b3e 8a14 523d e0b9 493e
00000380: 7a4d 293d 85ec f23d 9a54 4d3e 834a 8d3e
00000390: aed0 903d 057e 053d 16a1 fb3d 46aa fb3d
000003a0: fab6 183e 747e ba3c a75a b93d 0121 32bd
000003b0: 9734 8e3e a09a 9a3e 1ec0 323e 0983 64bd
000003c0: 82d8 743e eaaf 903c 86db 903e 5335 8d3e
000003d0: baf8 4c3e 6479 9f3e ca13 9f3d 2f95 50bd
000003e0: 92df 523e 6b5d bf3c d4e8 343b 3fd1 443e
000003f0: 254f 8e3c ed78 dd3e 27b0 d1bb 64da ecbc
0.32656807 -0.07717965 0.22187717 -0.12908436 -0.15752335 -0.015345138 0.169892 0.060127657
0.07373344 0.08306664 0.097116224 0.16923489 0.06818632 0.104438 -0.031317126 -0.037184928
-0.12363288 0.34609357 0.3616222 0.11160436 0.07704555 0.25772786 0.45184508 0.1040454
0.07770419 0.1970402 0.045137934 0.18820491 0.2819307 0.11312197 0.12329374 0.36007988
-0.017318802 0.14461093 0.015745468 0.24419083 -0.013897307 0.0030428104 0.25386128 0.09231586
0.27957752 0.06930479 -0.11780014 0.06287715 0.20072958 0.27680355 0.24396911 0.03163504
0.20144439 0.21403241 0.16271913 0.21286583 0.46322712 0.28236496 -0.010564202 -0.028162193
0.16594778 -0.0020100675 0.144583 0.15950759 0.036572654 0.38829383 0.18952788 0.1854155
-0.18436848 0.06327007 -0.021814482 0.12456693 -0.107521735 -0.12138688 -0.075310916 -0.09093727
0.19111738 -0.08404826 0.0927653 0.07107586 -0.050956164 0.033325706 -0.04760133 0.024599409
0.07400217 -0.0701261 -0.028223347 0.14106739 0.032292653 -0.17770997 -0.06235337 -0.0033211915
0.085933775 -0.075538054 -0.08994838 -0.028117882 -0.09478196 -0.12170295 -0.15705758 -0.026831156
0.14355877 -0.029167883 0.20261718 -0.08948512 0.055516 -0.11128184 -0.108114064 -0.1258556
-0.19099835 -0.017637417 -0.07107281 0.03401354 0.01010175 0.07314625 -0.22418542 -0.10453705
-0.280664 0.119466506 -0.037021894 0.1755435 -0.09517514 -0.25353017 0.040680137 -0.051974908
0.07462675 -0.044873662 0.033996064 0.07613153 0.06924042 -0.21611394 0.21453725 -0.0922964
-0.030759694 0.03269407 -0.119163334 -0.041247897 -0.03741185 0.06459922 0.044976033 0.119731866
0.14940853 -0.0641951 -0.12874831 0.15490834 0.12913923 0.10373937 -0.15385634 0.1337812
0.01914159 -0.10202157 0.16626719 0.13130233 0.13041578 0.115994096 0.21359122 0.18679982
-0.041822445 -0.13716966 -0.1889653 0.052426577 0.17795746 0.020850295 0.00048653237 0.08456062
-0.061166607 -0.12894028 -0.12373146 -0.12617484 -0.03830537 0.15400161 -0.13521345 -0.030684637
-0.18006685 0.039424255 0.050551027 -0.022118527 0.01311715 0.08430324 0.15332153 0.14313345
-0.04317436 -0.027468717 -0.15069488 0.060045395 0.003771798 0.1339439 -0.08158474 -0.15450965
0.021669284 -0.10636488 -0.14291723 0.0079384 -0.11218637 0.19607812 -0.20289351 0.038114466
0.34387133 0.13947575 0.052825913 -0.022979883 0.018305058 0.067514226 0.13298608 0.06007514
0.105562404 0.0575934 0.12805921 0.14742951 0.29403985 0.07066837 -0.056976225 -0.028947111
-0.04309139 0.27433842 0.4782161 0.08648568 0.0504948 0.36586186 0.35412073 0.20716837
0.0925603 0.185869 0.0650988 0.11231823 0.22239245 0.24567813 0.05128912 0.19699812
0.041333653 0.11861519 0.20051804 0.2759591 0.070710525 0.032590885 0.12286584 0.122883365
0.1491355 0.022765376 0.09050494 -0.043488506 0.27774498 0.30196095 0.174561 -0.055789027
0.23910716 0.017662007 0.28292483 0.27579746 0.20016757 0.311473 0.07767446 -0.050923523
0.20593098 0.023359975 0.0027604597 0.19220446 0.017371723 0.43256322 -0.006399173 -0.02891273

lstm.bias_hh_l0 f4 [256]
00000000: 8306 c73e d659 073d a56a 663e eb05 73bd
00000010: 59d1 afbb d308 793d 58ba 883d a49f ca3d
00000020: 7a59 2f3e da1d b4bd f3d0 2a3d 2d5a 0bbb
00000030: b44f 1a3e aed8 443e e997 b2bd 04e4 783d
00000040: 1375 2ebe 57d4 753e f0ed c33e 4842 593e
00000050: b9dd b0bc 284c d33e b145 ae3e 28cf b03b
00000060: 6aeb cdbc ebda 503d 9e4a a73d b152 d63b
00000070: 9fbe 4b3e 9723 733c 7cd5 743e cfe3 693e
00000080: 0d65 6bbd cd7d f53d f345 573e 9b6e ab3e
00000090: 1e4e fd3d c9de a3bd 83b3 623e 7553 213e
000000a0: 13e6 b03e 3b15 153e af8a d9bd 3a1c ef3d
000000b0: acef 6e3e b226 8a3e 3e0b d03e b3a3 78bd
000000c0: 336c da3e fb60 533c 48e4 a43d 5861 523e
000000d0: 26a3 843e 66f7 b03e 6012 e03d c5be 113e
000000e0: 6ffa 813d fb0d 8fbc 7ee4 993d 41cc 203e
000000f0: 0045 8039 311b 333e 2b71 733d 4a3a ae3d
00000100: 2d9d 37be 32b7 1b3d 5b25 9cbd 0a10 0e3e
00000110: 0044 593d abe2 30bd 5893 00be 7bfd ac3c
00000120: 0f1e 1c3d 0236 983d f543 2f3d 3535 5b3e
00000130: c775 8f3c af32 82bd 171a 733d 52e8 db3d
00000140: 241e 8b3d fe52 8abe 8449 b2bd 4c5b f03d
00000150: 96cd 833e ceec 46be 95cc 7cbe ed56 ab3d
00000160: fa06 e73d dd23 e93b f80e d53a 2c32 09bd
00000170: db92 d8bd 3db0 b03a 1fcf 80bd 64a0 1b3d
00000180: bc28 433c 8c39 103e bbf6 873d 5e32 fcbd
00000190: 2b6f db3c 14b1 fdbd cd3d 0abe 2ecc 42be
000001a0: 90fd 0dbe 71d1 4cbd bd65 aebd ae80 d43d
000001b0: b5ae 083e 0bb0 cabc 5b6e 3dbe 0316 b3bd
000001c0: 5745 42be 9612 44bc 6d72 e23d 47cd 643e
000001d0: 7997 99bd f500 72be 6777 e6bc 8282 9bbc
000001e0: 060b 4b3e 54ed 4d3d 72dc 283d 9b6d 97bd
000001f0: 16cc 1b3e 4ce7 c1bc 7e85 2b3d a089 3ebe
00000200: 37f9 8ebd a740 033d 8d51 9bbb 34c6 2abe
00000210: 0ccf cb3b f93b 08be 87c4 0a3d d732 973d
00000220: c231 23bd ceb8 843d 9a3e 45be 3db1 333e
00000230: 4e6d 883d 8555 c63d 0330 babc a331 093e
00000240: 30c8 423d 6a43 e63c 9690 393e f2fd 113e
00000250: 1619 14bc 5d84 913c 71c5 cd3d 8080 233e
00000260: fb22 27bd f5b2 5bbd 25fe 0abe 64a5 4d3d
00000270: 10c1 c73d 873c 943d 8b2b 443e 575c 3f3e
00000280: 5ac0 793d ed93 803b 53fd dc3d 849c ecbd
00000290: 4d24 1bbe 7964 2f3e 1490 d5bd 2e91 d13d
000002a0: 422a dabd e340 2ebe 54e8 143d 1528 a6bd
000002b0: d99f 06be a5ba 403d e99f 44bd 5920 9f3c
000002c0: 37c4 213d b0a6 063e e76e 2bbd cfaf 563e
000002d0: 4ece 5d3e 33d0 0b3e 5260 edbd d59d 3cbe
000002e0: 850f 51bd 1d28 e7bd f7b7 b1bd f952 d7bd
000002f0: b448 f4bd 8256 0e3e 521a 02be 5a74 dc3d
00000300: 177b 8b3e 3afc fd3c 1cde 5a3e 358f afbd
00000310: 7f9c 223e ef4e 693d 71c3 143e 9790 fb3d
00000320: c4e8 35bb 02cc 323d ab38 2fbd 86f3 423c
00000330: 5d27 333e 057c b93d 93fe 60bd 91e2 7d3d
00000340: cbda a53c fae6 b63e 2cda e83e 53b4 613c
00000350: c4b7 6d3b ef5e f13e d697 d63e 4937 843d
00000360: 2aff b13c 9fc4 7d3e 99c8 d5bc 54fb 8a3e
00000370: fb5f 6b3e f8af 8c3d a13f 2f3e 6851 883e
00000380: 1dc1 0a3d d204 4c3d 6c10 283e b6b9 9a3e
00000390: 666b 043e 5684 debb 646f 913d bac3 813e
000003a0: 124d 113e 014e 273d 04cb 30bd 59ab 0b3e
000003b0: c483 3f3e 7bb1 f63d a57b 7e3e fb6c 153c
000003c0: e8b0 2e3e 7434 523e a6f8 023e 9409 383d
000003d0: ea70 903e b6ae c23e a65d 043d 04ac 073e
000003e0: 53b4 883e b2d8 2fbd 798e 213e 3b4c 5dbc
000003f0: f266 513e 6f8a c73e a555 543d 17b0 d43d
0.38872156 0.03304466 0.22501619 -0.059331816 -0.0053655324 0.06079943 0.06676167 0.0989373
0.17123976 -0.08794756 0.041703176 -0.0021263466 0.15069467 0.19223282 -0.08720381 0.060764328
-0.17036848 0.24006782 0.3826747 0.2121669 -0.0215901 0.4126904 0.34037545 0.0053957887
-0.025136668 0.050990026 0.08168529 0.0065406193 0.19896935 0.014840028 0.23909563 0.22840808
-0.057469416 0.11986885 0.21022777 0.33482823 0.12368415 -0.08001477 0.22138791 0.15754493
0.34550533 0.1455888 -0.10622155 0.11675306 0.23333615 0.26982647 0.40633577 -0.06070299
0.42660674 0.01290154 0.08051354 0.20544946 0.25905722 0.3456375 0.10941005 0.14232929
0.063465945 -0.017462721 0.075142846 0.15702917 0.00024465472 0.17490841 0.059434097 0.085072115
-0.17931052 0.038016506 -0.076243125 0.13873306 0.053043365 -0.043184917 -0.12556207 0.021116963
0.038114604 0.07432176 0.04278942 0.21407016 0.017512215 -0.063573234 0.059351053 0.10737671
0.06792858 -0.27016443 -0.08705428 0.117361635 0.25742787 -0.19426271 -0.24687417 0.08366189
0.112806275 0.007114871 0.0016255071 -0.033495113 -0.105748855 0.0013480257 -0.06289505 0.037994757
0.011911567 0.14084452 0.06638857 -0.12314294 0.026786407 -0.123872906 -0.13500138 -0.19023201
-0.13866258 -0.050004426 -0.08515499 0.10376106 0.13347895 -0.024742147 -0.18499129 -0.08744433
-0.18971764 -0.011967322 0.11056981 0.22343932 -0.07499594 -0.23633178 -0.028133107 -0.01898313
0.19828424 0.05027516 0.041225858 -0.073939525 0.15214571 -0.023669861 0.041875355 -0.18607187
-0.06981128 0.03204408 -0.004739946 -0.16677171 0.0062197503 -0.13304128 0.03387883 0.07382744
-0.039842375 0.06480561 -0.19262162 0.1754808 0.06661473 0.0968428 -0.022727972 0.13397841
0.047554195 0.028108317 0.18121561 0.14257029 -0.009039184 0.017763311 0.100474246 0.15966988
-0.040804844 -0.053637464 -0.13573511 0.050206557 0.097536206 0.07238107 0.19157235 0.18687569
0.060974456 0.003923884 0.10790505 -0.115532905 -0.15150566 0.17128171 -0.10427871 0.10232769
-0.10652591 -0.1701694 0.036354378 -0.08113114 -0.13146915 0.047052998 -0.048004065 0.019424604
0.039493766 0.13149524 -0.04185381 0.20965503 0.2166073 0.1365364 -0.11590637 -0.18419583
-0.05104019 -0.11286948 -0.08677667 -0.10513873 -0.119279295 0.13900188 -0.12705353 0.1076438
0.27242348 0.03100406 0.2137379 -0.085722364 0.15880011 0.056960043 0.1452768 0.12283438
-0.0027757147 0.04365159 -0.042778652 0.011898881 0.17495485 0.09056858 -0.05493028 0.06198365
0.02024593 0.35723096 0.45478952 0.013775903 0.0036272863 0.4714274 0.41912717 0.06455857
0.021728117 0.24782036 -0.026096629 0.27144873 0.22985832 0.06869501 0.17114116 0.26624608
0.033875573 0.049809285 0.16412514 0.3021981 0.12931594 -0.006790678 0.07101324 0.2534464
0.14189556 0.040845875 -0.04316236 0.13639583 0.18702608 0.120455705 0.24851854 0.009120221
0.17059672 0.20527822 0.12790164 0.04493101 0.28211147 0.3802392 0.032315873 0.13249213
0.26700076 -0.042931266 0.15777005 -0.013506944 0.20449427 0.38972804 0.05183949 0.10385149

lstm.weight_ih_l0_reverse f4 [256, 10]
00000000: e82e 0dbe c1a3 5e3d d7cc a13e 4f1a 85be
00000010: 9d6b fabc 1766 0ebe 47ff 313e 6aa8 00be
00000020: 599d cb3e ecda f93e 88dd 7f3d 073a 163e
00000030: 9b24 90be b5ce 9bbd 1063 513c b0d3 dabd
00000040: 8539 433e f7ad 833c 2a30 a93e 8c16 f93d
00000050: 1749 9bbd d06e 21bd e727 65bd 53f4 eabd
00000060: 6cd8 9a3c 7061 0d3e 2979 04bd bfd8 3b3b
00000070: eece 5cbf c119 ffbf 9ec4 cebe 8d12 ea3d
00000080: 72d0 fb3d d3e7 983c 8062 70be b7c7 54be
00000090: baed 1dbd 389a 083c 9ac3 6bbd a334 35be
000000a0: bcb3 b13e 203f 0d3e 1ef9 453e 48ee 97bd
000000b0: 14ba 09bc ebca e9bc 230e c33d 0630 033e
000000c0: 23e1 463e ba77 343e 5dbe 47be 4a3e 86bc
000000d0: a4f5 b8be 8d73 783d 2f9d 24be 91db 473e
000000e0: 0470 853d 213e c2bd 56c9 183e c436 3d3e
000000f0: 4f28 e5be 463b ae3e 0e07 58bd 2948 10be
00000100: 02cf c5be b75d 1b3d 6140 393e f413 8c3d
00000110: fec6 e2be 30f7 5c3f 7a66 c9bd b4fe 333e
00000120: 718e 10bf d8f8 c5be 9f90 ee3c e759 d8bd
00000130: fab2 c13b 8599 783c 35dc cd3e 6e08 aa3e
00000140: 82b8 493e 8e23 b1bd 7f41 c13d 152d ed3d
00000150: cfb0 28ba e29f ab3d ffd2 77bd 2c2d f5bd
00000160: e7a7 5f3e 189e 53bd 8680 683e f4ca 193d
00000170: 7176 1a3e 5ace 673e 75fa fd3d 07a7 83bc
00000180: 9116 e8bd 890f edbd ef57 8b3e a1c5 7c3e
00000190: 8b68 09be f180 a03e 8896 2e3e 46cc 26be
000001a0: cd0a a8bd 0835 543d e028 a83c 8d73 923e
000001b0: b487 f8bc b02b b6bd b3c5 013e 6edb 40ba
000001c0: 8ba1 7cbe fa90 46be 2f48 45bd 1814 d4bd
000001d0: 7c02 ad3d 6420 cbbb 3eba adbd 1807 7b3c
000001e0: ee08 423e a246 0f3e 5e9e 083e b7db 82bd
000001f0: 2683 e1bd 693d 55bd d9e0 d13b 9518 2c3e
00000200: 8d99 e23e 52f9 8fbe 95e5 1dbd a834 29bd
00000210: 4dc0 7f3e 910e 39bd a0c7 fd3a a794 eb3d
00000220: 8f80 16bd dc61 653e 78be adbd 89ae 6ebe
00000230: 10eb 8e3e 1cb5 4d3d 3419 26bd f61e d9bd
00000240: b353 d1bd a707 cbbc 6dda 20be 68c7 7b3e
00000250: 158b 383d 1b2d 6a3e df9f a4bd 6fc3 48bc
00000260: 6101 913e 0df7 debd 1530 9c3b 382f a639
00000270: 1d58 c6bc 5372 38bd 7e37 72bf 4e54 88bf
00000280: 038b 85be 0ff9 02be 6cc5 853d cc3e b43d
00000290: cc4b 61bd 5204 523d 9aa3 a93e 32ba 243d
000002a0: 7697 723c 1b52 803e e7c0 2bbc 4db8 4c3e
000002b0: 7965 2a3a 288a c7bd 8588 6fbd a0b3 7ebd
000002c0: 4a9b 0f3e e153 08bc 41a3 b53e 0a06 cbbd
000002d0: df90 c63e c053 bc3c 711c 56be 61e4 03be
000002e0: 99c6 513c d5d2 a83d a515 61bc 40cc 1cbe
000002f0: bfbd 06be 32ef cbbd 5d4c b0bc 1b8f d53d
00000300: 2372 663e 7f64 a9bd c1d9 9c3d ac4f 9b3d
00000310: 1df3 13be 2d97 9ebc 1ef1 72bf 04b5 cfbf
00000320: eaae 29be d669 b8bd bf43 b9bc 03ac 68be
00000330: 5fd6 a6bc 08ee 80bd 5030 98bc da50 24be
00000340: 0be4 163e 99a0 5cbe 9492 76be 0569 1fbe
00000350: 4a3a 023f e75e 70bd fd3b 213e eefa 553e
00000360: 8b37 9f3d 2f72 093e e41e aebe 17f6 653f
00000370: 049b 7fbe 0f52 4ebd c1c2 663e 5c74 d4bd
00000380: 36ed bdbd b7d4 4d3e b00b 063e 7aa7 103e
00000390: 729d 8a3e f98d c83f ee74 9e3d 8b8d 003a
000003a0: c6d0 0b3e cf90 9cbe d18e a0bd 1515 87bb
000003b0: 2ec3 f43d 6ef2 543d 45f0 a33e 5e50 a13e
000003c0: 6e74 1ebe 0492 f4be b3a8 d8bd 4541 1fbd
000003d0: 010e 993e 7093 d4be 13e7 0d3e 0337 503e
000003e0: eb65 30be 601c 4abe 76f0 84bd c8e0 953c
000003f0: 622b 8ebe 611f 2b3c cbb0 763c e9c3 d93e
-0.13787425 0.054355387 0.31601593 -0.25996634 -0.030568892 -0.13906132 0.17382537 -0.12564245
0.39768484 0.48799837 0.062467128 0.14670573 -0.28152928 -0.076077856 0.012779966 -0.106849074
0.1906491 0.016074164 0.3304456 0.121625036 -0.075823 -0.03941232 -0.055946257 -0.114723824
0.018902026 0.138067 -0.03234211 0.0028663126 -0.8625325 -1.9929734 -0.40384382 0.114293195
0.12295617 0.01866523 -0.23475075 -0.2077931 -0.03855679 0.00833755 -0.057559587 -0.1769586
0.3470744 0.13793612 0.19333312 -0.074184954 -0.008406181 -0.028539142 0.09524181 0.12811288
0.1942182 0.17623797 -0.19506212 -0.016387124 -0.3612491 0.060657073 -0.16075586 0.19517352
0.06515506 -0.094845064 0.14920554 0.18477923 -0.44757316 0.34029597 -0.052741103 -0.14090027
-0.38634497 0.03793117 0.18090965 0.06839743 -0.44292444 0.8631468 -0.09833999 0.1757763
-0.5646735 -0.38666415 0.029121695 -0.105640225 0.0059112282 0.015173321 0.40207067 0.33209556
0.1969929 -0.0864936 0.094363205 0.11580864 -0.0006435038 0.083801046 -0.060503956 -0.119715065
0.21841393 -0.05166444 0.22705278 0.037547067 0.15084244 0.2263731 0.124012865 -0.016070856
-0.11332429 -0.11575229 0.27215526 0.24684764 -0.13418786 0.31348374 0.1704961 -0.16288862
-0.08205185 0.051808387 0.020527303 0.28603783 -0.030338146 -0.088950515 0.12673073 -0.00073569163
-0.24670999 -0.19391242 -0.048164543 -0.10355395 0.084477395 -0.0061989296 -0.084827885 0.0153215155
0.18948719 0.13991788 0.13341662 -0.063895635 -0.11011343 -0.05206052 0.0064049778 0.16806252
0.44257775 -0.28119904 -0.038549025 -0.041309983 0.249757 -0.045179907 0.0019361861 0.115029626
-0.036743697 0.22400612 -0.08483595 -0.23308767 0.27913713 0.050221547 -0.04055138 -0.106016085
-0.102210425 -0.024783922 -0.15708323 0.24587786 0.045054514 0.22868769 -0.080383055 -0.012253626
0.28321365 -0.10886965 0.004766474 0.00031697168 -0.024211938 -0.045030903 -0.94615924 -1.0650728
-0.2608262 -0.12790321 0.06531796 0.0880104 -0.055003926 0.05127365 0.3313263 0.040216632
0.014806619 0.25062642 -0.010483003 0.1999218 0.0006500106 -0.09743148 -0.058479805 -0.062183022
0.14024082 -0.00832078 0.35476115 -0.09913261 0.38782403 0.022989154 -0.20909287 -0.12880088
0.012803697 0.08243338 -0.013738071 -0.1531229 -0.1315832 -0.09957732 -0.021520788 0.10427686
0.22504477 -0.08271121 0.07658721 0.075835556 -0.14448209 -0.019359196 -0.94899166 -1.6227117
-0.1657063 -0.090045616 -0.022615312 -0.22721867 -0.020365892 -0.06295401 -0.018577725 -0.16046467
0.14735429 -0.21545638 -0.24079353 -0.15567406 0.5087019 -0.058684256 0.1574554 0.20896503
0.07774266 0.13422464 -0.34007943 0.8982863 -0.24961478 -0.050371226 0.2253523 -0.10373756
-0.0927376 0.20100676 0.13090396 0.14126387 0.27073246 1.5668327 0.07737146 0.0004903904
0.1365386 -0.3057923 -0.0783974 -0.004122386 0.1195129 0.05198901 0.3201925 0.31506628
-0.15474102 -0.4776765 -0.10579052 -0.038880605 0.29893497 -0.41518736 0.13857679 0.20333485
-0.17226379 -0.19737387 -0.06491177 0.01829566 -0.27767473 0.010444493 0.015056799 0.4253228

lstm.weight_hh_l0_reverse f4 [256, 64]
00000000: 8838 503e 0036 f13c 8a66 27be e124 b9bc
00000010: 7df4 2bbd 0ca8 433d a200 8a3d 4409 2a3d
00000020: 5861 c33d d5c1 22bd c4d8 983d 0051 d3bc
00000030: 4167 a13d f378 da3d 92ae 1dbd ed8e 40be
00000040: 1eff b3bd 876c 73be 0181 eb3c 06b1 f3bd
00000050: 336f 0f3e 7358 dabd 3b1e 31be f232 ea3a
00000060: fae7 2dbd 1b1b 27be 4b74 ffbd 11de 90bc
00000070: 1f87 9e3d 5ee8 463e 1240 83bd eac4 3a3e
00000080: cee2 913e 79bf 95bb 1e86 57be 76c0 4dbe
00000090: 0205 1f3d a52d 3b3c ca0e 0dbd d3a7 bd3c
000000a0: 45f0 1fbc 1e0c 3cbe 0d39 f63d 9fb2 ba3c
000000b0: 4890 b8bd ac12 7c3e 4c02 27bd 2518 cb3c
000000c0: a5a5 1f3e 4ee4 8e3d 9f75 e1bd 7126 cbbd
000000d0: dcd3 e03c ac7c 03be 32d4 163e 158e cebd
000000e0: b704 1abe 2483 0ebe 15de dc3d f04e e43d
000000f0: ae56 3d3e 5f00 2dbe 7ed0 f7bc 36f6 b33d
00000100: 05d4 1c3e 67ab 8b3e 60ba 9dbd 8c89 cabd
00000110: 2f53 35be 66db 6dbe 42ea 993e b5f5 3c3e
00000120: a1dd 4b3d da09 a3bd 4db4 0bbe 192c 6d3d
00000130: 9c66 303e 941c 133e 14b4 b6bd d6c1 d0bd
00000140: 9f50 f0bb 63ff 87bd 8228 163e e9ea 20bd
00000150: 3e79 d63d 6e95 fb3d c630 8fbd 53e5 3b3d
00000160: ad34 fabd 5c19 d43d 402b 85bd 57a1 05bd
00000170: 26f9 20bd 6643 11bc b840 04be aedf 2f3e
00000180: 9298 d93c deaa 903c 3d92 eebc b511 c5bd
00000190: f801 dbbd b916 c3bd 4a15 9d3d f0ce 103e
000001a0: 1338 293c bcbd dbbd b587 0ebd a9f9 b7bc
000001b0: 26bc 503d efe9 623d 1fd8 da3d 0985 77bd
000001c0: 47c4 c93d 5efa a3bc 6a27 82be fdd9 65be
000001d0: 7abb e1bd 08e3 caba 2f7d 83bd 178e 43be
000001e0: 9903 4c3d eaa8 35be bc34 91bd a818 633c
000001f0: f039 04be f2ce 2ebb dffc 433d 8f88 b33d
00000200: b28e 2c3e 502c c53d cc79 093e e84e 3bbe
00000210: 1bc4 1abe 3035 bdbe e6e6 b53d 5c1c 2c3c
00000220: 6f90 953d 9ceb 143e 73aa 843d 90ef 03be
00000230: ecd3 a2bd 01b8 5f3e 09b1 f0bd 2a89 36be
00000240: 2655 103e 9e2a 73be 001b 4f3d 0168 aa3e
00000250: eee9 de3d 947f 083e bc20 d6bb f7f8 a7bd
00000260: 6669 e2bd d5c6 813e 43fb 613e e7fc e5bd
00000270: 76e0 763e c902 433e bfac 89be ff14 583a
00000280: a602 213d d95b 92be 0f86 cd3d 5a98 1ebe
00000290: d125 15be d84e 873d 3642 93be 60ca 643e
000002a0: 81db 6dbd 8743 43be 4104 aebe f876 74be
000002b0: 5774 683e 31ae 973e eda5 81be 77db 3abe
000002c0: 7b6f 32bd c67a 68be ea0c 3abe 5e75 043c
000002d0: 4c4a b8bd c0d6 65be 3bf4 3fbe 82be 1dbe
000002e0: 7c0a 343e 0c51 38be 16ac 32be 57c1 8b3d
000002f0: a38f 76bd 8ded 50be 39c4 ec3e bee4 a7bc
00000300: 73f7 5bbc 12dd dabd e4d8 e73d 2d90 e7b9
00000310: 4b16 d63d a464 09be 0d61 72be 78df 58be
00000320: d10a e2bc 0fc6 853d 7f25 473e 958e 13be
00000330: a23f 2cbd 993d 1b3b 5875 d2bc c1a3 54bd
00000340: e425 5bbd 1fda a9bd c158 323d 4ba1 173e
00000350: e225 1dbe f6af 3c3e b9b2 42be 82ba 143c
00000360: d383 7ebd 8a25 933d 8582 ab3e 8d11 3f3e
00000370: af83 c0bd 7de9 3fbe 9f5d 9ebd 0fd3 a73d
00000380: 4f73 db3e f086 2cbd 6805 0c3e 4c3c 973e
00000390: e9b9 083e 6e7e 9b3e 21af bbbd 21df c3bc
000003a0: f1a3 4c3d 601b 41be d00e 23be adc0 73be
000003b0: 7958 67bc b06c 423d 5a0f 7fbe 15e9 1abb
000003c0: 7c33 f63d 5d5d 363d 37e8 0d3e f2fd 463d
000003d0: 5683 90bb c278 2dbe 9cdb e0bd 0032 903d
000003e0: a2cc 9bbd 5174 dfbc 1726 a5bd 1091 963d
000003f0: 2d98 3b3e 98f6 d43d c80b c73d 5de9 f5bd
0.20334065 0.029444695 -0.1634771 -0.022600593 -0.04198121 0.047767684 0.06738402 0.041512743
0.09540051 -0.039735634 0.0746322 -0.02579546 0.07881022 0.106676005 -0.03849656 -0.18804522
-0.08788894 -0.23771869 0.028748037 -0.11898999 0.14007263 -0.106614016 -0.17296688 0.0017867966
-0.04245756 -0.16318934 -0.12473353 -0.017684015 0.07740616 0.19424579 -0.06408705 0.18239179
0.2849335 -0.0045699445 -0.21047255 -0.2009295 0.038823135 0.011424457 -0.034437932 0.023151314
-0.009761875 -0.18363997 0.120226 0.022790251 -0.090118945 0.24616498 -0.040773675 0.024791786
0.15590532 0.069771394 -0.110087626 -0.099194415 0.027444772 -0.12840527 0.14729384 -0.10085694
-0.15040861 -0.13917214 0.10784546 0.11147869 0.18490097 -0.16894673 -0.030250784 0.087871954
0.15315254 0.27279207 -0.07701564 -0.09889516 -0.17707513 -0.23228225 0.30061537 0.18453105
0.04977191 -0.079608634 -0.13642998 0.057903383 0.17226642 0.1436637 -0.08921066 -0.10193221
-0.0073338295 -0.06640508 0.1466389 -0.039286528 0.10472344 0.12284361 -0.06991725 0.045872997
-0.12217078 0.103563994 -0.0650239 -0.03262457 -0.039300106 -0.008866167 -0.12915313 0.17175171
0.026562009 0.0176596 -0.029122466 -0.09622518 -0.10693735 -0.095258184 0.07670076 0.1414144
0.010328311 -0.10729548 -0.03479739 -0.022457914 0.050960682 0.055398878 0.10685753 -0.060429607
0.0985189 -0.020016845 -0.25420696 -0.22446437 -0.110220864 -0.0015479038 -0.06420361 -0.19097172
0.04980812 -0.17740217 -0.070901364 0.013860859 -0.12912726 -0.0026673642 0.04784858 0.08766281
0.16851309 0.096275926 0.13425368 -0.18291819 -0.15113871 -0.3695464 0.08881931 0.010504808
0.07302939 0.14543003 0.06477823 -0.12884355 -0.07950577 0.21847536 -0.11752517 -0.17825761
0.14094982 -0.23746726 0.05056286 0.33282474 0.10884462 0.13329917 -0.006534664 -0.08201783
-0.110552594 0.2534701 0.22068505 -0.11229878 0.24109063 0.19044031 -0.26889607 0.0008242875
0.039309166 -0.285857 0.10035335 -0.15487805 -0.14565207 0.06606835 -0.28761452 0.22342825
-0.058070663 -0.19068728 -0.3398762 -0.23873508 0.2270063 0.29625085 -0.25321904 -0.18247782
-0.043563347 -0.22703084 -0.18168989 0.008084623 -0.08998546 -0.22445202 -0.1874551 -0.15404704
0.17582124 -0.17999667 -0.17448458 0.06823986 -0.060195576 -0.20403118 0.46243456 -0.020494815
-0.013425696 -0.10686697 0.113206655 -0.00044167173 0.10453471 -0.13417298 -0.23669834 -0.21178997
-0.027593048 0.06531917 0.19447897 -0.1440986 -0.042052872 0.0023687838 -0.02569072 -0.05191398
-0.053502932 -0.082935564 0.043541674 0.14807622 -0.15346482 0.18426499 -0.1901349 0.00907767
-0.062137436 0.071848944 0.33498016 0.18659039 -0.09400117 -0.18741412 -0.077327006 0.08194553
0.4286141 -0.042120874 0.13673937 0.2953819 0.13352169 0.30369896 -0.091642626 -0.023910107
0.049961034 -0.18858099 -0.1592362 -0.23803969 -0.014120215 0.047466934 -0.249082 -0.0023637463
0.120215386 0.044522632 0.13858114 0.048582025 -0.0044101877 -0.16940597 -0.10979387 0.07040787
-0.0760739 -0.027277144 -0.08063906 0.07351887 0.18319769 0.103985965 0.09719044 -0.12007401

lstm.bias_ih_l0_reverse f4 [256]
00000000: becf 823e 630a eabc 3e43 653f 22de 53be
00000010: a944 423e e9ed 46be 7b46 d83e b657 b03d
00000020: 6abd 03be ffd9 8a3d e613 ec3c c5b6 41be
00000030: 2ba4 c43d 94f5 143d f504 053d 8ebd 003f
00000040: 9be9 173e d0d1 21be 6fde 773d ce8e 703f
00000050: b4fd df3d 1c81 313f 5f2f 693f ab81 e63b
00000060: ad4d 31be c9f3 103e 6ff0 023f fb24 ed3d
00000070: d7ac 363f ee71 773d c088 cebd e72d 263c
00000080: c884 b53e 9a86 043c f729 233f b8da 09be
00000090: 0f0a 5cbd 663c 2dbd bd7b 443d d47a 473d
000000a0: ce06 8bbd 2b42 7dbd e26c 63bd f646 8f3d
000000b0: fa1e a53e 30f8 de3d 3836 19be 611e 4c3f
000000c0: 8dbc 723e c954 023e 067b cbba 3096 9abd
000000d0: de0e cebd 6f32 603e 389b b63e 351e c3bd
000000e0: fc67 71be 95a6 0d3d b9c9 153d 3c4e 683e
000000f0: 997a 0a3e b5bf a33d 11d3 6e3e cc6d a13d
00000100: 8a43 41bd 819d c2bd 2119 f73d 3cea b13d
00000110: d453 c93d a54a e7bd 5e2e 2dbd b40d 3c3e
00000120: c2e3 903d b832 dabc 7eeb d4bd d04f 81bd
00000130: 6d9a 4bbd bbd1 5f3d 23ae c83b c30e d5bd
00000140: 54df 3cbb 747b 2ebe 9777 bfbc 4282 4d3e
00000150: 6755 b9bc 3e04 9fbd 73c6 68be a7e8 e33d
00000160: ac87 873d 569e 5fbe 8e73 993d b5ad 10bd
00000170: a85c 7dbd 8883 103d 7e90 ee3c 16db e7bd
00000180: 2c20 933d 03b8 833d fad6 f33d df4f 02be
00000190: 44bf e6bc 132a 1dbe 82d7 bfbd 612f 563e
000001a0: b713 abbd 9b81 fabd 4f7d 1fbd 027b 8c3c
000001b0: 1d17 fdbd 7f1f 4c3e c2ec 77ba e644 223e
000001c0: 7fd7 c13a 759f 853d 1ebf e53d 99d5 0f3b
000001d0: 80f3 32bd dbe8 9b3c d9c4 adbb ef7b 333d
000001e0: 6b2c 23be 0689 1ebd 2980 e8bd bd19 193d
000001f0: 3f7a 92bd b36b 31bd 8157 423e 1e0b 87bd
00000200: c74a aabd ff35 e4bd 68b9 883e 45b6 013e
00000210: a5c3 edbb 2e53 5c3d 8a07 11be a555 49bd
00000220: 4dd0 2ebe 4b63 acbd 3735 25bc c6c4 143e
00000230: 5ace 59bc 726e 8abc f0da a33d d5d3 433e
00000240: 00b1 48bd 3319 ae3c 2ed9 03be c3dd 233e
00000250: ceba e8bd 4973 5c3d e0e2 333e b3a2 8c3c
00000260: 7faf 5f3d e316 9cbd 656a 123e 7262 553d
00000270: 6088 76bd e6ca 12be c0f5 503d 5cba 09be
00000280: 8192 223d 30e1 d93d 4704 d33d ee1f e23d
00000290: 44db 923d caaa 01bd 7d6d be3d 411a f1bd
000002a0: 9107 a6bc e738 d4bd 976d e53c 88bb bbbc
000002b0: abc7 f1bd 71ce 12be 8360 823d aa0b 653d
000002c0: 1bdc 98bd 8f7b 8bbc 7bb5 3ebc de2a 253e
000002d0: b376 e23d e6c4 4cbb 4d8e 363d 9314 1abd
000002e0: c0fa 133c d560 2f3e 0cea b8bd 9fb0 26be
000002f0: 5548 9a3c ed04 2b3e f163 0e3d 05f4 b3bd
00000300: 7599 d03e 1d49 af3c 7a83 303f d70c b2bc
00000310: 7e48 8b3d cbbb 80bb 7ebe 0e3f e1ac 3bbb
00000320: cb55 c13d 19f6 11bd 20d0 91bd 6eb6 a8bd
00000330: c9e1 1d3d a448 833d 640a 6dbc 1377 ea3e
00000340: 5ada 103e 5ecd 46be 7e32 363d 3bdc 493f
00000350: ab9c 0e3e 3c07 413f 9ce0 533f 67c6 853c
00000360: 0498 983d da53 b93d c8aa 063f 7bc4 43bd
00000370: 76dd 703f 7481 f03d 3a69 c13a ef9e cb3d
00000380: e356 733e 5bb6 913d 2355 273f df45 14bd
00000390: 8b43 0f3e e775 c63c 9006 07bd 00ea ed3c
000003a0: 565f 6d3d 3d08 85bc fa39 39bc 6a42 4a3e
000003b0: 2f8d 9b3e e1d8 c63c 1a6a 8d3d 475a 343f
000003c0: 264d 8f3d 5963 973d 92a6 653e 8a98 043e
000003d0: 87c7 a63d 9358 933e 7074 133f 9774 64bd
000003e0: 9658 4fbb 9812 9bbd 106f 1f3e f409 b53e
000003f0: 6070 15bd 9556 90bd bce6 ca3e 7a7c 31bd
0.2554912 -0.028569406 0.8955573 -0.20690206 0.18971504 -0.19426693 0.42241272 0.086104795
-0.12865224 0.06779861 0.028818082 -0.18917377 0.09601625 0.036367014 0.03247543 0.5028924
0.14835207 -0.15802693 0.060514864 0.939679 0.10937062 0.6933763 0.9108791 0.0070345006
-0.17314787 0.14155497 0.5114812 0.11579319 0.7135748 0.060411386 -0.10084677 0.01014278
0.35452867 0.008088732 0.6373591 -0.13462341 -0.05372053 -0.04229393 0.04796957 0.048701122
-0.06788407 -0.06183068 -0.05552376 0.069959566 0.32250196 0.10887182 -0.14962089 0.79733855
0.23704739 0.12727655 -0.0015524335 -0.07548177 -0.100614294 0.21894239 0.35665298 -0.09527246
-0.23574823 0.034582693 0.03656933 0.22686094 0.1352333 0.079955496 0.23322703 0.0788227
-0.04718355 -0.09502698 0.1206534 0.08687255 0.09830442 -0.11293534 -0.042280547 0.18364602
0.07074691 -0.026635513 -0.10396479 -0.06314051 -0.04970782 0.054643374 0.0061242743 -0.10403206
-0.0028819637 -0.17039281 -0.023372455 0.2006922 -0.02262373 -0.07764481 -0.22731952 0.11128359
0.06617674 -0.21837744 0.074927434 -0.03532191 -0.061855942 0.035281688 0.029121634 -0.11321084
0.07183871 0.06431582 0.11906238 -0.12725781 -0.028167374 -0.15348081 -0.09367277 0.20916511
-0.0835337 -0.122317515 -0.038937863 0.017148498 -0.12357924 0.1993389 -0.0009457582 0.15846595
0.0014788954 0.06524555 0.11218093 0.0021947382 -0.04368925 0.019031933 -0.005303007 0.043819364
-0.15934913 -0.038704894 -0.113525696 0.03737806 -0.07152223 -0.0433156 0.18978693 -0.06593917
-0.08315044 -0.111431114 0.26703954 0.12667187 -0.0072559887 0.053790264 -0.14163032 -0.049153943
-0.17071648 -0.08417376 -0.010083488 0.14528188 -0.013293827 -0.016898368 0.080007434 0.19123776
-0.048996925 0.02125225 -0.12875816 0.16002564 -0.11363755 0.053820882 0.17567015 0.017167425
0.054610725 -0.07621553 0.14298399 0.052095838 -0.06018865 -0.14335212 0.051015615 -0.13449997
0.0396905 0.10638654 0.1030355 0.11041246 0.07170728 -0.031657018 0.09298227 -0.11772586
-0.02026728 -0.10362416 0.028006358 -0.02291657 -0.11805662 -0.14336564 0.063660644 0.055919327
-0.07463857 -0.01702669 -0.011639948 0.16129634 0.11057796 -0.003124529 0.044569302 -0.037617277
0.009031951 0.17126782 -0.09029016 -0.16278313 0.018833319 0.16701098 0.03476328 -0.087867774
0.40742078 0.021397168 0.6895062 -0.021734638 0.06800936 -0.0039286367 0.5575942 -0.002863698
0.09440192 -0.035635088 -0.07119775 -0.08237921 0.038545404 0.064103395 -0.014467809 0.4579397
0.14145795 -0.19414279 0.044481747 0.7885167 0.13926952 0.75401664 0.827646 0.016329957
0.0745087 0.090491965 0.5260434 -0.0477948 0.9408792 0.11743441 0.0014756091 0.099424236
0.23763613 0.0711486 0.65364283 -0.036199447 0.1399061 0.024226142 -0.032965243 0.029042244
0.057952248 -0.01623928 -0.011305327 0.19751897 0.30381152 0.024273338 0.06905003 0.7045025
0.06997137 0.07391996 0.22426823 0.12948814 0.081435256 0.28778514 0.57599545 -0.05577525
-0.0031638495 -0.07571906 0.1556971 0.35359156 -0.036484122 -0.07047764 0.3962916 -0.0433316

lstm.bias_hh_l0_reverse f4 [256]
00000000: 46d3 9e3e 6776 113d c26a 433f 2894 99bd
00000010: d94b fe3d a93c 64bc 1196 d13e 8c0c c4bc
00000020: 5974 773d 5385 ffbc 9039 a7bd 2da2 17bd
00000030: b342 bf3b 8629 aebd 2d79 f4bc 81f3 b63e
00000040: b694 003c 9016 52bd e6d8 c4bd f48e 633f
00000050: 72b4 c33d 6463 223f 73f3 523f 29a5 c93d
00000060: 2d99 eabd c8ef 6c3d 101d f13e 6ccc 85bd
00000070: 131f 523f 47d4 883d 7503 9dbc c6d8 f13c
00000080: f195 053e 56f1 b8bd 8b8d 273f 6451 4ebc
00000090: 6f16 59bd 7719 903d 2df5 1f3e 68b5 2c3e
000000a0: 4813 9a3c 7067 1abe 15ca 8dbb de45 b33d
000000b0: 22f5 b73e 13f9 f3bc 1409 18be 534b 453f
000000c0: bf95 4d3e 30cb 103e b549 3e3d 1546 873c
000000d0: 428b ee3d 572d 7f3e 38d3 e03e 36b7 1f39
000000e0: 0281 69bc 8d92 1c3d b7eb 233c 17cb 933e
000000f0: ad35 eb3d 8311 c4bd da07 a33e c261 273b
00000100: 0f7f aa3d 0934 bc3d 0dcc 943d a633 c6bd
00000110: 4a0b 3fbc e634 46be 6a4e 063d d780 47bc
00000120: 01ee f63b 8377 fbbd d2fc 123d e882 543c
00000130: a54c 15be 83b1 e7bc 220e 213e 7d02 dabd
00000140: 17aa 2fbe 16a6 a0bd 45e3 9d3c 11fa f93d
00000150: 8904 6abe de1f efbd 980a 01be 171e e93d
00000160: dad9 a8bd deb3 0dbe 3e0c 9a3d 989e 2f3e
00000170: 56c6 32be 2ddc e4bb 1a10 48be 9af1 27be
00000180: 9431 b73d 288c 71bd b480 8e3d 80a7 0cbe
00000190: 543a 7e3d 9910 1dbe 46f4 91bd 4726 083e
000001a0: 930f b4bd 5d91 19bd a9a0 43bd 6a17 ec3b
000001b0: 74a9 8f3b 19f0 213e d517 e1bd f5ae 3abd
000001c0: 4d59 d83d 9b94 503d 708b 7fbc babc 11bc
000001d0: 5844 adbd 0d84 963d 5865 4cbc 8e6e 133c
000001e0: 275a 25be acae f53c 5c40 d43a 87f5 c9bd
000001f0: bcb6 f3bd a367 8f3d aa89 d7bc 5cc5 8bbd
00000200: bf1b cfbd 80a7 6abc d201 263e cc25 bd3d
00000210: 41bd 093e d6ef c1bb 7348 1b3d 8fbf 0cbd
00000220: b184 c33c fb0a 8dbd 7adc 42bd 374b 54bd
00000230: 8466 17bc cf12 ddbd e30d 4e3d 214f 4e3e
00000240: 1d2b d13c a451 963d 5911 31bd 274e 793e
00000250: 7ffd 063d 3ab1 043e cc21 6d3e 1155 323d
00000260: 3a16 30bb fb4f a0bd 57fd 053e e0c0 c63d
00000270: f956 19be b635 37be 2db3 143e 2017 55bc
00000280: 943e 59bd 32a2 da3d 999f b53d 878e f6bb
00000290: bb6d 183d 0cba 0f3d 53e2 e93d c668 3fbd
000002a0: a9fb e5bd 57cc b13d 6f51 f63d 0c5d c23d
000002b0: cb1d 15bd 59f5 a1bd 0fee 853d 4ab6 563d
000002c0: 2020 1fbe fc2c f63d 3468 da3d 2c0f 81bc
000002d0: a667 133e facd ecbc d1b3 21be 0ef7 b73d
000002e0: 6a35 ad3c daa3 63bc b0d3 d83d fa6a f1bc
000002f0: fc36 35bd 0014 7abd ab5a a2bc 566c 2a3d
00000300: c525 bc3e 888b 0e3d d46d 363f 651e b6bc
00000310: 4c80 b13d 6f6f 1d3d 23b4 1d3f 66f8 1abd
00000320: 5b1f 9d3d 48e7 883d 5cd8 abbd 225f a3bd
00000330: 86bc 9e3d 664a 203a 3fe4 96bb 79d5 b33e
00000340: 9f95 123d 5dde cbbc b614 2c3d ee76 633f
00000350: 4494 473e 5acc 253f bfe4 6f3f 69ce c2bc
00000360: f522 07bd fa75 c8bb 960b 033f 2d5f 7abd
00000370: 52ab 583f 40fe 133e f712 0a3e 55af a93d
00000380: 4f47 363e 8052 f73d f32e fd3e 7195 8dbd
00000390: dad9 34bd 7970 643d 52c5 4e3e d828 aebc
000003a0: 3c2f 693d 579a bdbd 2cdf 50bc 26e3 6f3e
000003b0: ca3d c33e 468c 353e 1233 313c cf4d 153f
000003c0: 3330 4c3b a2ad 0a3e 1855 9f3d 5bfc dabd
000003d0: ade5 b9bd 715c 8c3e e4aa 043f 1822 cebd
000003e0: d4bd 26bd d1fb d8bb 4bff b0bd 4267 403e
000003f0: eadd bcbb c0fd 9b3c 3ef3 9b3e eae0 debd
0.31020564 0.035513308 0.76334774 -0.07498962 0.124168105 -0.013930478 0.40934804 -0.023931764
0.060413692 -0.031191504 -0.08165276 -0.037019897 0.0058368086 -0.08504014 -0.029842937 0.35732654
0.007847955 -0.05129105 -0.096116826 0.88890004 0.095559016 0.6343291 0.82402724 0.09845955
-0.11454997 0.05784586 0.47092485 -0.06533131 0.82078665 0.06681114 -0.019166688 0.029522311
0.1304548 -0.09030406 0.6545035 -0.012592647 -0.05299991 0.07036107 0.15620871 0.16866076
0.018808022 -0.15078521 -0.0043270686 0.087535605 0.3592921 -0.029781854 -0.14847213 0.7706806
0.20076655 0.1414001 0.04645701 0.01651291 0.11647655 0.2491964 0.43911147 0.00015231673
-0.014251949 0.0382257 0.010004929 0.28865883 0.11484847 -0.095736526 0.31841928 0.0025540446
0.08325016 0.091896124 0.07265482 -0.0967782 -0.011660406 -0.19356117 0.032789625 -0.012176714
0.0075356965 -0.122786544 0.03588564 0.012970664 -0.14580019 -0.028282886 0.15728047 -0.10645006
-0.17154728 -0.078441784 0.01927341 0.122058995 -0.22853293 -0.11676 -0.12601697 0.11382692
-0.08244677 -0.13838145 0.07521866 0.17150342 -0.17458472 -0.006984255 -0.19537392 -0.16400757
0.08945003 -0.058971554 0.06958142 -0.13735771 0.062067345 -0.15338363 -0.071266696 0.13295852
-0.08792033 -0.037492145 -0.04776064 0.0072049396 0.004384214 0.15814246 -0.10990874 -0.04557701
0.10563908 0.05092297 -0.015597209 -0.008895094 -0.08460301 0.073494054 -0.012475334 0.008998526
-0.16147672 0.029990517 0.0016193497 -0.09861284 -0.11900088 0.07002189 -0.02631076 -0.06824753
-0.10112714 -0.014322162 0.16211632 0.09235725 0.13451101 -0.0059184832 0.03791089 -0.034362372
0.023866983 -0.0688686 -0.047573544 -0.051829543 -0.00924075 -0.10794603 0.050306212 0.20147373
0.025533253 0.073397905 -0.043229435 0.24346219 0.032956596 0.12958232 0.23157424 0.043538157
-0.0026868717 -0.07827755 0.13084923 0.09704757 -0.14974584 -0.17891583 0.14521475 -0.013006002
-0.053038195 0.106754676 0.088683315 -0.007524315 0.037214022 0.035089538 0.11420121 -0.04673078
-0.11229641 0.08681553 0.12027251 0.094904035 -0.036405366 -0.079081245 0.06539547 0.05241994
-0.15539598 0.12020299 0.106644064 -0.015754305 0.14395007 -0.028906811 -0.15791251 0.08982669
0.021143634 -0.013894046 0.10587251 -0.029469956 -0.04424189 -0.06105423 -0.019818624 0.041607223
0.36747566 0.034801036 0.71261334 -0.02223129 0.08667049 0.03843635 0.6160299 -0.037834547
0.07671996 0.066847384 -0.08390877 -0.079771295 0.07750802 0.0006114602 -0.004604846 0.35123804
0.03578722 -0.024886305 0.04201194 0.8885335 0.19490153 0.6476494 0.93708414 -0.023780065
-0.032992322 -0.0061175795 0.51189554 -0.061125923 0.84636414 0.14452457 0.13483797 0.08285395
0.1780064 0.120762825 0.49449882 -0.06913269 -0.044153072 0.055771325 0.20192459 -0.02125971
0.05692981 -0.092579536 -0.012748521 0.23426494 0.3813308 0.17729291 0.010815399 0.5832185
0.0031156659 0.13542798 0.07779902 -0.10692664 -0.0907701 0.27414277 0.5182326 -0.100650966
-0.040708378 -0.0066218157 -0.08642443 0.1878939 -0.005763759 0.019041896 0.30459017 -0.10882743
