models/transformer_model.pt (torch, 310058 bytes, 29 tensors)

input_projection.weight f4 [64, 10]
0.03438041 0.071906425 0.023469524 0.02453015 0.08654164 -0.0027323542 0.0062658945 -0.038337253
0.06581083 -0.18529095 -0.13260603 -0.23687036 0.022574332 0.15531522 -0.20842902 0.08842383
-0.14748828 -0.032145664 0.14379019 -0.085347675 0.047591638 0.11102845 -0.01125238 -0.1878242
0.29851606 -0.039319295 0.052911386 -0.03153498 -0.16917375 -0.05469132 0.04063237 0.05672914
0.0013189656 0.011818419 0.009461986 -0.09897337 0.026904915 0.044090837 -0.014458891 -0.092952184
-0.1351439 0.20479745 0.041735996 0.01898338 0.08416929 0.018705674 0.041710746 -0.07707935
0.17140095 0.03813365 0.005311907 0.24956603 -0.0068687433 -0.027995989 0.112409644 -0.020473728
0.017452318 -0.016798923 0.09291466 0.48876613 0.16938761 -0.26284763 -0.0483306 -0.2887608
0.22217278 0.029481122 0.06811083 0.08297463 0.0129157 -0.1901616 -0.03378598 0.34648007
-0.07020999 0.088720426 0.055298846 -0.04641505 -0.0047532897 -0.028967055 -0.114546485 -0.0045694937
-0.14166807 0.21604542 -0.22679402 -0.24073133 -0.03438519 -0.22476958 -0.1298656 -0.015377366
0.15354982 0.28690386 -0.011189175 -0.069581755 0.09007189 0.06411845 -0.059807222 0.017281266
-0.08201899 -0.017536012 -0.13723472 0.04107742 -0.13411136 -0.05139955 -0.13568 0.060835626
-0.0709424 0.008297277 -0.06873635 0.04897124 -0.06466328 -0.15737155 -0.006811958 0.057721008
-0.04649047 -0.023003606 0.030603744 -0.010122781 0.013109578 0.0068130842 -0.19377966 -0.7586161
0.0052062618 -0.28986472 0.005275104 -0.02696055 -0.069655105 -0.005311141 -0.006469157 0.032355696
0.077040344 -0.3238962 -0.23316334 0.073344424 0.15855883 -0.111191794 -0.13706487 -0.052932184
-0.13908537 0.07196881 -0.2708213 0.2192611 0.07062959 0.15015729 0.013614129 -0.020093001
0.023235705 -0.00044175217 0.033641886 -0.019562157 -0.183067 -0.5703623 0.16282971 -0.16185488
0.0007195333 -0.07441807 -0.07062958 0.05871133 0.07541658 0.115347065 0.17648435 -0.32221016
-0.6885037 0.47974846 0.38679862 -0.091555186 0.046910565 0.09009316 -0.0889571 0.28786275
0.09115876 -0.279281 -0.106956765 -0.26134145 -0.0010851285 -0.014507521 -0.027698653 -0.007189373
-0.06853227 0.019301293 -0.114519216 0.13881956 0.22311118 0.3426534 -0.28711355 0.10981955
-0.12757553 -0.26505196 -0.08548731 -0.13837585 -0.08859258 -0.5043139 0.27124044 -0.33237994
-0.046592496 -0.02260624 0.17351283 -0.14320587 0.11350604 0.005102973 0.19040166 -0.16646285
-0.15223433 -0.072886124 0.12396789 -0.026777714 -0.31806666 -0.17876266 -0.011173952 0.010700918
-0.073808685 -0.12229424 0.0097110495 0.03003412 0.0057658795 -0.019757453 0.019801343 -0.0013433277
0.009402416 1.1246229e-05 -0.06213053 -0.7455603 -0.32630506 0.5267444 -0.15995383 0.19601347
-0.14705803 0.16268413 -0.25581226 0.011627362 0.020742085 -0.06924852 0.10832222 0.38143566
-0.10342918 -0.019203288 0.19128147 0.07250028 0.1826963 0.06633951 -0.19094416 -0.065584436
0.008746036 0.097779304 -0.0050967773 -0.018905284 0.06196677 0.0037089474 -0.012219809 -0.006594239
0.084490664 0.8942716 -0.07505914 0.11735412 0.06703485 0.45549437 0.1496474 0.24038239
00000000: 79d2 0c3d ad43 933d 2943 c03c 74f3 c83c
00000010: be3c b13d 4c11 33bb 2252 cd3b 8607 1dbd
00000020: d4c7 863d e9bc 3dbe e0c9 07be 258e 72be
00000030: ceed b83c f40a 1f3e 6b6e 55be 8e17 b53d
00000040: 2b07 17be 2cab 03bd bc3d 133e c3ca aebd
00000050: 73ef 423d e262 e33d e75b 38bc fd54 40be
00000060: 19d7 983e 450d 21bd 9cb9 583d d32a 01bd
00000070: e23b 2dbe 0104 60bd 216e 263d d15c 683d
00000080: 24e1 ac3a 0ba2 413c 7206 1b3c 8db2 cabd
00000090: b267 dc3c 9898 343d fce4 6cbc b75d bebd
000000a0: 2a63 0abe 6cb6 513e 5df3 2a3d 0983 9b3c
000000b0: f360 ac3d a43c 993c e3d8 2a3d c7db 9dbd
000000c0: bb83 2f3e 0832 1c3d 810f ae3b 3d8e 7f3e
000000d0: 3213 e1bb d857 e5bc 0737 e63d 85b8 a7bc
000000e0: 2af8 8e3c e59d 89bc 0b4a be3d 8e3f fa3e
000000f0: f273 2d3e f793 86be 4ff6 45bd 75d8 93be
00000100: 4381 633e 6582 f13c b17d 8b3d 9aee a93d
00000110: 5f9c 533c b9b9 42be 2b63 0abd d665 b13e
00000120: 41ca 8fbd 0eb3 b53d 0b81 623d b51d 3ebd
00000130: 7cc1 9bbb 514c edbc 5997 eabd b1bb 95bb
00000140: 6f11 11be 033b 5d3e b13c 68be 4682 76be
00000150: 7cd7 0cbd ff29 66be 7dfb 04be 59f1 7bbc
00000160: 2a3c 1d3e 10e5 923e cd52 37bc e180 8ebd
00000170: 9c77 b83d 8950 833d 6bf8 74bd 7191 8d3c
00000180: 92f9 a7bd afa7 8fbc 4287 0cbe cc40 283d
00000190: 7d54 09be 5688 52bd b3ef 0abe c72e 793d
000001a0: 404a 91bd 4df1 073c a5c5 8cbd 1196 483d
000001b0: 2f6e 84bd 0226 21be d836 dfbb dd6c 6c3d
000001c0: cb6c 3ebd 0f72 bcbc b4b4 fa3c 05da 25bc
000001d0: 8ec9 563c 4b40 df3b 2d6e 46be aa34 42bf
000001e0: 4a99 aa3b 2669 94be c8da ac3b 5fdc dcbc
000001f0: 56a7 8ebd 1409 aebb 39fb d3bb 6887 043d
00000200: 54c7 9d3d b9d5 a5be 5fc2 6ebe 9a35 963d
00000210: 3f5d 223e 86b8 e3bd bc5a 0cbe 6bcf 58bd
00000220: 656c 0ebe 6264 933d 17a9 8abe fb85 603e
00000230: 3fa6 903d d5c2 193e cc0d 5f3c 149a a4bc
00000240: ce58 be3c f99a e7b9 13cc 093d d140 a0bc
00000250: ea75 3bbe 4403 12bf d5bc 263e 49bd 25be
00000260: 109f 3c3a 8068 98bd 3ea6 90bd 4b7b 703d
00000270: 0274 9a3d 153b ec3d 50b8 343e bbf8 a4be
00000280: c741 30bf 97a1 f53e 780a c63e 4981 bbbd
00000290: 4b25 403d c382 b83d 242f b6bd bf62 933e
000002a0: 72b1 ba3d ebfd 8ebe 260c dbbd 8cce 85be
000002b0: df3a 8eba f4b0 6dbc 49e8 e2bc d594 ebbb
000002c0: a65a 8cbd bf1d 9e3c 0d89 eabd b726 0e3e
000002d0: 4277 643e 4470 af3e 8c00 93be 12e9 e03d
000002e0: 29a3 02be e4b4 87be f913 afbd 66b2 0dbe
000002f0: 0770 b5bd b71a 01bf 07e0 8a3e b42d aabe
00000300: c6d7 3ebd b930 b9bc 59ad 313e 8fa4 12be
00000310: db75 e83d d736 a73b a7f8 423e 3d75 2abe
00000320: 51e3 1bbe 5245 95bd e1e2 fd3d f05c dbbc
00000330: a2d9 a2be 8f0d 37be f412 37bc e752 2f3c
00000340: 0229 97bd 6775 fabd 181b 1f3c 1d0a f63c
00000350: b4ef bc3b 62da a1bc 6d36 a23c 9912 b0ba
00000360: 970c 1a3c 30ae 3c37 957c 7ebd 0add 3ebf
00000370: 7511 a7be b9d8 063f f0ca 23be c1b7 483e
00000380: 6196 16be ab96 263e d3f9 82be b180 3e3c
00000390: 4eeb a93c 2bd2 8dbd 0ad8 dd3d 894b c33e
000003a0: aed2 d3bd 3750 9dbc 4adf 433e 077b 943d
000003b0: bd14 3b3e 02dd 873d de86 43be 2251 86bd
000003c0: 894b 0f3c 8440 c83d de02 a7bb 41df 9abc
000003d0: ded0 7d3d d011 733b 9835 48bc 7c14 d8bb
000003e0: 7109 ad3d fcee 643f 9bb8 99bd 5b57 f03d
000003f0: 9149 893d 8f36 e93e 2b3d 193e cd26 763e

input_projection.bias f4 [64]
0.19550745 -0.72395295 -0.63971984 -0.15634741 0.65075153 0.18200809 -0.46421283 -0.07276256
0.09299411 -0.58340204 0.53805816 0.0008776608 0.051487084 0.37109557 -0.40581775 0.20523007
-0.0065917056 0.04805757 -0.5316157 -0.078710034 -0.28509474 -0.24910817 -0.074438915 -0.39804116
-0.26818871 -0.5560339 -0.3497482 -0.12603846 0.2361988 -0.20385635 0.037727866 -0.20096311
-0.35798448 -0.11688937 0.1798772 -0.2839493 -0.26012442 0.007163273 0.15280347 -0.6997828
-0.2519058 -0.39244586 0.086113185 -0.027626313 0.052860223 -0.389737 -0.2681272 -0.37527928
-0.2464856 -0.24193367 0.28914037 -0.48918796 -0.29616648 -0.322442 -0.13984172 -0.16425079
0.21644546 -0.22627255 0.27340102 -0.31780663 0.2731301 -0.4757772 -0.34412998 -0.25042802
00000000: 1b33 483e fb54 39bf aec4 23bf 8919 20be
00000010: a797 263f 5460 3a3e 4ead edbe 8904 95bd
00000020: b273 be3d d659 15bf 2ebe 093f d212 663a
00000030: 1fe4 523d 3d00 be3e 58c7 cfbe d527 523e
00000040: 3cff d7bb 04d8 443d f717 08bf ba32 a1bd
00000050: f0f7 91be 3616 7fbe 6e73 98bd 0dcc cbbe
00000060: 0850 89be 3d58 0ebf 3212 b3be 3a10 01be
00000070: 19de 713e b8bf 50be 8988 1a3d 46c9 4dbe
00000080: be49 b7be b263 efbd bb31 383e cd61 91be
00000090: 072f 85be e4b9 ea3b 8378 1c3e f724 33bf
000000a0: ccf9 80be aaee c8be 1c5c b03d 9450 e2bc
000000b0: f683 583d 9c8b c7be f847 89be 9b24 c0be
000000c0: b966 7cbe 76bd 77be 350a 943e d876 fabe
000000d0: 22a3 97be 1e17 a5be ab32 0fbe 5c31 28be
000000e0: e1a3 5d3e feb3 67be 38fb 8b3e 8db7 a2be
000000f0: b5d7 8b3e 1299 f3be ce31 b0be 1a38 80be

pos_encoder.pe f4 [1, 100, 64]
0.0 1.0 0.0 1.0 0.0 1.0 0.0 1.0
0.0 1.0 0.0 1.0 0.0 1.0 0.0 1.0
0.0 1.0 0.0 1.0 0.0 1.0 0.0 1.0
0.0 1.0 0.0 1.0 0.0 1.0 0.0 1.0
0.0 1.0 0.0 1.0 0.0 1.0 0.0 1.0
0.0 1.0 0.0 1.0 0.0 1.0 0.0 1.0
0.0 1.0 0.0 1.0 0.0 1.0 0.0 1.0
0.0 1.0 0.0 1.0 0.0 1.0 0.0 1.0
0.84147096 0.54030234 0.68156135 0.731761 0.53316844 0.84600914 0.4093089 0.9123959
0.3109836 0.9504153 0.23492105 0.9720145 0.17689219 0.9842302 0.13295726 0.99112177
0.099833414 0.9950042 0.07491915 0.9971896 0.05620449 0.9984193 0.042157155 0.999111
0.031617504 0.99950004 0.023711512 0.99971884 0.01778186 0.99984187 0.013334819 0.99991107
0.009999833 0.99995 0.0074988706 0.99997187 0.0056233825 0.9999842 0.0042169513 0.9999911
0.0031622713 0.999995 0.0023713717 0.9999972 0.0017782785 0.99999845 0.0013335211 0.9999991
0.0009999998 0.9999995 0.000749894 0.9999997 0.0005623411 0.9999999 0.0004216964 0.99999994
0.0003162278 0.99999994 0.00023713727 1.0 0.00017782794 1.0 0.00013335208 1.0
0.9092974 -0.41614684 0.99748 0.070948265 0.9021307 0.43146282 0.7469035 0.6649324
0.5911271 0.8065784 0.45669332 0.8896242 0.34820527 0.93741834 0.26355368 0.96464473
0.19866931 0.9800666 0.1494172 0.98877424 0.1122313 0.9936821 0.084239356 0.99644554
0.063203394 0.9980007 0.04740969 0.99887556 0.035558093 0.9993676 0.026667267 0.99964434
0.019998666 0.9998 0.014997319 0.9998875 0.011246587 0.99993676 0.008433828 0.9999644
0.006324511 0.99998003 0.0047427304 0.99998873 0.0035565514 0.9999937 0.0026670396 0.9999964
0.0019999985 0.99999803 0.0014997876 0.99999887 0.0011246821 0.99999934 0.0008433927 0.99999964
0.0006324555 0.9999998 0.0004742745 0.9999999 0.00035565588 0.99999994 0.00026670416 1.0
0.14112 -0.9899925 0.7782725 -0.6279267 0.9932532 -0.11596616 0.9536345 0.3009673
0.8126489 0.58275366 0.652904 0.7574407 0.5085361 0.86104065 0.3894703 0.92103904
0.2955202 0.9553365 0.22307542 0.9748012 0.16790329 0.9858035 0.12617177 0.9920084
0.094726086 0.99550337 0.071081206 0.9974705 0.053323086 0.9985773 0.039994974 0.99919987
0.0299955 0.99955004 0.022494925 0.999747 0.016869437 0.9998577 0.012650555 0.99992
0.009486687 0.999955 0.007114062 0.9999747 0.005334813 0.99998575 0.0040005534 0.999992
0.0029999954 0.9999955 0.0022496805 0.9999975 0.0016870227 0.99999857 0.0012650889 0.9999992
0.00094868324 0.9999996 0.00071141176 0.99999976 0.0005334838 0.9999999 0.00040005625 0.99999994
00000000: 0000 0000 0000 803f 0000 0000 0000 803f
00000010: 0000 0000 0000 803f 0000 0000 0000 803f
00000020: 0000 0000 0000 803f 0000 0000 0000 803f
00000030: 0000 0000 0000 803f 0000 0000 0000 803f
00000040: 0000 0000 0000 803f 0000 0000 0000 803f
00000050: 0000 0000 0000 803f 0000 0000 0000 803f
00000060: 0000 0000 0000 803f 0000 0000 0000 803f
00000070: 0000 0000 0000 803f 0000 0000 0000 803f
00000080: 0000 0000 0000 803f 0000 0000 0000 803f
00000090: 0000 0000 0000 803f 0000 0000 0000 803f
000000a0: 0000 0000 0000 803f 0000 0000 0000 803f
000000b0: 0000 0000 0000 803f 0000 0000 0000 803f
000000c0: 0000 0000 0000 803f 0000 0000 0000 803f
000000d0: 0000 0000 0000 803f 0000 0000 0000 803f
000000e0: 0000 0000 0000 803f 0000 0000 0000 803f
000000f0: 0000 0000 0000 803f 0000 0000 0000 803f
00000100: a46a 573f 4151 0a3f ce7a 2e3f b054 3b3f
00000110: ba7d 083f 0e94 583f f090 d13e c792 693f
00000120: 3e39 9f3e 6b4e 733f 258f 703e f1d5 783f
00000130: 3a23 353e 83f6 7b3f f325 083e 28ba 7d3f
00000140: 7675 cc3d 98b8 7e3f 366f 993d d147 7f3f
00000150: ae36 663d 6898 7f3f fbac 2c3d bdc5 7f3f
00000160: 5b81 013d 3cdf 7f3f a53e c23c 93ed 7f3f
00000170: 43ab 913c a3f5 7f3f 497a 5a3c 2cfa 7f3f
00000180: 57d6 233c b9fc 7f3f 16b9 f53b 28fe 7f3f
00000190: 5a44 b83b f7fe 7f3f 5a2e 8a3b 6bff 7f3f
000001a0: 1c3e 4f3b acff 7f3f 0469 1b3b d1ff 7f3f
000001b0: 2015 e93a e6ff 7f3f 8bc9 ae3a f1ff 7f3f
000001c0: 6d12 833a f8ff 7f3f 8994 443a fbff 7f3f
000001d0: 136a 133a feff 7f3f 2217 dd39 ffff 7f3f
000001e0: 60cb a539 ffff 7f3f 0da8 7839 0000 803f
000001f0: 5377 3a39 0000 803f 6dd4 0b39 0000 803f
00000200: b7c7 683f 3311 d5be d95a 7f3f 534d 913d
00000210: 0af2 663f b2e8 dc3e 1135 3f3f 0339 2a3f
00000220: 1b54 173f ec7b 4e3f b5d3 e93e 69be 633f
00000230: f647 b23e a6fa 6f3f 82f0 863e f5f2 763f
00000240: f86f 4b3e a5e5 7a3f d300 193e 4f20 7d3f
00000250: 86d9 e53d f361 7e3f af85 ac3d 0e17 7f3f
00000260: c870 813d f97c 7f3f aa30 423d 4fb6 7f3f
00000270: 5da5 113d 8ed6 7f3f 5075 da3c b1e8 7f3f
00000280: 3ed4 a33c e5f2 7f3f 51b7 753c a1f8 7f3f
00000290: 9b43 383c dbfb 7f3f 0a2e 0a3c abfd 7f3f
000002a0: d83d cf3b b1fe 7f3f e868 9b3b 43ff 7f3f
000002b0: 0815 693b 96ff 7f3f 80c9 2e3b c4ff 7f3f
000002c0: 6812 033b dfff 7f3f 8594 c43a edff 7f3f
000002d0: 126a 933a f5ff 7f3f 2017 5d3a faff 7f3f
000002e0: 5fcb 253a fdff 7f3f 0ca8 f839 feff 7f3f
000002f0: 5377 ba39 ffff 7f3f 6dd4 8b39 0000 803f
00000300: c381 103e 2670 7dbf de3c 473f cebf 20bf
00000310: d745 7e3f ab7f edbd 6421 743f 6318 9a3e
00000320: c209 503f 582f 153f b724 273f a2e7 413f
00000330: 6c2f 023f 296d 5c3f a768 c73e 37c9 6b3f
00000340: 6c4e 973e ef90 743f e26d 643e 928c 793f
00000350: d7ee 2b3e 9e5d 7c3f 2c33 013e 43f4 7d3f
00000360: c0ff c13d 4fd9 7e3f 0693 913d 3a5a 7f3f
00000370: 4f69 5a3d c3a2 7f3f c5d1 233d 90cb 7f3f
00000380: 1fb9 f53c 83e2 7f3f 4747 b83c 6bef 7f3f
00000390: c631 8a3c adf6 7f3f 4644 4f3c c2fa 7f3f
000003a0: 0d6e 1b3c 0dfd 7f3f 141d e93b 58fe 7f3f
000003b0: a8cf ae3b 11ff 7f3f 1317 833b 7aff 7f3f
000003c0: 929b 443b b5ff 7f3f 606f 133b d6ff 7f3f
000003d0: 171f dd3a e8ff 7f3f 57d1 a53a f3ff 7f3f
000003e0: 0eb1 783a f9ff 7f3f 097e 3a3a fcff 7f3f
000003f0: 7ed9 0b3a feff 7f3f a4be d139 ffff 7f3f

transformer_encoder.layers.0.self_attn.in_proj_weight f4 [192, 64]
-0.0825619 -0.15363434 0.027287124 -0.047494635 -0.06830393 -0.023611262 -0.14286686 0.06913984
-0.027369197 0.08538536 -0.063122354 0.0019663083 0.019120133 -0.010863502 -0.064046256 0.08415354
0.15884699 0.06327748 -0.16305836 0.116397426 0.12050164 -0.07430799 -0.06742641 -0.19783245
0.07378513 -0.0017840902 -0.10405364 -0.080040775 0.16045468 -0.12627256 -0.15758191 -0.12046247
0.060874477 -0.09686415 0.095254414 0.017252112 -0.0044374126 -0.12311208 0.023817334 -0.12226628
0.10611474 -0.13799602 0.15169647 0.23420864 0.14367548 0.045064468 0.0101710595 0.037285913
-0.07794202 0.057985254 -0.10788182 0.0122809475 -0.11986542 0.0363679 0.05586183 -0.082903504
0.042284336 -0.0992193 -0.02005742 0.108681366 0.034105718 0.16224478 -0.16602704 -0.021942135
0.013131204 -0.032167576 -0.041349176 0.10030639 -0.19806157 -0.15301356 0.2056433 0.051614802
-0.13289712 -0.03357403 0.15870924 0.20548409 0.041461144 0.06658903 0.03492577 -0.005324097
0.097759135 0.065310106 -0.0065005794 0.014223598 0.27445412 -0.048659526 0.016141 0.010309232
0.04748871 -0.17119217 0.31502497 0.07967586 -0.18972021 0.001065328 -0.037229206 0.13251193
0.06847132 -0.03611952 -0.010488921 -0.18704888 -0.050279003 0.19193679 0.08516871 0.19950631
-0.0017728999 0.21708503 -0.018525619 -0.119314134 -0.14136508 0.20364968 -0.031219332 0.0864154
0.2234187 0.029546224 0.054389697 -0.0967736 0.016204193 0.024151636 -0.17596795 -0.06802853
-0.02830637 -0.14598665 -0.017956788 -0.020304114 0.13016236 0.08840194 0.080887005 -0.051755484
0.04153393 0.21682788 0.117399596 -0.20759554 -0.11199474 -0.044038597 0.045204256 -0.030565398
-0.020944493 0.22099487 0.0038908438 0.079183795 -0.05950307 0.15221336 -0.0701214 0.0039448426
0.07729395 0.14475873 0.10634541 -0.11013929 -0.089635395 0.034099225 0.114674255 -0.09450327
-0.16834776 0.023142863 -0.05745599 0.21309517 0.13746788 -0.052197028 -0.09145817 -0.04514585
-0.07151933 -0.13506608 -0.136855 0.1224758 0.031049907 -0.08314357 -0.028811475 0.17420551
0.11613557 -0.07825365 -0.051537357 0.05292667 0.10658292 -0.051871058 0.3349996 -0.065724246
-0.020248622 -0.08944004 0.091488525 -0.22194226 0.096851565 -0.07288322 0.28252593 -0.12206327
-0.02996361 0.00012875696 0.03217102 0.048255786 -0.111249775 0.0026919832 -0.19802533 -0.05255655
-0.1306958 0.24630512 0.036233082 -0.11272126 0.024871727 0.06499084 -0.065173164 -0.07458447
0.18774413 0.02108776 0.16059917 -0.07241773 -0.13044177 0.19037232 -0.111565664 -0.081513956
-0.06912812 0.050404154 -0.18969506 -0.04038734 -0.080380574 -0.10267207 0.12120499 -0.053073496
-0.0055938964 0.0062754373 -0.16859394 -0.14926653 0.32728276 0.0065321326 -0.11493682 -0.058097057
0.046114586 -0.17948073 0.11868716 0.057413273 -0.16777611 -0.01217062 0.046816614 -0.055415306
-0.10399118 0.12680683 0.07611572 0.09949958 0.075163275 -0.17810126 -0.1249656 -0.19918802
-0.2017313 0.06984329 0.22528376 -0.017056843 -0.17912172 0.03630682 -0.17899641 -0.027942814
0.045041908 0.076376855 -0.24273755 -0.042986102 -0.24934337 -0.100336745 -0.12108677 -0.16451946
00000000: 3716 a9bd 5252 1dbe 3f89 df3c bc89 42bd
00000010: eee2 8bbd 686c c1bc b14b 12be 3099 8d3d
00000020: 5e35 e0bc 85de ae3d 4b46 81bd 2edd 003b
00000030: d3a1 9c3c d4fc 31bc af2a 83bd b158 ac3d
00000040: c9a8 223e a097 813d c5f8 26be c661 ee3d
00000050: 90c9 f63d ca2e 98bd dc16 8abd 9794 4abe
00000060: a91c 973d 22d8 e9ba 131a d5bd 6bec a3bd
00000070: 3b4e 243e 984d 01be 275d 21be 07b5 f6bd
00000080: 8457 793d b660 c6bd bf14 c33d 4d54 8d3c
00000090: b767 91bb 3022 fcbd 921c c33c be66 fabd
000000a0: af52 d93d d44e 0dbe 5256 1b3e 64d4 6f3e
000000b0: aa1f 133e 8595 383d 84a4 263c 1db9 183d
000000c0: 11a0 9fbd f281 6d3d 25f1 dcbd 0736 493c
000000d0: 007c f5bd 82f6 143d 60cf 643d 50c9 a9bd
000000e0: 5732 2d3d 7d33 cbbd 754f a4bc 5694 de3d
000000f0: 70b2 0b3d 7f23 263e fe02 2abe febf b3bc
00000100: 4324 573c 26c2 03bd c15d 29bd 706d cd3d
00000110: a7d0 4abe 96af 1cbe 2894 523e 0b6a 533d
00000120: 2f16 08be ec84 09bd ad84 223e 6c6a 523e
00000130: 29d3 293d d45f 883d 530e 0f3d c375 aebb
00000140: f135 c83d 4ec1 853d d002 d5bb 180a 693c
00000150: 4085 8c3e 364f 47bd 213a 843c 0ee8 283c
00000160: 8683 423d 004d 2fbe f44a a13e 192d a33d
00000170: 0446 42be 7aa2 8b3a a77d 18bd 35b1 073e
00000180: b13a 8c3d 10f2 13bd b9d9 2bbc be89 3fbe
00000190: 5bf1 4dbd 148b 443e ef6c ae3d 624b 4c3e
000001a0: a660 e8ba 8a4b 5e3e 0ac3 97bc f85a f4bd
000001b0: 02c2 10be 8b89 503e afbf ffbc 8ffa b03d
000001c0: dfc7 643e ec0a f23c bbc7 5e3d 3d31 c6bd
000001d0: a8be 843c a7d9 c53c f130 34be 8b52 8bbd
000001e0: c3e2 e7bc 867d 15be 1d1a 93bc d054 a6bc
000001f0: 4849 053e 140c b53d 16a8 a53d 8ffd 53bd
00000200: 7b1f 2a3d 2108 5e3e 336f f03d ed93 54be
00000210: 805d e5bd d161 34bd 1928 393d 4964 fabc
00000220: c993 abbc 7b4c 623e 87fd 7e3b 1d2b a23d
00000230: 7eb9 73bd d2dd 1b3e cf9b 8fbd bd43 813b
00000240: 4a4c 9e3d a23b 143e 9fcb d93d b590 e1bd
00000250: c392 b7bd a1ab 0b3d 56da ea3d ee8a c1bd
00000260: 5b63 2cbe 1a96 bd3c f956 6bbd 9f35 5a3e
00000270: 61c4 0c3e 8dcc 55bd 6c4e bbbd dbea 38bd
00000280: ba78 92bd c34e 0abe b823 0cbe 98d4 fa3d
00000290: 605c fe3c 2d47 aabd 0b06 ecbc ee62 323e
000002a0: 7cd8 ed3d 7343 a0bd d618 53bd a3c9 583d
000002b0: 2548 da3d bf76 54bd 1185 ab3e 6f9a 86bd
000002c0: 70e0 a5bc 572c b7bd 565e bb3d d544 63be
000002d0: 1d5a c63d cc43 95bd 3da7 903e 4ffc f9bd
000002e0: 3f76 f5bc ef02 0739 c2c5 033d dca7 453d
000002f0: ecd6 e3bd fc6b 303b 27c7 4abe 8945 57bd
00000300: 1fd5 05be 6937 7c3e 2469 143d 67da e6bd
00000310: cbbf cb3c eb19 853d 8279 85bd bebf 98bd
00000320: ff3f 403e 3dc0 ac3c 1c74 243e bf4f 94bd
00000330: 8792 05be f6f0 423e 8a7c e4bd caf0 a6bd
00000340: 0b93 8dbd 9674 4e3d 6c3f 42be 326d 25bd
00000350: 929e a4bd bc45 d2bd 523a f83d 9863 59bd
00000360: 014d b7bb 2fa2 cd3b e4a3 2cbe 53d9 18be
00000370: 9b91 a73e 800b d63b ff63 ebbd 2ef7 6dbd
00000380: a6e2 3c3d ccc9 37be 4112 f33d 2e2a 6b3d
00000390: 80cd 2bbe 4867 47bc c7c2 3f3d 29fb 62bd
000003a0: 54f9 d4bd a6d9 013e 8fe2 9b3d 70c6 cb3d
000003b0: 34ef 993d 2d60 36be f7ed ffbd f2f7 4bbe
000003c0: a692 4ebe 000a 8f3d c9b0 663e cbba 8bbc
000003d0: af6b 37be 76b6 143d d64a 37be 54e8 e4bc
000003e0: dd7d 383d 786b 9c3d 3190 78be 3212 30bd
000003f0: de53 7fbe 5a7d cdbd 57fc f7bd ca77 28be

transformer_encoder.layers.0.self_attn.in_proj_bias f4 [192]
-0.037216123 0.039066005 0.004798214 -0.05763495 -3.4456898e-06 -0.016989969 -0.042624056 -0.026997987
0.016715782 -0.035155885 0.008900598 0.035039254 0.040123124 -0.03169653 0.013563752 0.046785787
-0.18095846 -0.16416879 0.38894057 -0.23067948 -0.1732401 -0.36754993 0.2945266 -0.32127103
0.29860267 -0.024568887 -0.1679209 0.045488864 -0.19060807 -0.17685404 -0.14914615 -0.3500604
0.029048879 -0.007149966 -0.022137087 0.026521737 0.0284539 -0.042556413 0.048601795 0.0031781124
-0.015911236 0.060480036 0.023109397 0.069011614 0.043820556 0.030037759 0.010172229 -0.019311568
0.023037042 0.070305794 -0.05132347 0.028867235 -0.06334328 -0.0018481914 -0.0059657884 0.07704296
-0.035207037 0.061042394 -0.025409808 0.06116392 0.011724291 -0.0016444328 -0.010360155 -0.07053393
0.015030978 -0.009054336 -0.00638885 0.019738574 -0.012226327 0.020789243 -0.0034362841 -0.0020992355
-0.009399563 0.01572005 -0.0062232353 0.021761365 0.019208599 -0.01311526 0.0068579786 -0.01040572
0.0033542374 0.004761986 -0.009006199 0.005318132 0.0059662634 -0.017799826 0.004286574 -0.0023954338
-0.0144997435 0.010092236 0.0062623955 -0.008854403 -0.017566716 -0.018090462 0.002830352 -0.0039497144
-0.00080421445 -0.0009985942 -0.0072498354 -0.00067322346 0.006058711 -0.009648835 0.015559586 0.0044482932
0.0020186952 0.011109698 0.0010898928 -0.0032308414 0.0014236958 0.00043751483 -0.0062786248 -0.006229455
-0.0019947214 0.0006863058 -0.00040269105 -6.6384695e-05 -0.00070744555 0.0009895375 0.0016357428 0.0023852654
0.00017779593 0.0013669911 -0.0016887854 -0.003271182 0.00092615996 -0.00046699855 -0.00035823134 -0.0014756683
0.03487011 -0.054117672 0.01924136 -0.042013112 0.041863613 -0.021152308 -0.0035554732 -0.0162308
-0.03227071 -0.033410363 0.06176972 -0.03421392 0.031654242 0.04011007 -0.030576043 0.026499266
-0.09173772 0.0010157174 0.19334811 0.08247889 0.039298423 0.013673703 0.026132036 0.037536114
-0.044361107 0.085296005 0.07992672 -0.07234808 -0.08849598 0.10256257 -0.050048172 0.08001583
0.027035408 0.027911225 -0.033044245 -0.024417587 -0.022895264 -0.039836135 0.049543824 0.03958483
-0.035383634 0.00058930065 -0.032376744 -0.015811477 -0.006035793 0.007884823 0.005907805 0.022312282
0.011849978 0.040426698 -0.0003680693 -0.02890659 -0.013076147 0.048394762 -0.0039731865 0.016925067
-0.023929901 -0.06038316 0.013595565 -0.009508185 -0.029244132 -0.03736533 0.030168176 -0.022122126
00000000: ef6f 18bd ad03 203d 563a 9d3b a012 6cbd
00000010: 803c 67b6 8c2e 8bbc 9096 2ebd e22a ddbc
00000020: 89ef 883c 9eff 0fbd d0d3 113c 5285 0f3d
00000030: 2558 243d 38d4 01bd 803a 5e3c 74a2 3f3d
00000040: 2d4d 39be dd1b 28be 3823 c73e 3e37 6cbe
00000050: da65 31be 812f bcbe 31cc 963e a37d a4be
00000060: 73e2 983e b144 c9bc 75f3 2bbe 8852 3a3d
00000070: c32e 43be 3a19 35be c5b9 18be 1e3b b3be
00000080: eaf7 ed3c 434a eabb d658 b5bc 1d44 d93c
00000090: 2718 e93c a24f 2ebd ad12 473d e147 503b
000000a0: 4858 82bc eab9 773d eb4f bd3c f655 8d3d
000000b0: 2f7d 333d bf11 f63c 6ca9 263c 4b33 9ebc
000000c0: 2eb8 bc3c 7cfc 8f3d 8f38 52bd fb7a ec3c
000000d0: 1fba 81bd 033f f2ba a97c c3bb b3c8 9d3d
000000e0: 4135 10bd 9707 7a3d 3b28 d0bc 0587 7a3d
000000f0: 3e17 403c 028a d7ba a4bd 29bc 1874 90bd
00000100: 7e44 763c a358 14bc 8f59 d1bb cab2 a13c
00000110: ef50 48bc 344e aa3c 4833 61bb 5493 09bb
00000120: a000 1abc 56c7 803c 48ec cbbb e444 b23c
00000130: 5a5b 9d3c 63e1 56bc e5b8 e03b c17c 2abc
00000140: c4d2 5b3b 6f0a 9c3b bd8e 13bc ba43 ae3b
00000150: a580 c33b f1d0 91bc 6476 8c3b b6fc 1cbb
00000160: 5590 6dbc e859 253c c834 cd3b 0f12 11bc
00000170: 13e8 8fbc 7332 94bc 6d7d 393b 9b6c 81bb
00000180: ebd1 52ba 43e3 82ba 0790 edbb 437b 30ba
00000190: 2788 c63b 2616 1ebc a2ed 7e3c fdc2 913b
000001a0: 164c 043b 7305 363c bcda 8e3a 86bc 53bb
000001b0: 4e9b ba3a 3f62 e539 ecbc cdbb 7520 ccbb
000001c0: dfb9 02bb 34e9 333a 4720 d3b9 0338 8bb8
000001d0: de73 39ba 5eb3 813a 6c66 d63a 1d52 1c3b
000001e0: bb6e 3a39 9c2c b33a 3c5a ddba 5461 56bb
000001f0: 8bc9 723a 7cd7 f4b9 ffd0 bbb9 366b c1ba
00000200: f6d3 0e3d 7eaa 5dbd 0ea0 9d3c f115 2cbd
00000210: 2e79 2b3d 9b47 adbc f102 69bb 74f6 84bc
00000220: 4b2e 04bd 4ed9 08bd 3f02 7d3d e523 0cbd
00000230: e1a7 013d 754a 243d 9c7a fabc fd14 d93c
00000240: fce0 bbbd d221 853a 0cfd 453e b1ea a83d
00000250: 62f7 203d ab07 603c da12 d63c 78bf 193d
00000260: feb3 35bd acaf ae3d 9fb0 a33d 3b2b 94bd
00000270: 613d b5bd 530c d23d 50ff 4cbd 57df a33d
00000280: 5c79 dd3c 15a6 e43c 6759 07bd 6407 c8bc
00000290: d98e bbbc 372b 23bd 77ee 4a3d b423 223d
000002a0: 6eee 10bd 4c7b 1a3a 7a9d 04bd 1287 81bc
000002b0: e7c7 c5bb 582f 013c 4396 c13b 3fc8 b63c
000002c0: 6926 423c 7796 253d 6df9 c0b9 83cd ecbc
000002d0: 563d 56bc 9639 463d 8131 82bb 70a6 8a3c
000002e0: a408 c4bc 5554 77bd efbf 5e3c 38c8 1bbc
000002f0: 6491 efbc 630c 19bd 4023 f73c 7639 b5bc

transformer_encoder.layers.0.self_attn.out_proj.weight f4 [64, 64]
0.027646901 0.08652542 0.02376888 0.10233651 -0.114414304 -0.005223635 -0.010805894 -0.050825585
-0.031097658 -0.07073217 0.00610233 0.08914316 -0.13381729 -0.015020963 0.084705636 0.042805932
-0.1888436 -0.11631732 0.14781122 0.4301689 -0.14876741 -0.013250059 -0.02867354 0.24501343
-0.09125495 -0.11760605 0.13613266 -0.13446729 -0.07732701 0.17654364 -0.12243104 0.12969702
-0.11854936 -0.12839784 -0.031725705 -0.07982559 0.003286623 0.16236275 -0.057065424 0.07643602
0.009993721 -0.055575732 -0.09105441 -0.1568602 0.05100162 0.07262903 0.0339114 -0.12429021
-0.037765082 -0.02684531 -0.118380286 -0.006987221 -0.0012137932 -0.07640932 0.20312183 -0.09728144
0.16082801 -0.053766802 -0.0977856 -0.004666074 0.12835234 -0.17452759 -0.055425856 0.13961734
0.23092224 -0.008637026 -0.049976744 0.23570059 0.010333599 0.15807141 -0.046390932 0.019865194
-0.040408045 0.07905221 0.094825916 -0.13034895 -0.08178113 0.016454894 0.15950263 0.0072762966
-0.2635021 0.0077185086 0.4177543 0.27264336 0.009816629 0.14755306 -0.06548488 0.03829808
-0.052874964 0.09322216 0.1513578 -0.14564502 -0.2742618 0.2792982 -0.2982368 0.20489664
-0.039452408 0.0729339 0.079341546 -0.03445796 0.18262383 0.15840596 -0.13781863 -0.07532073
0.10424647 0.01628638 0.10404232 0.05889927 -0.061303716 -0.029721515 0.115084 -0.07309735
0.06203517 -0.059219588 0.045721106 0.0302738 -0.06346971 0.08129048 0.11352376 -0.00924388
-0.04973209 0.13141672 -0.094210714 -0.07561229 -0.041014835 0.073184095 0.047338735 0.13453336
-0.08102536 -0.037326336 -0.027440865 0.033213373 0.06492915 -0.02367601 0.020393103 0.18604527
0.02377522 -0.09862001 -0.032302164 -0.028451327 -0.11314563 0.11540976 -0.0812979 0.048574664
-0.06543922 -0.09219998 -0.026285438 -0.031658012 0.15472382 -0.03700045 0.0027307991 0.025274549
-0.14097717 0.02141666 -0.05305632 0.034982875 -0.19268054 0.11933146 -0.13979328 0.054751396
-0.04904768 0.03181504 0.016286805 0.051398966 -0.022471717 -0.11482756 -0.10357601 -0.16281971
-0.010548445 0.038692806 0.055168398 0.026334861 0.1081822 0.050353747 0.101201676 -0.029368576
0.02012895 0.04176062 -0.022308543 0.053771444 0.0005894263 -0.08518936 -0.0165353 -0.13853587
0.15942168 -0.10487021 0.019013755 -0.11137876 -0.029522378 0.15475328 0.10576251 -0.0034390073
-0.06523548 0.006988902 0.011018367 0.15290289 -0.0670205 -0.012022931 0.058981996 0.0014187415
-0.07794634 0.13066104 0.06439733 0.009301267 0.10824772 0.0296291 0.055364054 0.012824586
0.38934308 -0.019313818 -0.5729611 -0.22950247 -0.18789616 -0.033622283 0.001253468 -0.12224823
0.14457351 -0.0698343 -0.09031645 0.071955375 0.3941495 -0.20046705 0.024839018 -0.20298189
-0.07764496 0.08906854 0.03506516 0.019488435 -0.018609585 0.1488705 -0.058891997 -0.055298742
0.049420293 0.014547694 -0.147886 -0.09892231 -0.029377649 -0.042639114 -0.0413706 0.054770544
-0.036161244 0.052293833 -0.06622066 0.033850893 -0.11594564 -0.021325339 0.10990852 0.0145375
0.05111068 -0.06461865 0.12331959 0.024292693 -0.017489817 -0.087404266 0.08173608 0.05634673
00000000: c17b e23c 3d34 b13d f4b6 c23c ce95 d13d
00000010: 0c52 eabd 072b abbb 340b 31bc 7d2e 50bd
00000020: 84c0 febc 07dc 90bd 0ef6 c73b b090 b63d
00000030: 6607 09be 7c1a 76bc 267a ad3d 4655 2f3d
00000040: 3760 41be c637 eebd d35b 173e 193f dc3e
00000050: 7c56 18be c716 59bc c6e4 eabc cde4 7a3e
00000060: e0e3 babd 71db f0bd 5c66 0b3e cbb1 09be
00000070: a05d 9ebd dbc7 343e 20bd fabd 4ccf 043e
00000080: 02ca f2bd b97a 03be d0f2 01bd 997b a3bd
00000090: 6264 573b 6c42 263e 6fbd 69bd 7d8a 9c3d
000000a0: b4bc 233c 61a3 63bd bc7a babd f69f 20be
000000b0: 13e7 503d 87be 943d aee6 0a3d de8b febd
000000c0: 8faf 1abd b2ea dbbc 5d71 f2bd 0ff5 e4bb
000000d0: 2418 9fba 7d7c 9cbd 2bff 4f3e 7e3b c7bd
000000e0: 19b0 243e 943a 5cbd d143 c8bd dee5 98bb
000000f0: cc6e 033e 5cb7 32be 3906 63bd d9f7 0e3e
00000100: e176 6c3e 5082 0dbc 6ab4 4cbd 7f5b 713e
00000110: 414e 293c 79dd 213e 6b04 3ebd 55bc a23c
00000120: e882 25bd 20e6 a13d 1734 c23d 327a 05be
00000130: dd7c a7bd 6acc 863c a854 233e 006e ee3b
00000140: bfe9 86be 8beb fc3b e4e3 d53e e997 8b3e
00000150: edd5 203c 2618 173e f01c 86bd 73de 1c3d
00000160: 6b93 58bd 43eb be3d 8afd 1a3e f823 15be
00000170: 0b6c 8cbe 2c00 8f3e 7eb2 98be 6dd0 513e
00000180: d998 21bd 5e5e 953d d27d a23d ca23 0dbd
00000190: be01 3b3e 2c35 223e 5420 0dbe c141 9abd
000001a0: 2c7f d53d 046b 853c 2414 d53d 5c40 713d
000001b0: 9b19 7bbd 897a f3bc 29b1 eb3d 10b4 95bd
000001c0: 9718 7e3d 3d90 72bd 0e46 3b3d c300 f83c
000001d0: 68fc 81bd a07b a63d 257f e83d a573 17bc
000001e0: e0b3 4bbd 1b92 063e 8cf1 c0bd 9eda 9abd
000001f0: 2cff 27bd 8be1 953d 43e6 413d 1dc3 093e
00000200: a0f0 a5bd 80e3 18bd aacb e0bc bf0a 083d
00000210: 93f9 843d 31f4 c1bc 700f a73c a782 3e3e
00000220: 40c4 c23c 4af9 c9bd 464f 04bd c212 e9bc
00000230: e5b8 e7bd f45b ec3d 837f a6bd 3af6 463d
00000240: ff04 86bd 58d3 bcbd 8f54 d7bc d5ab 01bd
00000250: ec6f 1e3e c98d 17bd 35f7 323b 920c cf3c
00000260: 525c 10be fe71 af3c 9551 59bd 344a 0f3d
00000270: 0c4e 45be 0d64 f43d f825 0fbe 0043 603d
00000280: 38e6 48bd 7d50 023d e86b 853c b987 523d
00000290: 9b16 b8bc b62a ebbd a91f d4bd 36ba 26be
000002a0: 63d3 2cbc 597c 1e3d 42f8 613d 35bc d73c
000002b0: a18e dd3d bb3f 4e3d d342 cf3d 5e96 f0bc
000002c0: 78e5 a43c 2f0d 2b3d 68c0 b6bc 723f 5c3d
000002d0: bb83 1a3a c277 aebd 0a75 87bc 59dc 0dbe
000002e0: 703f 233e 31c6 d6bd bcc2 9b3c 8c1a e4bd
000002f0: ead8 f1bc a577 1e3e 049a d83d f860 61bb
00000300: 2e9a 85bd 2903 e53b 6186 343c 9392 1c3e
00000310: 0b42 89bd d4fb 44bc 1b97 713d 11f5 b93a
00000320: 55a2 9fbd 02cc 053e bfe2 833d 5764 183c
00000330: fbb0 dd3d bab8 f23c 6bc5 623d 361e 523c
00000340: fa57 c73e 0338 9ebc 94ad 12bf b202 6bbe
00000350: da67 40be 85b7 09bd 684b a43a 485d fabd
00000360: 140b 143e 4905 8fbd d5f7 b8bd 575d 933d
00000370: f7cd c93e 3c47 4dbe 327b cb3c 7cda 4fbe
00000380: 5204 9fbd 9169 b63d 7ca0 0f3d 36a6 9f3c
00000390: 2173 98bc 8271 183e bc38 71bd ef80 62bd
000003a0: ef6c 4a3d 7359 6e3c 6d6f 17be c897 cabd
000003b0: 65a9 f0bc 5aa6 2ebd 3874 29bd 1457 603d
000003c0: d01d 14bd 0f32 563d b39e 87bd 3ca7 0a3d
000003d0: e874 edbd 7ab2 aebc b817 e13d b22e 6e3c
000003e0: 6f59 513d c856 84bd fb8e fc3d 7801 c73c
000003f0: ce46 8fbc 0201 b3bd 3f65 a73d d4cb 663d

transformer_encoder.layers.0.self_attn.out_proj.bias f4 [64]
-0.13222009 -0.07272615 -0.040345114 -0.112751245 -0.16461445 -0.03053385 -0.033173006 0.002286047
-0.12221264 0.023284316 0.0994908 -0.073298626 -0.13616051 -0.0105897505 -0.036498588 -0.046252903
0.03454433 -0.11149083 -0.037222724 0.16643372 -0.0016391706 -0.006826776 -0.0008697163 0.10150341
-0.110736795 -0.060189225 -0.06039111 0.105800174 0.043897662 0.16865689 0.05752218 0.12359069
-0.0851036 0.05796239 -0.0295483 0.016419312 -0.09760324 0.059340212 -0.027739907 0.12047924
-0.05403429 0.018282674 -0.043148797 0.029254017 -0.004119645 0.047465555 -0.04170685 0.08012846
-0.033592507 0.054287076 0.012650594 0.12666489 -0.02900764 0.07121255 -0.07108248 0.14588107
-0.012493278 0.073703036 0.011199143 0.07380607 -0.083368205 0.00077009795 -0.056093555 0.23604266
00000000: b464 07be 73f1 94bd eb40 25bd 20ea e6bd
00000010: b190 28be 2022 fabc 6be0 07bd 81d1 153b
00000020: 9f4a fabd c0be be3c d5c1 cb3d 971d 96bd
00000030: a96d 0bbe a280 2dbc 8b7f 15bd af73 3dbd
00000040: 5b7e 0d3d 4e55 e4bd db76 18bd 9a6d 2a3e
00000050: 70d9 d6ba 26b3 dfbb acfd 63ba 05e1 cf3d
00000060: f9c9 e2bd fa88 76bd ab5c 77bd c3ad d83d
00000070: 09ce 333d 64b4 2c3e 619c 6b3d 1e1d fd3d
00000080: cc4a aebd f969 6d3d 470f f2bc cb81 863c
00000090: 35e4 c7bd b90e 733d cd3e e3bc d2bd f63d
000000a0: 0f53 5dbd 8cc5 953c cbbc 30bd 1fa6 ef3c
000000b0: 16fe 86bb 3e6b 423d cdd4 2abd 641a a43d
000000c0: 4c98 09bd 205c 5e3d 7044 4f3c 71b4 013e
000000d0: 6ea1 edbc e3d7 913d b193 91bd d961 153e
000000e0: 9bb0 4cbc 9ef1 963d 9c7c 373c a327 973d
000000f0: f3bc aabd 66e0 493a 5bc2 65bd 2bb5 713e

transformer_encoder.layers.0.linear1.weight f4 [128, 64]
-0.027967539 -0.0056472393 -0.021247854 -0.063843556 0.13112882 0.22330905 0.1046203 -0.061391864
-0.062238447 0.016476382 0.01261133 0.02311463 0.09475597 0.18940878 -0.012453631 0.1273094
0.28496426 0.0119285295 -0.21739739 -0.13452367 -0.005323751 -0.14564858 -0.021048553 -0.048963927
0.09637186 -0.17744055 0.17476223 -0.0062357145 -0.0050262627 0.092789695 0.084105045 -0.12606718
0.1112875 0.013310811 -0.21080099 -0.0033169675 0.14220303 -0.073564515 -0.080116965 -0.37130567
0.1707025 -0.27809972 0.062364645 0.052506387 -0.18669306 -0.2539874 0.12902538 0.119737424
-0.0777218 0.023458987 -0.04401353 -0.016448582 0.26089746 0.08176082 0.10140611 -0.017025629
0.075539425 -0.014719423 0.072979 0.07310871 0.10885146 0.0049475194 0.012222489 -0.1787516
0.0615095 -0.043425884 0.010116133 0.11534362 -0.0077631176 0.05383015 -0.1190533 -0.0499008
0.1737549 -0.016458424 0.06474163 0.07929269 -0.06548803 0.13806063 0.10947558 0.18655795
-0.097719245 -0.05902605 -0.03813101 -0.07891745 0.18853536 0.050853334 -0.23229744 0.0020810245
0.15211266 0.19245155 0.029435368 0.036384974 0.039525498 0.012067046 -0.12627393 -0.112918615
0.017188696 0.040703934 0.0683843 0.07673521 -0.07896742 -0.072727576 -0.14794528 -0.10199918
0.10742142 -0.1319335 0.06837017 -0.15679902 -0.06989877 -0.13900527 0.043123778 0.19559692
-0.05662407 -0.023068255 -0.031489678 0.13669564 0.027000658 -0.09575516 0.16573472 0.08197521
-0.10481668 0.04112108 -0.05113834 -0.23831974 -0.09754101 0.013041758 0.10101986 -0.11575496
-0.011234239 0.067111336 0.13813367 0.06870814 -0.05080708 0.0805426 0.111053556 0.25684705
-0.04738547 -0.16514361 0.2593707 -0.032101646 0.19417351 0.013518993 0.13623151 0.14530344
0.0688432 -0.038050313 0.10973993 -0.030797355 -0.09828327 0.14052771 -0.004047588 -0.11828653
0.124742344 0.09696729 0.07498912 -0.13769248 0.08170535 -0.06842315 -0.09352199 -0.07492063
-0.06751426 0.011991236 0.046286587 -0.2720383 0.00559887 0.03144 0.28951874 -0.014745768
-0.023997694 0.11462829 0.006528091 -0.15917782 -0.038853217 -8.796927e-05 0.03885794 -0.045058392
0.11739083 -0.020786285 0.11835984 -0.079533674 0.11977725 -0.048731733 0.046763837 -0.101423174
0.038003813 -0.16448484 -0.034930985 -0.18299502 -0.02526128 0.053457182 0.03844628 0.10245209
-0.117224306 -0.08244315 0.066960454 0.051327292 -0.08741191 -0.03781014 -0.025086276 0.10502675
0.13989082 -0.1289426 0.073391244 0.064297244 -0.20742628 0.087787904 0.04241021 -0.01673426
-0.23005256 0.043182187 0.19310668 0.038985275 0.019089794 0.060050678 -0.027001215 0.010271142
0.06881189 0.21957946 0.028274244 -0.10320981 -0.11271321 0.08418259 -0.04555619 0.09646521
0.15256007 -0.08966939 0.15243134 0.0939164 -0.004340477 -0.18623903 0.043635055 -0.028022949
-0.04666299 -0.17243277 -0.08276167 -0.02952867 -0.014484046 -0.09735692 0.1621722 -0.107440025
0.11568158 -0.18555877 -0.12434922 0.018821072 -0.04495266 0.10519029 0.16040292 -0.062458742
-0.06413464 0.0047879517 -0.16423891 0.064408205 -0.16898058 -0.048132766 0.2249956 -0.03350123
00000000: 2e1c e5bc 7a0c b9bb fb0f aebc 69c0 82bd
00000010: a246 063e 21ab 643e 2b43 d63d 0976 7bbd
00000020: beed 7ebd 7af9 863c c09f 4e3c e45a bd3c
00000030: 6b0f c23d 60f4 413e 500a 4cbc 655d 023e
00000040: d6e6 913e e16f 433c 6c9d 5ebe 93c0 09be
00000050: dc72 aebb e724 15be 046e acbc 668e 48bd
00000060: 9c5e c53d fab2 35be dff4 323e f754 ccbb
00000070: 59b3 a4bb 8608 be3d 443f ac3d c117 01be
00000080: b3ea e33d 9615 5a3c 37dc 57be 7b61 59bb
00000090: ac9d 113e fea8 96bd 5d14 a4bd c71b bebe
000000a0: a3cc 2e3e 1663 8ebe 1272 7f3d f010 573d
000000b0: 772c 3fbe a30a 82be 3b1f 043e e538 f53d
000000c0: 9b2c 9fbd 102d c03c 8847 34bd 2dbf 86bc
000000d0: 5a94 853e 3772 a73d 02ae cf3d 5579 8bbc
000000e0: 6ab4 9a3d bc29 71bc 0476 953d 05ba 953d
000000f0: 84ed de3d cd1e a23b d640 483c a90a 37be
00000100: 63f1 7b3d 57df 31bd 23be 253c 4739 ec3d
00000110: c061 febb 017d 5c3d 37d2 f3bd c864 4cbd
00000120: ceec 313e d1d3 86bc 4297 843d 3564 a23d
00000130: 971e 86bd c45f 0d3e bc34 e03d 0c09 3f3e
00000140: 0721 c8bd 4dc5 71bd 432f 1cbd 799f a1bd
00000150: 6a0f 413e 964b 503d 61df 6dbe cc61 083b
00000160: 6cc3 1b3e 0512 453e 7122 f13c 6908 153d
00000170: 7de5 213d dcb4 453c f44d 01be e041 e7bd
00000180: 4fcf 8c3c 2bb9 263d 110d 8c3d 5a27 9d3d
00000190: acb9 a1bd 32f2 94bd f87e 17be f2e4 d0bd
000001a0: c3ff db3d 9319 07be a905 8c3d ec8f 20be
000001b0: 1627 8fbd 6657 0ebe 8fa2 303d 8f4a 483e
000001c0: a4ee 67bd a3f9 bcbc 52fb 00bd f1f9 0b3e
000001d0: 7c30 dd3c 481b c4bd 5db6 293e 9ee2 a73d
000001e0: 21aa d6bd 946e 283d 7076 51bd 170a 74be
000001f0: 95c3 c7bd 19ad 553c 80e3 ce3d f010 edbd
00000200: d00f 38bc ab71 893d ea72 0d3e dab6 8c3d
00000210: 161b 50bd 85f3 a43d 0c70 e33d 7581 833e
00000220: 4417 42bd 681b 29be 3dcc 843e 047d 03bd
00000230: 6cd5 463e c47e 5d3c 4680 0b3e 6dca 143e
00000240: aafd 8c3d a5da 1bbd 54bf e03d bc4a fcbc
00000250: bd48 c9bd 7fe6 0f3e a1a1 84bb 3540 f2bd
00000260: ea78 ff3d c996 c63d e593 993d 42ff 0cbe
00000270: 2255 a73d 7021 8cbd 7588 bfbd fd6f 99bd
00000280: eb44 8abd e476 443c 0197 3d3d 9b48 8bbe
00000290: ba76 b73b 3bc7 003d cd3b 943e 3c98 71bc
000002a0: d096 c4bc 3dc2 ea3d 99e9 d53b 83ff 22be
000002b0: 8d24 1fbd 247c b8b8 8129 1f3d 268f 38bd
000002c0: 9a6a f03d 0048 aabc a566 f23d 8de2 a2bd
000002d0: c64d f53d ed9a 47bd 708b 3f3d f4b6 cfbd
000002e0: e3a9 1b3d b76e 28be cb13 0fbd 0c63 3bbe
000002f0: bef0 cebc ebf5 5a3d d979 1d3d 67d2 d13d
00000300: 4c13 f0bd f4d7 a8bd 9022 893d 913c 523d
00000310: 0405 b3bd cede 1abd bc81 cdbc 4418 d73d
00000320: 8a3f 0f3e 8709 04be 264e 963d 46ae 833d
00000330: 8e67 54be 25ca b33d 54b6 2d3d 4916 89bc
00000340: e692 6bbe cedf 303d c2bd 453e 06af 1f3d
00000350: 3362 9c3c b3f7 753d a731 ddbc 4b48 283c
00000360: 40ed 8c3d 70d9 603e 639f e73c aa5f d3bd
00000370: 2fd6 e6bd ec67 ac3d 2199 3abd 8d8f c53d
00000380: b538 1c3e 96a4 b7bd f616 1c3e 3e57 c03d
00000390: 8f3a 8ebb 72b5 3ebe acba 323d 6290 e5bc
000003a0: b121 3fbd 3792 30be f37e a9bd 1ce6 f1bc
000003b0: 7e4e 6dbc 1163 c7bd 7810 263e 8409 dcbd
000003c0: 77ea ec3d 1e03 3ebe ceaa febd a62e 9a3c
000003d0: 4820 38bd 026e d73d aa40 243e bdd4 7fbd
000003e0: 0659 83bd 40e4 9c3b 3f2e 28be 73e8 833d
000003f0: 3f09 2dbe dd26 45bd 3f65 663e 9638 09bd

transformer_encoder.layers.0.linear1.bias f4 [128]
-0.027573457 -0.13334177 -0.07396273 -0.095699966 -0.12261981 0.08083878 -0.14993976 -0.08759739
-0.13754784 -0.078159355 -0.067867324 -0.09518314 -0.07678312 -0.023003511 -0.03448243 -0.14747295
0.06677895 -0.0885957 -0.19942625 -0.04328805 -0.01930558 -0.1182155 0.02022351 -0.13879743
-0.124894746 -0.06510951 -0.0011918085 -0.2075543 -0.11459295 -0.011630906 0.03051691 -0.11798376
-0.10929944 -0.08657769 -0.059255928 -0.06781213 -0.15087685 0.05811668 0.05316787 -0.06524836
-0.057458244 -0.1438864 -0.06516965 -0.02298955 -0.026531564 0.040709462 0.036415774 -0.12606794
0.005681405 -0.10710905 -0.18992645 -0.13829961 -0.049214568 -0.10682127 0.023776166 -0.030292328
-0.20217651 -0.13383366 -0.16617472 0.03160978 -0.25727892 -0.03274588 -0.1788885 -0.114490956
0.0063774115 -0.14567341 -0.23958766 -0.15312353 -0.012761639 -0.10609049 -0.11309481 0.039457526
-0.19368641 -0.108597815 0.0043630498 -0.046606757 -0.009878191 -0.109986685 -0.15601406 -0.04736217
0.078448415 -0.14194797 -0.13108215 -0.17372927 -0.1289081 -0.04223606 -0.16369846 -0.078321695
-0.10247315 -0.11124027 -0.04713367 -0.07169544 0.031849846 0.024081538 -0.03127132 -0.11802634
-0.051469523 -0.057611328 -0.077021964 -0.13008186 -0.14945786 -0.105983 -0.09841771 0.015380954
0.027053216 0.04496066 -0.00723941 -0.020358672 -0.17297605 0.03585764 -0.20466739 -0.051361308
-0.037435364 -0.17973089 -0.08609123 0.02323056 -0.09421829 0.028901568 -0.017513214 -0.0981568
-0.07920734 0.032010905 -0.042623363 -0.10839112 -0.03840978 -0.029052148 -0.13843185 0.010886316
00000000: bbe1 e1bc bf8a 08be c679 97bd 58fe c3bd
00000010: 1820 fbbd cd8e a53d cf89 19be 4366 b3bd
00000020: 57d9 0cbe 0312 a0bd 06fe 8abd 61ef c2bd
00000030: 7840 9dbd dc71 bcbc 733d 0dbd 2603 17be
00000040: 67c3 883d aa71 b5bd 6536 4cbe cf4e 31bd
00000050: bc26 9ebc f81a f2bd c6ab a53c ea20 0ebe
00000060: d1c8 ffbd 2358 85bd 7536 9cba 1d89 54be
00000070: b5af eabd 8e8f 3ebc 99fe f93c 78a1 f1bd
00000080: 63d8 dfbd a54f b1bd 58b6 72bd 16e1 8abd
00000090: 767f 1abe c10b 6e3d 8dc6 593d efa0 85bd
000000a0: 5659 6bbd f556 13be aa77 85bd 9554 bcbc
000000b0: b958 d9bc f7be 263d b528 153d f417 01be
000000c0: 142b ba3b fd5b dbbd 147c 42be 6a9e 0dbe
000000d0: 3795 49bd 1cc5 dabd 3cc6 c23c 9e27 f8bc
000000e0: 5c07 4fbe b10b 09be b529 2abe 4279 013d
000000f0: 10ba 83be 8b20 06bd 8c2e 37be 3c7a eabd
00000100: 9bf9 d03b 692b 15be 7856 75be 6acc 1cbe
00000110: 3216 51bc f945 d9bd 409e e7bd 379e 213d
00000120: bb55 46be 8868 debd eaf7 8e3b bae6 3ebd
00000130: 23d8 21bc b340 e1bd 26c2 1fbe d6fe 41bd
00000140: 90a9 a03d cf5a 11be 663a 06be 16e6 31be
00000150: 7c00 04be b8ff 2cbd 92a0 27be 2067 a0bd
00000160: 71dd d1bd f0d1 e3bd 3c0f 41bd 0fd5 92bd
00000170: fc74 023d a546 c53c 5b16 00bd cbb7 f1bd
00000180: b5d1 52bd dbf9 6bbd b1bd 9dbd 2e34 05be
00000190: 7b0b 19be 9d0d d9bd 398f c9bd 6600 7c3c
000001a0: b59e dd3c ab28 383d 9338 edbb 3bc7 a6bc
000001b0: a220 31be 76df 123d 5494 51be 3c60 52bd
000001c0: d355 19bd 600b 38be 9950 b0bd 044e be3c
000001d0: 85f5 c0bd fbc2 ec3c df77 8fbc 6f06 c9bd
000001e0: 7537 a2bd de1d 033d d695 2ebd 2afc ddbd
000001f0: 9353 1dbd c5fe edbc 14c1 0dbe 855c 323c

transformer_encoder.layers.0.linear2.weight f4 [64, 128]
-0.041391388 0.00979124 -0.050717983 0.051172517 -0.10707205 0.026383033 0.063580155 -0.0187305
-0.116899535 -0.16794829 -0.17747371 -0.029633021 -0.018863235 -0.06709751 0.021710124 0.05221399
-0.08687985 0.12925573 -0.04916023 0.034369096 -0.0659536 -0.048191797 0.047268525 -0.05795679
0.06008151 0.05535222 0.046682425 0.029094623 -0.0939854 -0.12213183 -0.060426597 0.1341432
0.123576745 0.07314791 0.279616 0.025057342 -0.12900734 -0.16909741 -0.03578701 -0.08653167
0.054272793 -0.06031684 0.0024617373 0.02076752 0.11009733 -0.18101951 -0.009162114 -0.16770297
0.12877542 0.017651085 -0.12980427 -0.10205303 0.103982024 0.110978134 -0.027874637 0.01275777
0.1543899 -0.040797535 -0.0077338736 0.035076637 -0.2346437 0.09069563 0.0021785742 0.10465657
-0.0030478241 -0.096572295 -0.09022373 -0.13243645 -0.052840654 0.02040079 0.08256326 -0.13386805
0.0059759263 0.00091220293 -0.027345816 -0.02117911 -0.020725522 -0.13355394 -0.11838531 0.107440814
0.112995386 -0.21108022 -0.037158266 0.014718014 0.099349245 -0.112618096 -0.13442485 0.07618691
0.18062167 -0.063348204 -0.05504397 0.12821513 -0.037121758 -0.09672917 -0.100454584 0.19802447
0.07212217 -0.09182736 -0.11409312 -0.05029844 -0.16431251 -0.029258065 0.11247789 0.12805456
-0.016796608 -0.05644898 0.026222588 -0.054226797 0.0137297455 -0.029627865 -0.057709597 0.0403926
0.015764834 0.00034616323 0.18563494 -0.07282575 0.13262482 -0.08171998 -0.018074231 -0.008480394
-0.011558419 0.01443997 0.17652462 -0.17088276 0.13456446 -0.028430268 -0.050126344 0.11426664
0.06527634 -0.034032732 0.038535982 -0.11548016 -0.2558397 0.06421311 0.041779757 -0.07820301
0.0093143005 -0.124612726 -0.12585746 -0.062180348 -0.15966406 -0.12656772 -0.044295378 0.048844766
-0.11722032 -0.12568942 0.10830739 0.086847626 0.041834757 -0.099183865 0.09280456 0.13711767
-0.038453363 0.028257376 0.04111472 -0.12235598 -0.16198878 0.040647645 0.15289518 -0.02356291
-0.14004776 -0.15092868 -0.14839202 -0.09589735 0.08644239 -0.092614576 -0.11294676 -0.07814081
-0.09404482 0.09055238 0.07332426 0.05453172 0.03158359 -0.21950272 -0.047083437 -0.10884329
-0.1881867 0.014592681 0.05976806 0.055359676 0.15772207 -0.09251646 -0.0721731 -0.012778627
-0.052558333 0.15578403 -0.08883742 -0.12846954 -0.07662347 -0.0057492447 -0.008422956 0.015676565
-0.014712674 -0.09341555 -0.016546868 -0.17807399 0.07220826 -0.015464876 -0.037065446 -0.030308422
0.022875153 0.0005738819 -0.053883757 -0.0077341413 -0.09736043 0.13692148 -0.07721845 0.088974066
-0.06263105 -0.25133443 -0.016247308 -0.042923007 -0.12629293 0.00841207 -0.033698443 0.002974063
-0.3003399 -0.004822484 0.040076442 -0.09532819 -0.022231001 -0.10576433 -0.078021884 -0.16161981
0.056455832 -0.008607901 -0.0004953559 0.0064763366 -0.046024244 -0.00018499349 -0.089018956 -0.04026335
0.063555405 -0.03480583 -0.050956678 -0.002663862 -0.004996342 0.07902586 -0.16751195 -0.011941418
0.030614192 -0.06884885 -0.038962744 0.030090878 -0.038961727 -0.1036246 -0.02716617 -0.17165391
0.05726351 -0.15614308 0.088328145 -0.08149849 0.15117873 0.00024746178 0.10389236 -0.00038674148
00000000: 048a 29bd 706b 203c a9bd 4fbd 469a 513d
00000010: 9748 dbbd 3b21 d83c 5036 823d b570 99bc
00000020: 0669 efbd a3fa 2bbe abbb 35be f3c0 f2bc
00000030: 1287 9abc 6b6a 89bd 6ed9 b13c 56de 553d
00000040: 10ee b1bd 9d5b 043e 3d5c 49bd 9cc6 0c3d
00000050: ae12 87bd c364 45bd a49c 413d 1964 6dbd
00000060: 0818 763d 02b9 623d 1236 3f3d d957 ee3c
00000070: 6b7b c0bd 4120 fabd e181 77bd d65c 093e
00000080: ce15 fd3d 92ce 953d d429 8f3e 0e45 cd3c
00000090: 801a 04be df27 2dbe 6695 12bd 8437 b1bd
000000a0: 264d 5e3d ca0e 77bd 1955 213b a520 aa3c
000000b0: b57a e13d 2e5d 39be b11c 16bc 54ba 2bbe
000000c0: b4dd 033e 0299 903c 69eb 04be 2e01 d1bd
000000d0: 87f4 d43d 8148 e33d 5a59 e4bc f705 513c
000000e0: 6318 1e3e 511b 27bd 6f6c fdbb 85ac 0f3d
000000f0: 7046 70be a1be b93d 69c6 0e3b 2f56 d63d
00000100: 01be 47bb b2c7 c5bd 38c7 b8bd 6c9d 07be
00000110: 716f 58bd 8f1f a73c ed16 a93d b514 09be
00000120: b4d1 c33b e720 6f3a 5504 e0bc d07f adbc
00000130: 92c8 a9bc 5dc2 08be ff73 f2bd ee09 dc3d
00000140: 206a e73d 6a25 58be 4433 18bd d323 713c
00000150: 9e77 cb3d 51a4 e6bd aba6 09be e207 9c3d
00000160: e3f4 383e b4bc 81bd c975 61bd d44a 033e
00000170: fc0c 18bd f119 c6bd 22bb cdbd edc6 4a3e
00000180: cab4 933d fc0f bcbd a7a9 e9bd bd05 4ebd
00000190: 8a41 28be 9cae efbc cf5a e63d bc20 033e
000001a0: 0a99 89bc 0c37 67bd c1d0 d63c eb1c 5ebd
000001b0: baf2 603c 23b6 f2bc e660 6cbd b672 253d
000001c0: 4125 813c 3e7d b539 1617 3e3e ab25 95bd
000001d0: cdce 073e ce5c a7bd 6910 94bc 5af1 0abc
000001e0: 865f 3dbc a095 6c3c dfc2 343e e4fb 2ebe
000001f0: 44cb 093e 98e6 e8bc 4851 4dbd a104 ea3d
00000200: 9aaf 853d e865 0bbd e8d7 1d3d dd80 ecbd
00000210: 6cfd 82be 2a82 833d 4021 2b3d e628 a0bd
00000220: 029b 183c f534 ffbd c7e0 00be d2b0 7ebd
00000230: fa7e 23be f89a 01be 126f 35bd 7311 483d
00000240: 3511 f0bd bab4 00be 44d0 dd3d 2bdd b13d
00000250: ec5a 2b3d e920 cbbd 5110 be3d 9368 0c3e
00000260: 4681 1dbd 037c e73c e967 283d c695 fabd
00000270: 63e0 25be 257e 263d 8e90 1c3e 0107 c1bc
00000280: ae68 0fbe 0c8d 1abe 14f4 17be d465 c4bd
00000290: b508 b13d b6ac bdbd a250 e7bd 4a08 a0bd
000002a0: 929a c0bd 8773 b93d 082b 963d a75c 5f3d
000002b0: cb5d 013d 52c5 60be 90da 40bd 3be9 debd
000002c0: 04b4 40be 2416 6f3c 5acf 743d d4c0 623d
000002d0: e581 213e 4579 bdbd 7ecf 93bd 725d 51bc
000002e0: 6847 57bd d985 1f3e 65f0 b5bd 858d 03be
000002f0: c4ec 9cbd 2964 bcbb 7000 0abc 246c 803c
00000300: 6d0d 71bc a750 bfbd 4c8d 87bc 0759 36be
00000310: ede1 933d 6460 7dbc f0d1 17bd 5e49 f8bc
00000320: ac64 bb3c 9070 163a 37b5 5cbd ae6e fdbb
00000330: e864 c7bd 2535 0c3e b524 9ebd 0938 b63d
00000340: b544 80bd e8ae 80be 1319 85bc 09d0 2fbd
00000350: ef52 01be c7d2 093c 6107 0abd 7fe8 423b
00000360: 27c6 99be ee05 9ebb 3227 243d 6d3b c3bd
00000370: ca1d b6bc f89a d8bd f0c9 9fbd aa7f 25be
00000380: 3b3e 673d 2708 0dbc c6da 01ba 7337 d43b
00000390: eb83 3cbd d0fa 41b9 924f b6bd 2feb 24bd
000003a0: 5629 823d 8f90 0ebd f3b7 50bd 3094 2ebb
000003b0: 5bb8 a3bb 4fd8 a13d 4188 2bbe f0a5 43bc
000003c0: 9dca fa3c a000 8dbd 6697 1fbd 2581 f63c
000003d0: 5596 1fbd 2239 d4bd 968b debc 0bc6 2fbe
000003e0: 248d 6a3d f9e3 1fbe 63e5 b43d aee8 a6bd
000003f0: 99ce 1a3e c2bd 8139 85c5 d43d 90c3 cab9

transformer_encoder.layers.0.linear2.bias f4 [64]
0.011515149 -0.06435611 -0.026938993 -0.045196023 -0.050416045 -0.040588684 -0.011617312 0.012195999
-0.047743652 -0.05416505 0.040870566 -0.029911457 -0.06246156 0.0410399 0.058095604 0.036211178
-0.03029215 0.014889865 0.065604635 0.05484113 0.030392667 -0.007421127 -0.055566493 -0.04928095
0.00027644495 0.0013818075 0.013052081 -0.026162013 0.004627941 -0.07429959 0.026121693 -0.038210545
0.09435921 0.060447555 -0.06264918 0.08676734 0.0019297309 0.058803555 0.042404268 -0.00058199046
-0.09814811 0.035926264 0.06149771 -0.051697556 0.08125552 -0.058823075 0.07327999 -0.027334072
0.10461246 -0.09342412 0.02044433 -0.056005377 0.07766379 -0.00506848 0.060377285 -0.0065497686
0.046592582 0.012358769 -0.021989707 0.013557681 0.10079994 -0.04755038 -0.087175585 -0.029096749
00000000: 09aa 3c3c 23cd 83bd 2aaf dcbc 771f 39bd
00000010: 0e81 4ebd 5240 26bd 8a56 3ebc bad1 473c
00000020: d98e 43bd 2cdc 5dbd e567 273d df08 f5bc
00000030: b1d7 7fbd 7419 283d a8f5 6d3d 2c52 143d
00000040: 3e27 f8bc 9ff4 733c b95b 863d 18a1 603d
00000050: 0bfa f83c ed2c f3bb b199 63bd d2da 49bd
00000060: d0ef 9039 c41d b53a 65d8 553c b851 d6bc
00000070: fca5 973b 622a 98bd 29fd d53c a982 1cbd
00000080: 673f c13d db97 773d 374e 80bd 13b3 b13d
00000090: 06ef fc3a ffdb 703d 19b0 2d3d b890 18ba
000000a0: e001 c9bd 6b27 133d 06e5 7b3d d1c0 53bd
000000b0: 4b69 a63d 77f0 70bd d213 963d b4eb dfbc
000000c0: 0f3f d63d 2555 bfbd de7a a73c e565 65bd
000000d0: 310e 9f3d 7e15 a6bb 2c4e 773d 719f d6bb
000000e0: ddd7 3e3d 6f7c 4a3c c223 b4bc 0921 5e3c
000000f0: 3370 ce3d 30c4 42bd 1d89 b2bd 4e5c eebc
