models/transformer_model.pt (torch, 310058 bytes, 29 tensors)

input_projection.weight f4 [64, 10]
000000 f9 99 ab bc bd 57 db bd 6c 1a 8d 3c 06 b4 87 3c
       -0.020947443 -0.10710094 0.017224513 0.016565334
000010 5d 7d 22 bd 1b 75 e2 3c aa f3 88 3b 7c 04 be 3c
       -0.039670337 0.02764373 0.0041794376 0.023195498
000020 97 12 c6 bd 31 20 6c bf df ce 32 3e 53 a3 67 be
       -0.096715145 -0.9223662 0.17461728 -0.22620897
000030 89 1d 9b 3d 54 70 93 bb a7 69 12 3b ab 6f e7 bb
       0.07573993 -0.0044994745 0.0022340806 -0.0070628724
000040 1d c3 5b 3c 74 ba b8 bd ec 98 5b be 61 2e 4a 3f
       0.013413218 -0.09019938 -0.21445054 0.7897702
000050 6c ff fd bd 5d 38 3e be 5f 1b ad bb 15 4b 9a 3d
       -0.124022335 -0.18576188 -0.005282804 0.07533852
000060 fb bf b7 bb c7 41 4a 3d 51 7a be bb ab 49 d3 3d
       -0.0056076027 0.049379136 -0.005812921 0.103167854
000070 6f 50 af 3e 23 3e 2a bd cb cb 3c 3d ce ea c4 3d
       0.34241053 -0.041563164 0.04609279 0.09615098
000080 b7 e0 34 bc 94 b8 e6 3c ca a2 02 bc 18 b2 40 bc
       -0.011039904 0.028164186 -0.007973382 -0.011761211
000090 e7 6a 13 3c 82 31 ab bb c6 52 93 3e 04 a9 82 3e
       0.0089976555 -0.0052244077 0.2877409 0.25519574
0000a0 90 6d d7 bd b8 c9 4a be 17 ba 38 3d f0 05 3e 3d
       -0.10518944 -0.19803512 0.045099344 0.04639238
0000b0 40 d7 85 bd 29 c6 d8 3d 17 0b 53 3d 05 1e f3 bd
       -0.06535196 0.10584671 0.051524248 -0.1187096
0000c0 d1 76 47 3e 75 5f 10 be c1 1d 38 3c 85 c6 3c 3e
       0.19478919 -0.14098914 0.011237563 0.18435104
0000d0 62 5d 38 3c 66 39 32 3d 8d 60 1a bc 9f 8d 0f 3d
       0.011252733 0.04351177 -0.009422434 0.03504717
0000e0 d0 2a 98 3c 38 ca 6d 3c 01 ee 77 3d 4f 98 55 bf
       0.018575102 0.014513545 0.060529713 -0.8343553
0000f0 9c c3 4c bc 93 e1 95 bd 48 93 14 3e b3 7f 28 bc
       -0.012497809 -0.073184155 0.14509308 -0.010284352
000100 6a 50 96 bd 3a 19 54 3d 2c 7e 0f bd 24 ac f7 3d
       -0.073395565 0.05178187 -0.035032436 0.1209338
000110 92 33 fb 3e 71 3a 23 be 94 06 df 3c b6 5b 35 3d
       0.49062783 -0.15940262 0.027224816 0.044276915
000120 70 12 0b 3c a8 3e 73 3c 4c 44 db bc 43 33 0d bd
       0.008488283 0.014846481 -0.026765965 -0.034472715
000130 54 42 26 bb a1 de 45 3b 26 ce 48 bc b8 e1 3a bf
       -0.0025369124 0.0030192512 -0.012256181 -0.7300067
000140 70 82 99 3c 7c 1d 19 3e 39 7b 0b 3d e1 0f 9b 3c
       0.018738955 0.14952654 0.03405306 0.01892847
000150 63 e9 6e bc 10 ae 02 bc c2 eb 41 3c b6 2f d5 bc
       -0.014582011 -0.00797607 0.011835994 -0.026023727
000160 e8 a7 8b bd 51 f0 59 3f 80 fb 8d 3c a8 75 8f bd
       -0.06819135 0.8513232 0.017331839 -0.07004863
000170 a1 d7 25 3d 7e 9f 3e 3e 0c 3f 85 be 63 05 f3 3d
       0.040488843 0.18615529 -0.26024663 0.11866262
000180 f0 0b 47 3d 6c de 9d bd a5 d6 41 be fa 3e 70 bf
       0.04859537 -0.07708439 -0.18929537 -0.93846095
000190 fd d5 1f 3e 5d 45 09 be 59 32 ea bc 92 e4 64 bd
       0.15608974 -0.13405366 -0.02858846 -0.055882044
0001a0 31 4f 1d 3e dc 12 35 bb 69 46 9f bc 20 a6 14 3d
       0.1536224 -0.002762965 -0.019442754 0.03629124
0001b0 c3 f0 0a 3e f2 14 52 be db ae c2 3e 1b 09 e3 be
       0.13568406 -0.20515803 0.3802403 -0.44342884
0001c0 0f b7 a5 bd a1 a0 7e bd c4 dd 5f 3d 46 18 19 be
       -0.08091556 -0.062164906 0.05465485 -0.14950666
0001d0 a5 bb d7 3d 86 39 88 bd 74 a8 7f bd 70 5b 84 3e
       0.10533837 -0.06651597 -0.06241651 0.2585101
0001e0 38 6c 23 3d c7 8e 8d be 67 8a a0 bb 68 82 8e bb
       0.039898127 -0.27647993 -0.0048993113 -0.0043490417
0001f0 c6 6a b8 bd 54 5c 1b bc 41 22 b7 3b 16 62 a0 bc
       -0.090047404 -0.009482462 0.0055888 -0.019578021
000200 1d b0 54 be 9a 42 0c 3e 69 cc 58 3e fc ec 85 3e
       -0.20770307 0.13697281 0.21171726 0.26157367
000210 2b 9c c0 bd a2 f6 5c bd eb 4b 6f bc 55 72 f3 bc
       -0.09404787 -0.053946145 -0.014605503 -0.029717604
000220 d6 07 5e 3d 37 3a c1 3d 85 51 92 be 88 6b f9 be
       0.05420669 0.09434932 -0.2857782 -0.48714852
000230 2b 4c d2 be 43 bc 6d 3e c6 2e ba 3d 54 83 5e 3e
       -0.41073737 0.23216347 0.090909526 0.21729785
000240 3f 12 c9 bd 2a e7 43 3e 9c bd d8 3d 08 1a 86 3d
       -0.09817933 0.19131151 0.1058304 0.06547934
000250 dd 7a cc be ce e4 1a bc 3c fe 5a be bc e4 c8 be
       -0.39937487 -0.009453965 -0.21386045 -0.3923701
000260 05 fd 2c 3c 26 23 f9 3d 81 f9 8e 3d 82 53 1a 3d
       0.010558371 0.12164907 0.06981183 0.037677296
000270 b4 7d e5 3d 7d 56 d1 bd 1d aa f2 bc 82 63 c9 3e
       0.112056166 -0.102215745 -0.029622132 0.3933373
000280 e6 81 c5 be 96 6f 96 bd 76 ac 24 3e 63 33 3d 3e
       -0.38575667 -0.07345502 0.16081414 0.18476634
000290 8b 47 cc bd e8 00 41 3d b1 72 03 be c2 53 90 3d
       -0.09974583 0.047120005 -0.1283672 0.070472255
0002a0 9f bc d6 3e 3a 53 16 bf b0 9f 49 be 7b 6f 25 be
       0.4194078 -0.58720744 -0.19689822 -0.16155808
0002b0 af 11 52 bd ad 46 12 3e ee 0c 47 be 4c 34 5c bd
       -0.051286396 0.14284773 -0.19438526 -0.05376081
0002c0 ae df eb bd 21 16 86 bc 40 18 b5 bd 72 40 80 bd
       -0.11517273 -0.016367974 -0.08842516 -0.06262292
0002d0 cf 51 0a bf 5b 40 f1 be be a0 29 be 06 44 d2 bd
       -0.5403108 -0.47119412 -0.16565225 -0.10266881
0002e0 b5 d8 49 bd 79 b8 0b be 9d d1 61 3c 04 e1 cc 3b
       -0.049278934 -0.1364459 0.013782886 0.00625241
0002f0 a1 a1 b6 be 21 90 7b be 28 9c 17 bf 25 6e 01 be
       -0.35670188 -0.245667 -0.5922265 -0.12639673
000300 4a 50 09 3c 60 f5 18 be e7 63 51 3e 46 72 04 be
       0.008380959 -0.14937353 0.20448266 -0.12934217
000310 7a b5 cc bc 08 e7 6c bd c5 16 15 be d5 1e 0c 3f
       -0.024988879 -0.057837516 -0.14559467 0.54734546
000320 04 b4 c7 3e 3d 63 eb 3d ac 2f 7b be 55 d1 3a 3e
       0.3900453 0.114935376 -0.24529904 0.18243916
000330 84 1c 7c be af 92 f2 bd 7e 4a 4c bd db fc 0a 3e
       -0.24620253 -0.11844384 -0.04987573 0.13573019
000340 4f 63 84 bd 48 26 48 3f e0 22 c8 3d 9d db c1 3e
       -0.06464254 0.7818341 0.09772277 0.37862864
000350 de 41 d2 bc 64 5d 0d 3d 44 6f ac bd 1a 27 28 3c
       -0.025666174 0.034512892 -0.0841966 0.010263229
000360 96 07 37 bd de be 09 3d f7 c3 2f be 6b 74 5b bf
       -0.04468497 0.03362929 -0.17164598 -0.85724515
000370 c0 0e 29 3e e7 82 f9 3c a5 1c 10 3d 9f aa 33 3e
       0.16509533 0.030457927 0.035183568 0.17545556
000380 5f 3a 5e 3a 4a 3d 2b bd 83 26 78 3b 33 90 06 3b
       0.0008477326 -0.041806497 0.0037864752 0.0020532727
000390 95 a9 a6 be 6e af c5 bd 5a 53 4c 3b 28 2a a1 3e
       -0.32551256 -0.09652601 0.003117761 0.31477475
0003a0 23 75 a2 bd b1 a8 45 be 85 38 5b 3e a9 ac f3 3d
       -0.07932498 -0.19302632 0.21408279 0.11898167
0003b0 c5 3d 9d bb 6c 98 8e 3c bf 4a 19 be 83 0b 75 3f
       -0.0047986233 0.017406665 -0.1496992 0.9572069
0003c0 ae 65 d5 3e 57 0b 8b 3e 13 4b 70 3c ba 8f 71 3c
       0.41679138 0.2715709 0.014666337 0.01474374
0003d0 d2 b0 8a bd 38 4f 01 3d f6 24 bc bc 1a 7a 44 bd
       -0.06772007 0.03156969 -0.022966843 -0.047968008
0003e0 87 d1 8d bd de 85 2a 3f c4 da 43 3e f1 41 a9 bd
       -0.0692473 0.66610515 0.19126421 -0.082645305
0003f0 d3 5e 9b be cb 40 e3 bc 7c 3d a5 bd de 03 f3 bc
       -0.30345783 -0.027740857 -0.08068368 -0.02966493

input_projection.bias f4 [64]
000000 3e b7 2f 3e b0 aa ab be 12 48 cc be 2a 75 f5 bd
       0.17159745 -0.33528662 -0.39898735 -0.11985238
000010 c1 8b e7 3e 3c 0f d5 3e 96 2c 8f be c4 8d 76 bd
       0.4522381 0.41613185 -0.27963704 -0.060193792
000020 2e be 8d 3d 77 b9 be be f8 5a c1 3d 5f 04 e7 bd
       0.069210395 -0.37250873 0.09441179 -0.112801306
000030 af cb ce 3c 2e 8b 28 3e 8b 9c c8 3c d1 cb ff 3c
       0.025243608 0.16459343 0.024488708 0.031225117
000040 75 af fc be 44 8e 81 3d 49 44 9b be 9a 35 86 3d
       -0.49352613 0.06325963 -0.30325535 0.065531924
000050 5d 0c e1 be cb 2c a0 be 06 7a 90 be 1d 9d ae be
       -0.43954745 -0.31284174 -0.28218096 -0.34104243
000060 24 83 d8 be d3 1d df be e7 99 eb 3d 3e dc e2 be
       -0.42287552 -0.43577442 0.11503964 -0.44308656
000070 8e 68 ff ba 33 5e ab be 2f f1 a5 bd ee 7e 03 bf
       -0.0019486116 -0.33470306 -0.08102643 -0.51365554
000080 01 eb 51 3d 4f ce 53 be f5 12 0c be 92 1f ad be
       0.051249508 -0.20684169 -0.13679107 -0.3381315
000090 74 04 42 be 9c 92 31 bf b2 ac d8 bd a3 45 c3 be
       -0.18947011 -0.69364333 -0.10579814 -0.38139066
0000a0 c0 ed d9 bb 04 ef b9 be 02 40 4f bd 2b 5f ad be
       -0.0066506565 -0.36315167 -0.050598152 -0.3386167
0000b0 1f cb 48 be 4f 8c c7 be 7c 20 bd be a4 9e 14 bf
       -0.19608735 -0.38974234 -0.36938846 -0.58054566
0000c0 35 37 73 be bb be f6 be 0f 76 3a be f3 0d 0b bf
       -0.23751529 -0.4819239 -0.18209098 -0.5431816
0000d0 58 06 29 3e 64 53 1e be 08 37 65 be b8 9d ff be
       0.16506326 -0.15461498 -0.22384274 -0.49925017
0000e0 6a 8a 34 be d3 1f 2b be 0e 39 f8 bd 49 ac 29 bf
       -0.17630926 -0.16711359 -0.12120257 -0.6627851
0000f0 5c ff 5f be 5a 9d a3 be ed c3 19 3e 54 7a 9f be
       -0.21874756 -0.31955987 0.15016146 -0.31148016

pos_encoder.pe f4 [1, 100, 64]
000000 00 00 00 00 00 00 80 3f 00 00 00 00 00 00 80 3f
       0.0 1.0 0.0 1.0
000010 00 00 00 00 00 00 80 3f 00 00 00 00 00 00 80 3f
       0.0 1.0 0.0 1.0
000020 00 00 00 00 00 00 80 3f 00 00 00 00 00 00 80 3f
       0.0 1.0 0.0 1.0
000030 00 00 00 00 00 00 80 3f 00 00 00 00 00 00 80 3f
       0.0 1.0 0.0 1.0
000040 00 00 00 00 00 00 80 3f 00 00 00 00 00 00 80 3f
       0.0 1.0 0.0 1.0
000050 00 00 00 00 00 00 80 3f 00 00 00 00 00 00 80 3f
       0.0 1.0 0.0 1.0
000060 00 00 00 00 00 00 80 3f 00 00 00 00 00 00 80 3f
       0.0 1.0 0.0 1.0
000070 00 00 00 00 00 00 80 3f 00 00 00 00 00 00 80 3f
       0.0 1.0 0.0 1.0
000080 00 00 00 00 00 00 80 3f 00 00 00 00 00 00 80 3f
       0.0 1.0 0.0 1.0
000090 00 00 00 00 00 00 80 3f 00 00 00 00 00 00 80 3f
       0.0 1.0 0.0 1.0
0000a0 00 00 00 00 00 00 80 3f 00 00 00 00 00 00 80 3f
       0.0 1.0 0.0 1.0
0000b0 00 00 00 00 00 00 80 3f 00 00 00 00 00 00 80 3f
       0.0 1.0 0.0 1.0
0000c0 00 00 00 00 00 00 80 3f 00 00 00 00 00 00 80 3f
       0.0 1.0 0.0 1.0
0000d0 00 00 00 00 00 00 80 3f 00 00 00 00 00 00 80 3f
       0.0 1.0 0.0 1.0
0000e0 00 00 00 00 00 00 80 3f 00 00 00 00 00 00 80 3f
       0.0 1.0 0.0 1.0
0000f0 00 00 00 00 00 00 80 3f 00 00 00 00 00 00 80 3f
       0.0 1.0 0.0 1.0
000100 a4 6a 57 3f 41 51 0a 3f ce 7a 2e 3f b0 54 3b 3f
       0.84147096 0.54030234 0.68156135 0.731761
000110 ba 7d 08 3f 0e 94 58 3f f0 90 d1 3e c7 92 69 3f
       0.53316844 0.84600914 0.4093089 0.9123959
000120 3e 39 9f 3e 6b 4e 73 3f 25 8f 70 3e f1 d5 78 3f
       0.3109836 0.9504153 0.23492105 0.9720145
000130 3a 23 35 3e 83 f6 7b 3f f3 25 08 3e 28 ba 7d 3f
       0.17689219 0.9842302 0.13295726 0.99112177
000140 76 75 cc 3d 98 b8 7e 3f 36 6f 99 3d d1 47 7f 3f
       0.099833414 0.9950042 0.07491915 0.9971896
000150 ae 36 66 3d 68 98 7f 3f fb ac 2c 3d bd c5 7f 3f
       0.05620449 0.9984193 0.042157155 0.999111
000160 5b 81 01 3d 3c df 7f 3f a5 3e c2 3c 93 ed 7f 3f
       0.031617504 0.99950004 0.023711512 0.99971884
000170 43 ab 91 3c a3 f5 7f 3f 49 7a 5a 3c 2c fa 7f 3f
       0.01778186 0.99984187 0.013334819 0.99991107
000180 57 d6 23 3c b9 fc 7f 3f 16 b9 f5 3b 28 fe 7f 3f
       0.009999833 0.99995 0.0074988706 0.99997187
000190 5a 44 b8 3b f7 fe 7f 3f 5a 2e 8a 3b 6b ff 7f 3f
       0.0056233825 0.9999842 0.0042169513 0.9999911
0001a0 1c 3e 4f 3b ac ff 7f 3f 04 69 1b 3b d1 ff 7f 3f
       0.0031622713 0.999995 0.0023713717 0.9999972
0001b0 20 15 e9 3a e6 ff 7f 3f 8b c9 ae 3a f1 ff 7f 3f
       0.0017782785 0.99999845 0.0013335211 0.9999991
0001c0 6d 12 83 3a f8 ff 7f 3f 89 94 44 3a fb ff 7f 3f
       0.0009999998 0.9999995 0.000749894 0.9999997
0001d0 13 6a 13 3a fe ff 7f 3f 22 17 dd 39 ff ff 7f 3f
       0.0005623411 0.9999999 0.0004216964 0.99999994
0001e0 60 cb a5 39 ff ff 7f 3f 0d a8 78 39 00 00 80 3f
       0.0003162278 0.99999994 0.00023713727 1.0
0001f0 53 77 3a 39 00 00 80 3f 6d d4 0b 39 00 00 80 3f
       0.00017782794 1.0 0.00013335208 1.0
000200 b7 c7 68 3f 33 11 d5 be d9 5a 7f 3f 53 4d 91 3d
       0.9092974 -0.41614684 0.99748 0.070948265
000210 0a f2 66 3f b2 e8 dc 3e 11 35 3f 3f 03 39 2a 3f
       0.9021307 0.43146282 0.7469035 0.6649324
000220 1b 54 17 3f ec 7b 4e 3f b5 d3 e9 3e 69 be 63 3f
       0.5911271 0.8065784 0.45669332 0.8896242
000230 f6 47 b2 3e a6 fa 6f 3f 82 f0 86 3e f5 f2 76 3f
       0.34820527 0.93741834 0.26355368 0.96464473
000240 f8 6f 4b 3e a5 e5 7a 3f d3 00 19 3e 4f 20 7d 3f
       0.19866931 0.9800666 0.1494172 0.98877424
000250 86 d9 e5 3d f3 61 7e 3f af 85 ac 3d 0e 17 7f 3f
       0.1122313 0.9936821 0.084239356 0.99644554
000260 c8 70 81 3d f9 7c 7f 3f aa 30 42 3d 4f b6 7f 3f
       0.063203394 0.9980007 0.04740969 0.99887556
000270 5d a5 11 3d 8e d6 7f 3f 50 75 da 3c b1 e8 7f 3f
       0.035558093 0.9993676 0.026667267 0.99964434
000280 3e d4 a3 3c e5 f2 7f 3f 51 b7 75 3c a1 f8 7f 3f
       0.019998666 0.9998 0.014997319 0.9998875
000290 9b 43 38 3c db fb 7f 3f 0a 2e 0a 3c ab fd 7f 3f
       0.011246587 0.99993676 0.008433828 0.9999644
0002a0 d8 3d cf 3b b1 fe 7f 3f e8 68 9b 3b 43 ff 7f 3f
       0.006324511 0.99998003 0.0047427304 0.99998873
0002b0 08 15 69 3b 96 ff 7f 3f 80 c9 2e 3b c4 ff 7f 3f
       0.0035565514 0.9999937 0.0026670396 0.9999964
0002c0 68 12 03 3b df ff 7f 3f 85 94 c4 3a ed ff 7f 3f
       0.0019999985 0.99999803 0.0014997876 0.99999887
0002d0 12 6a 93 3a f5 ff 7f 3f 20 17 5d 3a fa ff 7f 3f
       0.0011246821 0.99999934 0.0008433927 0.99999964
0002e0 5f cb 25 3a fd ff 7f 3f 0c a8 f8 39 fe ff 7f 3f
       0.0006324555 0.9999998 0.0004742745 0.9999999
0002f0 53 77 ba 39 ff ff 7f 3f 6d d4 8b 39 00 00 80 3f
       0.00035565588 0.99999994 0.00026670416 1.0
000300 c3 81 10 3e 26 70 7d bf de 3c 47 3f ce bf 20 bf
       0.14112 -0.9899925 0.7782725 -0.6279267
000310 d7 45 7e 3f ab 7f ed bd 64 21 74 3f 63 18 9a 3e
       0.9932532 -0.11596616 0.9536345 0.3009673
000320 c2 09 50 3f 58 2f 15 3f b7 24 27 3f a2 e7 41 3f
       0.8126489 0.58275366 0.652904 0.7574407
000330 6c 2f 02 3f 29 6d 5c 3f a7 68 c7 3e 37 c9 6b 3f
       0.5085361 0.86104065 0.3894703 0.92103904
000340 6c 4e 97 3e ef 90 74 3f e2 6d 64 3e 92 8c 79 3f
       0.2955202 0.9553365 0.22307542 0.9748012
000350 d7 ee 2b 3e 9e 5d 7c 3f 2c 33 01 3e 43 f4 7d 3f
       0.16790329 0.9858035 0.12617177 0.9920084
000360 c0 ff c1 3d 4f d9 7e 3f 06 93 91 3d 3a 5a 7f 3f
       0.094726086 0.99550337 0.071081206 0.9974705
000370 4f 69 5a 3d c3 a2 7f 3f c5 d1 23 3d 90 cb 7f 3f
       0.053323086 0.9985773 0.039994974 0.99919987
000380 1f b9 f5 3c 83 e2 7f 3f 47 47 b8 3c 6b ef 7f 3f
       0.0299955 0.99955004 0.022494925 0.999747
000390 c6 31 8a 3c ad f6 7f 3f 46 44 4f 3c c2 fa 7f 3f
       0.016869437 0.9998577 0.012650555 0.99992
0003a0 0d 6e 1b 3c 0d fd 7f 3f 14 1d e9 3b 58 fe 7f 3f
       0.009486687 0.999955 0.007114062 0.9999747
0003b0 a8 cf ae 3b 11 ff 7f 3f 13 17 83 3b 7a ff 7f 3f
       0.005334813 0.99998575 0.0040005534 0.999992
0003c0 92 9b 44 3b b5 ff 7f 3f 60 6f 13 3b d6 ff 7f 3f
       0.0029999954 0.9999955 0.0022496805 0.9999975
0003d0 17 1f dd 3a e8 ff 7f 3f 57 d1 a5 3a f3 ff 7f 3f
       0.0016870227 0.99999857 0.0012650889 0.9999992
0003e0 0e b1 78 3a f9 ff 7f 3f 09 7e 3a 3a fc ff 7f 3f
       0.00094868324 0.9999996 0.00071141176 0.99999976
0003f0 7e d9 0b 3a fe ff 7f 3f a4 be d1 39 ff ff 7f 3f
       0.0005334838 0.9999999 0.00040005625 0.99999994

transformer_encoder.layers.0.self_attn.in_proj_weight f4 [192, 64]
000000 de 62 48 bc a5 b3 c6 3d 25 74 c4 bd 49 85 38 bd
       -0.012230603 0.09702233 -0.09592465 -0.045048986
000010 29 86 09 3d 1c 18 39 3e 97 90 4f bd 0f 29 29 3e
       0.03357521 0.18075603 -0.050675 0.16519569
000020 1c 58 85 bd fc 27 16 be 49 41 b2 3d f8 24 cb bd
       -0.06510946 -0.1466369 0.087038584 -0.099191606
000030 00 bf 5e 3e 95 c3 4b 3d 3f b1 e4 3b d6 2f 19 3e
       0.21752548 0.04974707 0.006979137 0.14959654
000040 bb 1d c3 3d 84 aa be 3d 16 f0 a7 3d 17 eb 29 3e
       0.09527155 0.09309867 0.0820009 0.16593586
000050 97 39 e7 3d 76 4e c7 3d 5c 63 37 3d 93 f1 21 3d
       0.11290281 0.09731762 0.04477249 0.039537024
000060 0c c9 f5 bd 72 2a 0f 3e a8 0c 0d bd 12 d5 03 3e
       -0.12001237 0.13981035 -0.034435898 0.12874249
000070 e1 69 82 3d fd 52 fa bc 3f 76 84 bc 38 bb e3 bd
       0.06367851 -0.03055715 -0.016169665 -0.111196935
000080 a0 60 a9 3d 47 45 2a 3e da 49 a3 3d 68 ba 76 bd
       0.08270383 0.1662799 0.079730704 -0.060236365
000090 10 2f a2 3d 5c 81 34 3d 4b d6 1a be 92 0c 9a 3d
       0.07919133 0.04406868 -0.15120809 0.07521929
0000a0 ff 72 e0 bd 98 93 40 3e c6 69 e3 3d 0f 18 35 be
       -0.10959434 0.18806303 0.11104159 -0.17684959
0000b0 2d 0a 60 3d a4 ca 77 bd 78 90 24 3e a8 f4 29 3d
       0.054697204 -0.060495988 0.16070735 0.041493088
0000c0 70 41 cc 3c 92 aa 6f 3c 66 d6 1a 3e 51 b7 bf bc
       0.024933547 0.0146280695 0.15120849 -0.023402842
0000d0 2e b7 f1 bd cb cb 6e 3d 92 e6 aa 3d f3 80 8f 3d
       -0.11802517 0.05829982 0.08344759 0.07007017
0000e0 0c ec ec bd 58 fb 86 3d 59 b3 34 bd d9 ed a3 3d
       -0.1156846 0.06590909 -0.04411635 0.0800435
0000f0 30 20 95 3d e7 e2 ba 3d 4a a8 12 bd 05 a2 1d 3d
       0.0728153 0.091253094 -0.035805024 0.038484592
000100 7a 8f 4a 3c d0 0e b2 bd 19 c8 3b 3d 86 23 68 bd
       0.012363309 -0.086942315 0.045845125 -0.056674503
000110 3c a5 fb bd 0f 18 0b be 00 71 c4 3c 66 4c b1 bd
       -0.12287375 -0.13583396 0.023979664 -0.0865715
000120 e9 8e 13 3e 44 02 39 3c da 64 6e 3d dd 05 45 3d
       0.14409985 0.011292044 0.05820165 0.048101295
000130 c9 ac 4a be 0b f8 21 bd fa 13 c0 bd d4 ec 4d bd
       -0.19792475 -0.039543193 -0.0937881 -0.050274685
000140 52 6e e5 bd 2a 80 b8 3d 4d f8 54 3e d1 59 dc 3d
       -0.112026826 0.0900882 0.20797844 0.107593186
000150 80 73 17 3d 6a 6c 41 3e eb 0f 21 3c c3 9f db bd
       0.036975384 0.18889013 0.009830455 -0.107238315
000160 18 aa 09 3d e4 80 12 3d 13 01 70 ba 9c a0 9c 3d
       0.03360948 0.03576745 -0.00091554335 0.07647821
000170 0a 35 0a bd 83 bd d5 3c 10 ec 26 3e f1 6c a2 bd
       -0.03374199 0.026091343 0.16300988 -0.07930935
000180 bd af 20 be e9 54 a6 bd 0c f3 86 bd 27 b8 ca 3d
       -0.15692039 -0.08121664 -0.06589326 0.098984055
000190 2a 7c b7 bd 8b 69 d8 3c 0d 06 1a 3e c5 61 e3 bd
       -0.08959229 0.026417514 0.1504137 -0.111026324
0001a0 ba 5a ad bd 5a eb 7e bd 9b 1d 34 be aa 58 ae 3d
       -0.0846457 -0.062236167 -0.17589419 0.08513005
0001b0 71 34 d8 3b 15 34 ba bd c4 ce 32 be 2e 48 8b 3c
       0.0065980484 -0.09091965 -0.17461687 0.017002191
0001c0 29 46 b3 39 8f f0 2c bd d4 b7 2b be 14 fd fe bd
       0.00034193814 -0.042221602 -0.16769344 -0.124506146
0001d0 a3 1a af bb b2 34 77 bd 84 90 2c bd f8 66 a7 3d
       -0.0053437515 -0.06035299 -0.04213001 0.081739366
0001e0 c1 0d 38 3d 90 2c b2 bd 9d 4d 41 bb 56 ff 54 bd
       0.04493499 -0.08699906 -0.0029495724 -0.05200132
0001f0 ed 62 ba bd 9f 38 7b 3b ce 23 49 3d f7 24 c8 3d
       -0.091009 0.003833331 0.04910641 0.097726755
000200 13 aa 34 3e cd 3b 5f bd 0f 9b 09 be d2 3d 93 3d
       0.17643003 -0.05450039 -0.13438056 0.07189526
000210 ac 61 04 bd 8a aa c8 3d 1f a7 af bd 9a 44 ca 36
       -0.03231971 0.09798153 -0.08576798 6.0280554e-06
000220 b6 0d 02 be 3e ab dc 3d 58 52 74 be fc 42 0f 3d
       -0.12700543 0.10774849 -0.23859537 0.03497599
000230 8a 1e 9c be 29 27 de 3d 0b e0 0f be 22 8d ff bc
       -0.3049205 0.10847313 -0.1405031 -0.031195227
000240 28 09 93 3b f9 7e 40 be a9 94 ec 3c cd 95 74 bd
       0.0044871755 -0.18798436 0.02887948 -0.059713174
000250 57 17 36 ba ae 8d b8 bd 38 bd 18 be 7c d7 37 bd
       -0.0006946227 -0.09011398 -0.14915931 -0.044883236
000260 7b df 99 3d 7b de f0 bb d6 7f 27 be 9c 65 9b 3c
       0.07513329 -0.0073507405 -0.1635736 0.01896935
000270 79 8b 69 3d 91 5f 3d be d2 02 6b 3e 42 b7 76 3d
       0.057017777 -0.18493487 0.22950295 0.060233362
000280 c2 6d 38 bd a1 e6 89 bd f7 71 94 3d 98 0c 09 3e
       -0.04502655 -0.06733442 0.072482996 0.1338371
000290 d2 a0 f2 3d 80 1c df bd 5a d3 67 3c a7 4a 7d 3c
       0.1184708 -0.10894108 0.014149511 0.015459693
0002a0 73 d6 e1 bd 30 c9 c9 bd 84 cc 01 3e 96 86 85 3d
       -0.11027231 -0.098528266 0.12675673 0.06519811
0002b0 42 67 ce bd 06 22 47 bd 4f b1 30 be 3b 35 46 bd
       -0.100782886 -0.04861643 -0.17255138 -0.04839061
0002c0 a1 97 3d bd 6d 8d 1d bd eb 0c ab 39 c6 b5 d9 bd
       -0.046287183 -0.038464952 0.00032625286 -0.10630374
0002d0 81 5d 92 3b f6 1a 08 3e 67 57 0d be f4 f9 43 3d
       0.004466713 0.13291535 -0.13802873 0.047845796
0002e0 4e 4e bb 3d 4b f0 cc bd 19 3e 30 3d b5 7f a1 3d
       0.09145795 -0.1000677 0.04302797 0.07885686
0002f0 45 54 48 bc 6d b5 e4 bd 65 53 71 3d 12 98 eb 3d
       -0.012227123 -0.11167417 0.05891742 0.115036145
000300 9e 95 71 3e f0 c0 77 3d ed bf 27 bd 12 9d 05 3e
       0.2359223 0.060486734 -0.04095452 0.13048199
000310 3f 5d 69 3e 9d 55 b5 3d 84 da e1 3d f4 d3 4b 3e
       0.22789477 0.0885422 0.11028007 0.19905072
000320 59 90 3d be 90 18 21 bd 3a bb e2 3c 00 c4 20 be
       -0.18512096 -0.039330065 0.027677167 -0.15699768
000330 71 bc 9a 3c fa 75 cf 3c 68 5d 0b bd 00 41 71 b9
       0.018888684 0.02532481 -0.034024626 -0.00023007765
000340 ef 34 b4 bc 04 de a8 3d 99 34 1b bd f6 e9 16 3e
       -0.021997897 0.08245471 -0.037891958 0.14737687
000350 28 76 c5 bd a8 08 f5 3d b3 46 00 3d f3 e6 fa bd
       -0.09641677 0.11964542 0.031317424 -0.12251081
000360 5e 6f 0e 3d 5b 94 40 3c 9c e9 57 3d cd 85 da bd
       0.034774177 0.011754121 0.05271302 -0.10670052
000370 fc 86 fd 3d 78 79 ed bc df 60 11 3d a9 ed ee 3d
       0.12379262 -0.028988585 0.035492774 0.11666424
000380 b3 b4 6f 3d e0 0b 50 3d ad 54 03 be 72 aa 34 3d
       0.058521938 0.050792575 -0.1282527 0.04410786
000390 19 3d 3a 3d a0 f8 a9 3d a0 80 d5 3c dd fa bf bc
       0.045468424 0.082993746 0.02606231 -0.02343505
0003a0 9d 7a 67 3c fc 3d 4f 3d c2 02 62 3b 2c 8e 75 3d
       0.014128354 0.050596222 0.0034486507 0.05995004
0003b0 c8 b1 0a bd 41 09 13 3e d5 0c b8 3c 92 9f 47 3c
       -0.03386095 0.14358999 0.022467056 0.012184041
0003c0 5e d1 c6 3d 10 cd b7 bd c4 9a 5a 3e c3 c6 f4 3d
       0.09707902 -0.089746594 0.21348101 0.11951973
0003d0 58 4d 59 3d 9e 63 dc bd e3 fa 3d 3c 01 42 f3 3d
       0.053052276 -0.10761188 0.011595461 0.118778236
0003e0 66 10 7f 3d 3d d3 c5 3d 2c e7 00 3e 62 46 8c bd
       0.0622715 0.09659431 0.12588185 -0.06849362
0003f0 57 e5 0d be 04 83 33 bd bc d9 cc 3d d0 3f b5 bd
       -0.13857017 -0.043826118 0.10002467 -0.08850062

transformer_encoder.layers.0.self_attn.in_proj_bias f4 [192]
000000 98 13 bc 3d 73 fb 35 ba 2f ab 85 bd b8 e5 94 3b
       0.09183425 -0.0006942071 -0.06526791 0.004543986
000010 5e a2 4c bd 5f 3a fc 3c 4d 8a 88 bd 5f cf 54 3d
       -0.049959533 0.030789552 -0.06667004 0.051955577
000020 62 64 63 3d 06 f6 07 3d fe f5 d3 bc 78 67 36 bd
       0.055515654 0.03319361 -0.025874134 -0.04453227
000030 e5 b6 67 bd 0e d4 90 bd 95 c2 9e bd d1 c6 7e 3d
       -0.056570906 -0.07071696 -0.07751957 0.062201325
000040 67 7d 24 bd 57 b0 eb bc cf 31 f5 3b 83 ef 4f bc
       -0.040158655 -0.028770609 0.0074827443 -0.012691381
000050 1f 87 c9 bc 60 ba ba bc d9 c3 39 bb ac bc 2c bc
       -0.024600564 -0.022793949 -0.0028345494 -0.01054303
000060 1c 54 14 bc 84 44 17 bd 10 83 ef bb 2b e2 21 bb
       -0.009053256 -0.036930576 -0.007309325 -0.0024701457
000070 eb b4 a9 3a cd 5e 63 bc a2 72 f5 bc 11 cf f9 bc
       0.0012947595 -0.013877583 -0.029961888 -0.030494245
000080 0a 68 86 bb e9 5c 0d 3d 3c 29 b3 bc 5a 3d d8 3c
       -0.004101758 0.034512434 -0.021870248 0.026396442
000090 ea 32 d8 3c 8e e4 99 bc a0 33 c4 bc 07 11 fc 3c
       0.026391465 -0.018785741 -0.023950398 0.030769838
0000a0 04 f6 d5 bc ba 7b 9e 3c d9 06 72 3b 05 f8 b9 3c
       -0.026118286 0.019346107 0.003693035 0.022701273
0000b0 52 1a de bc 21 bf ef bc a9 99 8e bb 08 3b 8e 3c
       -0.02711216 -0.029265942 -0.004351814 0.017362133
0000c0 b0 07 3a bd 39 94 75 ba 0f 2c 0e bb 44 c0 35 3c
       -0.045417488 -0.0009368095 -0.0021693741 0.011093203
0000d0 b7 28 49 bc b8 66 81 3d 2d a3 c7 3a 81 35 08 bd
       -0.012277774 0.0631842 0.0015231125 -0.03325415
0000e0 0e 8e 2e bd af 1b 39 3c 40 b3 ba bc ba 9c 6d 3d
       -0.042615943 0.011298104 -0.022790551 0.058010794
0000f0 a4 49 58 3d f1 07 f0 3c a9 c9 20 3c b7 c3 23 3d
       0.052804604 0.029300662 0.0098137045 0.03998157
000100 77 51 ba 3b d1 d2 a6 ba 45 50 44 bc 81 a6 40 3c
       0.005685981 -0.0012727623 -0.011982028 0.011758448
000110 33 8b a3 bb 6e 9a 5e 3c 71 11 55 bc 15 1f a6 b9
       -0.004990959 0.013586624 -0.013004647 -0.00031685145
000120 13 82 e1 3a 61 9e 01 bc 7e 55 92 bb bd a9 5e bc
       0.0017204903 -0.007911296 -0.004465758 -0.013590273
000130 d0 a1 7b bc 07 de ad bc 98 44 b9 bc 7d 8c c2 3b
       -0.015358403 -0.021224035 -0.022615716 0.0059371577
000140 35 43 bd 3b 2c 4b a4 3c 11 60 08 3c 65 1b cc 3b
       0.005775834 0.020055376 0.008323685 0.0062288516
000150 a7 05 6b 3c 09 c7 e1 b8 6e 27 c4 3b ed 45 6a 3a
       0.014344609 -0.00010765909 0.0059861457 0.00089368114
000160 14 c2 3b 3c 85 ca f3 3b 14 d2 71 3c 85 2a 93 3b
       0.011459846 0.0074399137 0.014759559 0.0044911527
000170 9e 6c 8d bc fe 16 84 39 ed 4d 56 3b b4 61 02 bb
       -0.017263707 0.00025194132 0.0032700256 -0.0019894661
000180 15 60 bc bc 6c 5d 6e 3c 91 5f 46 3c 7d a3 e9 3b
       -0.022995034 0.014548641 0.012107746 0.007130085
000190 bc 49 63 bb cd c1 b9 bb 04 ba 0f bb 09 bc af bb
       -0.00346814 -0.005668855 -0.0021930942 -0.0053629917
0001a0 54 00 39 b8 26 8d 99 b9 46 c4 6c bc 2b 90 7f bb
       -4.4107743e-05 -0.00029287598 -0.014451092 -0.0038995843
0001b0 56 d7 81 ba 64 93 3a bc 39 93 46 3c 9e a3 5b bc
       -0.0009906094 -0.01138768 0.012120062 -0.013405709
0001c0 c3 08 50 ba bd 24 03 ba dd 8b bf bb 62 62 30 bb
       -0.0007935876 -0.0005002728 -0.0058455304 -0.002691411
0001d0 4d 96 ed b9 ab 05 ed bb 18 9b ee 3b e7 8e 31 3c
       -0.00045316145 -0.0072333417 0.007281672 0.010837293
0001e0 14 92 75 bb cd 07 c9 3b 41 2b 4e bb f4 a9 3c ba
       -0.0037471103 0.006134963 -0.0031458887 -0.0007196956
0001f0 d2 bf aa 3a 40 7f c0 3b 7b 2b 09 3c 32 7c 22 bc
       0.0013027138 0.0058745444 0.008372183 -0.009917306
000200 5f 9e 84 3c 61 62 d9 bb ba 13 3b bb 69 7c 23 3d
       0.016188798 -0.006634042 -0.0028545693 0.03991357
000210 33 10 91 bc f2 0a e8 bc 18 96 6c b9 b3 0d e7 3b
       -0.01770792 -0.028325532 -0.00022562628 0.0070511936
000220 cd 51 a5 bc 5e e7 63 3a 9d a7 1d bd 62 97 0a 3d
       -0.020180607 0.0008693839 -0.038489927 0.033835776
000230 18 8c f8 3c 3b 74 3d 3a 8f 1f 8d ba 54 b5 6d 3b
       0.03034024 0.00072270975 -0.0010766851 0.003627141
000240 8b bf 0b bc ee e6 d9 3b e1 68 84 bb 01 09 1b 3d
       -0.008529554 0.0066498434 -0.004040823 0.037850384
000250 3b d0 4d 3c 8b 50 59 3c 48 66 6e bc 9f ca e4 bc
       0.012561853 0.013263832 -0.014550753 -0.027928649
000260 07 3d d5 3c 6c 40 ba bc 3e c9 dd 3b a4 48 33 bb
       0.026030077 -0.022735797 0.0067683747 -0.002735653
000270 c7 48 62 bc 84 18 ca ba 7d 89 5f 3c 3b 10 86 bc
       -0.013811297 -0.0015418683 0.01364362 -0.016365161
000280 57 31 d0 bb c3 05 3a bc ca 93 1c 3d d9 d8 83 3c
       -0.006353538 -0.011353913 0.03822688 0.016094612
000290 2b f8 3b bc 78 5d cf bb fe db 93 bc 25 73 51 bc
       -0.011472742 -0.006328281 -0.018049236 -0.0127838
0002a0 43 b5 cb bc 80 ef d0 3b 49 e1 fc 3b 36 6f d3 bc
       -0.024866706 0.006376207 0.007717286 -0.025809865
0002b0 b8 5a 2d 3c 2f ff e7 3b 07 51 ab bc a9 b1 9b bc
       0.010580711 0.007079981 -0.02091266 -0.019005613
0002c0 a5 9d 7b bc 5e c6 09 bb cb db fc 3b 64 89 1a 3d
       -0.01535741 -0.0021022777 0.007716631 0.037728682
0002d0 27 73 7e 3c e8 22 bd bc 52 de 87 3c 1e 70 34 3b
       0.015530384 -0.023087934 0.016585503 0.0027532647
0002e0 88 c9 48 3d f5 bb 71 3c f0 d5 3c bb d2 7d fb 3c
       0.04902032 0.014754285 -0.002881404 0.030699644
0002f0 d6 90 b4 3c 2b b4 e2 3c 4b 05 72 bc 37 ef 8a 3c
       0.02204172 0.027673801 -0.01477177 0.01695977

transformer_encoder.layers.0.self_attn.out_proj.weight f4 [64, 64]
000000 9a 63 9e 3c 75 c3 26 bd b3 9a 47 bc d8 6b 80 3c
       0.019334603 -0.040713746 -0.012182879 0.015676424
000010 63 15 ee bc 2d 58 79 3b e6 a1 24 3c cc 20 62 bc
       -0.029062932 0.0038046942 0.010048365 -0.013801765
000020 26 cb 8d bc 9d 25 0a 3c cb 80 22 3d 51 5d 1e 3c
       -0.017308783 0.008431819 0.039673608 0.009665803
000030 77 e0 65 bd c3 86 40 3c d7 65 83 bc 68 4e 2f bc
       -0.05612227 0.01175088 -0.016039772 -0.010699846
000040 51 d6 09 3d 05 95 ce 3c 5a a1 5d bb ac f5 8f bc
       0.033651654 0.025217542 -0.0033818097 -0.0175732
000050 41 e8 b4 3b 0e 17 2c bc 92 85 ae 3c 6c c0 33 bd
       0.005520851 -0.010503544 0.021303926 -0.04388468
000060 a8 23 2b 3d b8 d5 61 bd 99 1c d9 bb 59 14 f6 3c
       0.04178205 -0.05513546 -0.0066257236 0.030039
000070 fb 29 f3 bc 3a 6f 09 3c 9b 07 31 bc 1b 85 8c bb
       -0.029683104 0.008388335 -0.010805036 -0.0042883283
000080 ff 57 a9 3c b6 74 6e bc 5f f0 f5 bc c8 ab 0d bd
       0.020671843 -0.014554193 -0.030021844 -0.03458765
000090 3f 1b 71 3c 48 37 92 3c 50 7e ef b6 74 37 f8 3b
       0.014715969 0.017848626 -7.1374598e-06 0.00757497
0000a0 42 2c 09 bd 69 07 16 3d 6c 2e 7f bc 0f bf e1 bc
       -0.033489473 0.03662816 -0.015575033 -0.027556924
0000b0 b4 a4 74 3c 34 4a 15 3c 97 a2 2c bb 00 af 7d bd
       0.014931846 0.00911193 -0.0026342028 -0.06193447
0000c0 8d 42 1c bd 73 4f 19 bd 1e 20 0f bc c4 d8 f0 bc
       -0.038149405 -0.037429284 -0.008735685 -0.029400237
0000d0 ec f6 d9 3c af ab 6d 3c cb 8b 1c 3c 4e 98 71 bc
       0.026607 0.014506265 0.009554814 -0.014745785
0000e0 22 a4 4a 3c 85 cb 1f bc da 4d 2c 3d a6 30 d9 bc
       0.012368234 -0.009753113 0.042066433 -0.026512455
0000f0 04 61 a5 3b 9f 6b 43 3b ae 96 e3 3c 26 9f a9 bc
       0.0050469656 0.0029818786 0.02778181 -0.02070577
000100 85 6c f3 bd 69 49 53 3d dc 0d 8c bd ed 0f a3 3d
       -0.11885933 0.05158368 -0.06838581 0.07962022
000110 e1 be bf 3b 26 1f bf 3d 71 37 81 bd 6d c1 8b 3d
       0.005851612 0.09332113 -0.06309403 0.068240024
000120 5f 2a 85 3d 6b 43 9c 3d 0b c5 6f bd 3d 9a 2a bd
       0.06502222 0.076300465 -0.058537524 -0.041651
000130 94 a8 0d 3d e7 71 ea bc 65 8f f6 3c eb be f2 bb
       0.034584597 -0.028618766 0.030097673 -0.007408013
000140 88 60 eb 3c 56 08 66 bc 5e 52 05 3d fe 7a 99 3d
       0.028732553 -0.014040073 0.032549255 0.07494162
000150 b4 fe 46 bd 60 d0 7a bc 55 87 a8 3d 4c 07 46 bd
       -0.048582748 -0.0153084695 0.082289375 -0.048346803
000160 a7 91 3b 3d b7 41 08 be a7 e1 95 bc 79 2d 23 bd
       0.0457932 -0.13306318 -0.018296076 -0.039838288
000170 c4 68 b3 bc d4 33 3e bd aa f9 71 bd 09 34 3b bd
       -0.021900542 -0.046436146 -0.05907599 -0.04570392
000180 b2 cb 7d 3d 34 3b 26 bc e6 b9 48 3d 03 25 fe 3c
       0.061961837 -0.010145951 0.04900541 0.031023508
000190 ca cc 9d bc 52 ed 1d 3c b2 e5 3a 3e 91 6a 91 bb
       -0.01926269 0.009639101 0.18251684 -0.0044377525
0001a0 c8 4d c2 bd 84 f1 4b 3d 6b 24 f1 bd a1 7e 02 bd
       -0.09487492 0.049790874 -0.11774524 -0.031859044
0001b0 a5 c5 83 bd 69 3c bc bc c2 78 f2 3c 16 b6 e8 3c
       -0.06434182 -0.022978025 0.029598597 0.028407138
0001c0 ef 07 b9 3c 67 39 14 bc c6 9d 5d 3c 67 be bb 3c
       0.02258679 -0.009046889 0.013526386 0.02291794
0001d0 8a 8e ad 3d 81 80 b1 3d 79 6f 87 bc c2 af a6 bd
       0.08474453 0.08667088 -0.016532646 -0.08138992
0001e0 7d 7e 89 3d 5d 60 af 3d 47 6d 79 bc 0a 1d 6d 3d
       0.06713579 0.08563302 -0.015223808 0.057889022
0001f0 57 b3 48 bd 02 c0 b9 3d a4 e2 1f bd 56 79 3a bc
       -0.048999157 0.09069826 -0.0390345 -0.011381468
000200 b1 f0 e8 bd 55 ed 3b bc 1b a0 7e bc 77 ee 97 bd
       -0.11374033 -0.011470159 -0.015541102 -0.074185304
000210 42 bd ff 3d 8d d3 1b bd 32 b4 cf bd ff 13 5c bc
       0.1248727 -0.038043547 -0.101417914 -0.013432502
000220 a3 1d bb bd b6 52 82 bc a7 21 1d bd ff 8c 5a 3d
       -0.09136512 -0.01590858 -0.03836217 0.05335712
000230 33 8d fb bc 47 d6 0c 3e c4 52 e7 bc e0 f2 f0 3d
       -0.030706977 0.13753615 -0.028237708 0.11765075
000240 86 66 e5 bc 5b 7f 24 bd b0 5d 28 bd 32 a6 15 bd
       -0.028002989 -0.04016052 -0.041104972 -0.03653545
000250 a8 08 44 3c a9 13 ff bc 3c 11 6b 3c 50 31 44 3c
       0.011964954 -0.031137304 0.014347371 0.011974648
000260 3f 28 8a 3d a6 dc be bd cb 4d b5 3d 0a fa 8b 3d
       0.067459576 -0.09319429 0.088527285 0.068348005
000270 ff 3c 95 3c 36 f5 f7 3c 71 9c fb 3d 6a b5 5e bc
       0.018217562 0.030268293 0.12285698 -0.013593057
000280 b9 0e eb 3d 10 42 ea 3d ef 49 68 3d a6 34 e1 3a
       0.114774175 0.11438382 0.056711134 0.0017181828
000290 32 f7 1a 3c b5 d9 07 3d 1f 94 bb 3d 51 72 b4 3d
       0.00945835 0.033166606 0.09159111 0.088108666
0002a0 27 73 e5 3d 88 96 c1 bd 9f 4f cc 3b ef d6 95 3c
       0.11203604 -0.0945254 0.0062350775 0.018290965
0002b0 32 d9 3f bc 46 e3 a3 3c 98 c2 bb 3b 33 96 ab 3b
       -0.011709498 0.020005833 0.0057299845 0.005236411
0002c0 2a 8e 4a bd 23 d2 00 bd b7 21 9a 3d fb 35 95 3d
       -0.049451984 -0.031450402 0.07525962 0.072856866
0002d0 e3 9a ca 3d 32 e5 42 bd 62 4c 8b 3d 1a 7d 97 3c
       0.098928235 -0.04758186 0.06801678 0.01849227
0002e0 54 70 27 bd bd ca 0b 3c 59 f4 a3 bc 5a bd ad 3c
       -0.04087861 0.008532223 -0.020013975 0.021208454
0002f0 85 56 47 bb cb c9 86 ba 02 c0 67 3d a0 ef 85 3d
       -0.003041656 -0.0010283528 0.056579597 0.065398455
000300 0b a2 d4 3c f5 1f 23 3b a3 d2 f6 bb 5e b2 f5 3c
       0.025956174 0.0024890874 -0.007532434 0.029992279
000310 b5 10 ef bc c0 db 51 bc 47 ab cf bb 91 43 4c b9
       -0.029182771 -0.01280874 -0.0063375565 -0.00019480127
000320 48 2c 77 3c 96 47 88 3d d8 9c eb bb c1 01 0a bd
       0.015086241 0.06654279 -0.007190328 -0.03369308
000330 c1 8e 26 bd 58 a2 c2 bc 32 84 01 3d 29 16 8c bc
       -0.040663484 -0.023759052 0.031620212 -0.01710041
000340 c4 9f 86 bc a6 48 e4 bc a2 b7 c2 3b b7 de d1 3c
       -0.016433604 -0.027866673 0.005942301 0.025618894
000350 86 f6 44 3d a2 7b 23 bb f8 46 7f 3d b9 dd 77 3c
       0.048086666 -0.0024945517 0.06232354 0.015128546
000360 98 63 6c 3d 57 72 14 bd fa 04 37 3d f8 e1 08 3c
       0.057712168 -0.036241855 0.04468248 0.008354656
000370 ad b4 28 bd a9 c9 41 3b 5c c2 3e 3b 4b b0 47 bc
       -0.04118793 0.0029569662 0.0029107546 -0.012188028
000380 88 d9 03 3d 07 e0 54 3d 51 8a 2d bd ea ca c9 bb
       0.032189876 0.05197146 -0.042368237 -0.0061582224
000390 f7 51 f6 3c b6 67 3c bd e1 0d 69 3c 9f fe 4d bd
       0.03006838 -0.045997344 0.0142245 -0.050291654
0003a0 6f c6 5b bd 6b 95 fd 3c 48 57 f8 3b e0 8a a3 bc
       -0.053656038 0.030955037 0.007578764 -0.019963682
0003b0 0e c4 1b bd 6c 7e d0 3a 7b 95 0b 3d d1 3c 8f 3b
       -0.03802877 0.0015906817 0.034078103 0.0043712636
0003c0 2a d5 71 bb 7c c7 07 3d 25 45 4f 3c ba c9 1e 3d
       -0.0036900737 0.033149227 0.012650763 0.0387666
0003d0 3d d7 94 bc 84 37 8b 3c bb b0 fa bc d4 7f 0b 3d
       -0.01816904 0.016994245 -0.03060185 0.034057453
0003e0 35 e3 92 3d b9 55 55 bd 71 75 25 bd 9f 12 9c 3d
       0.071722426 -0.052083705 -0.040395204 0.07620739
0003f0 a0 35 08 bd ec 40 af 3c d1 cb 4f bd c4 7e 13 bc
       -0.033254266 0.021393262 -0.050731484 -0.009002391

transformer_encoder.layers.0.self_attn.out_proj.bias f4 [64]
000000 04 74 89 bc db 54 58 3c 27 47 82 3d f7 0d 20 bc
       -0.016778953 0.013203825 0.063612275 -0.0097689545
000010 c0 18 5e bd df 34 6f bd bc cc 8a 3c 05 97 94 bc
       -0.054222822 -0.05840003 0.016943328 -0.018138418
000020 53 81 17 bd 9c 52 ec 3d 9e 70 1a bd 70 f9 68 bd
       -0.036988568 0.11539194 -0.037705056 -0.056878507
000030 03 c7 35 bd e9 92 52 bd d4 89 65 3c 5d 64 6e bc
       -0.044379245 -0.051409636 0.014009912 -0.014550296
000040 d1 0d 69 3d 77 31 3a 3b a4 8c 68 3d 7f 37 fa 3c
       0.056897942 0.002841083 0.05677475 0.03054404
000050 7d 92 c9 bc cb 52 85 3d 47 72 f6 bb 9d fd 24 3d
       -0.024605984 0.06509932 -0.007520947 0.040280927
000060 47 6b f1 bc a4 c0 aa 3d 0d 88 68 3d 22 3c a6 3d
       -0.0294701 0.083375245 0.056770373 0.08116938
000070 53 f5 af 3d 10 28 1d bd c8 49 3e bd d9 e1 48 3d
       0.08591714 -0.038368285 -0.046457082 0.04904351
000080 a3 7e 31 3d 9a 2c 45 3d f7 66 6a bd 2d 9e 1f 3d
       0.04333366 0.04813824 -0.0572271 0.038969208
000090 f8 2d 58 bc 27 5b 0c 3e b9 cb 8b bd 1d 86 3b 3d
       -0.013194554 0.13706647 -0.068259664 0.045782197
0000a0 cc 56 41 3b cf 2f 51 3d d7 86 c9 bc 2f 54 3f 3d
       0.0029501198 0.051070984 -0.02460043 0.046711143
0000b0 67 a9 61 bd 5f 24 2a 3d 15 1f c5 bc 77 2f 9d 3c
       -0.055093195 0.041538592 -0.024062673 0.019187672
0000c0 aa ca ec bc 6d 62 61 3d 88 3a 9d b9 79 e5 3a 3d
       -0.028905232 0.055025507 -0.00029988983 0.045629
0000d0 89 93 15 3d 4d 3b b0 3d 08 3b 7b bd da 67 89 3a
       0.036517654 0.08605061 -0.061335593 0.0010483221
0000e0 0f 05 e1 bc 39 9e 4f 3c 7f 35 6d bd c3 52 48 3c
       -0.027468232 0.012672001 -0.057912346 0.012226763
0000f0 28 12 ab bc 3c 8b 08 3e 00 86 7a 3c 48 79 12 3e
       -0.020882681 0.13334364 0.015290737 0.14304078

transformer_encoder.layers.0.linear1.weight f4 [128, 64]
000000 ac 87 85 be 58 e5 b2 3d 9a 81 47 bd d6 59 14 3e
       -0.26080072 0.0873515 -0.048707582 0.14487395
000010 35 9d a5 3c 00 63 bf 3d a7 82 7a 3c df 70 0a be
       0.020216564 0.093450546 0.015289939 -0.1351962
000020 3d 77 ca 3e c4 ac ae bb db 5f 26 bd 9c f7 cd 3d
       0.39544097 -0.005330654 -0.04061876 0.10056993
000030 a1 fe ca 3c 69 29 cd 3b 9b 5a 87 bc fd a1 e9 3b
       0.02477962 0.00626104 -0.016522696 0.007129906
000040 b2 65 65 bd 0e 4e b2 bd 64 d5 0f 3d b4 29 d5 3c
       -0.056005187 -0.08706294 0.035115615 0.026020862
000050 fd f9 e3 3c 8d 17 32 be ea 80 9b bd 78 43 0e bc
       0.027829165 -0.17391796 -0.07592948 -0.008683078
000060 2c 04 d7 3d 77 a9 85 bd 37 b2 60 bd 2d d3 cd 3b
       0.104988426 -0.065264635 -0.05485746 0.0062812776
000070 0a 06 42 be 15 a6 5a bd 82 e3 9d bc 9d 70 71 3d
       -0.18947616 -0.053381044 -0.019273523 0.058945287
000080 9d 3c 1e 3d 89 eb 8c 3c 28 12 a3 3d 78 b8 6c 3d
       0.038632024 0.017202156 0.079624474 0.05779311
000090 ef ff ad bc 9f 65 93 bc aa 0a 23 3e df 2b 84 bd
       -0.021240203 -0.017992793 0.15922037 -0.0645368
0000a0 ac 03 bc 3d 00 c3 af 3b c1 4d 2e 3e fe 56 82 bd
       0.09180388 0.005363822 0.17021848 -0.06364249
0000b0 f6 2d a8 bc dd b0 6f 3d f6 75 f6 bd 6d 79 31 be
       -0.020529728 0.05851828 -0.12034218 -0.17331477
0000c0 19 47 a8 bd 2f 4e a7 3d ee f8 98 bc 82 71 86 3c
       -0.08216686 0.08169209 -0.018673386 0.016411547
0000d0 84 2a 43 bc c0 89 8b bc 56 c8 a5 3d 30 b6 ce be
       -0.011911992 -0.017033458 0.08094852 -0.40373373
0000e0 27 77 43 bc 31 19 85 bc c0 2a 8e 3d 38 18 7b bd
       -0.011930264 -0.016247364 0.06941748 -0.061302394
0000f0 2e 75 da 3e fe 73 e2 bd 96 74 82 bd 72 3b 61 bd
       0.42667526 -0.1105728 -0.06369893 -0.054988332
000100 c9 3e d0 3a 5c 36 c4 bd 0d e6 ae bd 28 d5 9f 3d
       0.0015887852 -0.09580681 -0.085399725 0.07804328
000110 0f 85 c5 3d f9 40 3a bc 3d 1e 24 be 18 26 bb 3d
       0.096445195 -0.01136803 -0.1602716 0.09138125
000120 01 1d a8 3b b9 90 1a 3d 45 30 a7 3d 0d 1a 5f 3d
       0.0051304107 0.037735675 0.081635036 0.054468203
000130 49 7e 21 3e 9a 74 4b bd 7b ef b8 3a 92 99 30 3d
       0.1577083 -0.049671747 0.0014109457 0.043115206
000140 69 3c 80 bd 6a a1 a6 3d db 43 0b 3e 9a c5 88 3c
       -0.06261522 0.08136256 0.13600104 0.016695786
000150 9a 3e c7 bb 9c 2b 46 3d fe 75 41 be d6 76 9f bd
       -0.0060804607 0.048381433 -0.18892667 -0.07786338
000160 5b 16 38 3c f7 64 9a 3d 35 eb 8a bd ef 5f ce bd
       0.011235799 0.07538789 -0.067831434 -0.10076892
000170 12 3f a6 bd 01 2f b9 3d 50 37 0e bd 35 26 03 be
       -0.081174985 0.090421684 -0.03472072 -0.12807544
000180 55 0c 69 3d 90 9b 49 3c ed cd fd 3d 23 42 b9 bd
       0.056896526 0.012305155 0.12392793 -0.09045818
000190 9e f9 54 bc 9f c8 4d be 5c d6 c1 3d 1b 7a 3f be
       -0.0129989665 -0.20096062 0.09464714 -0.18698923
0001a0 f6 a8 d4 3d 61 7b b3 bd 1f aa fd 3d ed 39 67 3c
       0.10383789 -0.08763767 0.12385964 0.014112932
0001b0 28 a1 3c 3c 2d 40 a5 3d c6 90 79 3d 61 b6 90 bb
       0.011513032 0.08068881 0.060929082 -0.0044162725
0001c0 a6 61 97 3d 31 f1 eb bd 6b 00 f2 3c 81 aa 06 be
       0.07391672 -0.11520613 0.029541215 -0.1315098
0001d0 b0 4b 2f 3c 8e 2c 78 be 9d 8b 25 bd 3b e2 13 3d
       0.010699198 -0.24235746 -0.04041635 0.036104422
0001e0 00 75 3e bb 48 b8 0b 3e b9 a0 fc 3d 8a fa 02 3e
       -0.0029061437 0.13644516 0.12335343 0.12790886
0001f0 08 74 9d 3c de 00 05 bc 2e 2c 20 3e 74 61 ac 3d
       0.019220367 -0.008117883 0.15641853 0.08417025
000200 98 61 3f 3e db 5e ce bd 7e fe e6 bd 93 eb 20 bd
       0.18689573 -0.10076686 -0.11279009 -0.03928716
000210 af ab a3 3d a0 6d 4b 3c 2e 11 84 bd a3 a1 7a bc
       0.079917304 0.012416273 -0.06448589 -0.015297326
000220 07 90 f4 3d 2f 60 df bd 33 99 aa 3d bf e8 7f bc
       0.119415335 -0.109070174 0.08330002 -0.015619456
000230 12 c2 37 3e 88 e1 1b 3e cf d9 3b bd ad ff 0c bd
       0.17945126 0.15222752 -0.045862015 -0.03442352
000240 8a 2b 1f 3d a5 c2 d6 3d ff e9 76 bd b0 8a b4 bd
       0.03885988 0.10486344 -0.06028175 -0.08815515
000250 12 1f 0b 3d 6d a7 f6 bb c2 9d 00 3c 41 e1 15 3e
       0.033965178 -0.007527283 0.007850112 0.14636709
000260 f6 56 00 bc c5 14 a6 bd b7 19 bc bd 34 36 05 be
       -0.007833233 -0.0810943 -0.09184592 -0.13008958
000270 f9 42 0b be c8 78 4f bc 88 b8 c1 3d 1a f1 21 bd
       -0.13599767 -0.012663074 0.09459025 -0.039536573
000280 11 a0 89 bc ec bb 14 be 16 7c 0c bd 4d 6a 00 3e
       -0.016799958 -0.14524812 -0.034298025 0.1254055
000290 27 95 07 3e 58 11 3c 3d 78 1b 06 3e 1b 13 ef bd
       0.13240491 0.045914978 0.13096416 -0.11673566
0002a0 eb 55 8f 3d d9 05 4b 3d 49 fa e5 bd 97 4c 11 be
       0.069988094 0.049566124 -0.11229379 -0.14189373
0002b0 49 07 0a 3e 07 6c 07 be fa 7c 64 3e 1a 25 3d 3e
       0.13479342 -0.13224803 0.223133 0.18471184
0002c0 80 ff 3a 3e f6 1e a8 be 59 39 1b 3e 7e 3f ea bd
       0.18261528 -0.3283612 0.15158595 -0.114378914
0002d0 43 14 d6 3d 20 db a8 bd e9 64 71 3e a2 a9 b3 3d
       0.10453083 -0.0824492 0.2357365 0.08772589
0002e0 cb aa 98 3d 2b b6 45 be 4f 91 7a 3c ad ac cd 3d
       0.07454451 -0.19307773 0.015293433 0.10042701
0002f0 9e d6 ba 3c bb 8a c9 3c a7 9c 8e 3d c8 ab 82 3d
       0.022807416 0.024602285 0.06963473 0.06380421
000300 62 a9 8f bd b3 2d 2b 3d 96 40 1f 3e ab be 6e 3e
       -0.07014729 0.04179163 0.15551981 0.23314922
000310 b7 b3 0f 3e 6c dc 53 3c 3a fe 17 3e 7d ba 4e 3d
       0.140334 0.012930971 0.14843073 0.050470818
000320 56 8f d7 bd d6 2a 2f be 29 d8 30 3e 43 e3 21 3e
       -0.10525386 -0.17106184 0.17269959 0.1580935
000330 16 fd 75 bd 95 79 a5 bc 3b d9 cb be a5 c8 1d 3e
       -0.060055815 -0.020199576 -0.3981417 0.15408571
000340 b7 c6 5d 3e e4 c9 2e 3d 9d 02 07 be 6c 46 be 3b
       0.21657835 0.042673007 -0.1318459 0.005806735
000350 b6 47 20 be 66 9c ce bd b5 60 51 be e7 87 8b bc
       -0.15652356 -0.100884244 -0.20447047 -0.017032577
000360 f5 31 f9 bc bc 8e c9 bd 55 bf b6 3d 9a ec df bd
       -0.03041933 -0.098416775 0.089232124 -0.109338
000370 d9 7d 9b 3d e5 da 7a bd 4b 0b 8a bd 6b 1e c2 bd
       0.07592363 -0.06124391 -0.06740435 -0.09478458
000380 7c 5c 8a 3d 82 0b fd 3b a8 c8 58 bd fb 01 4c be
       0.06755921 0.007722319 -0.052925736 -0.1992263
000390 43 b1 a2 bd 8e eb 1d 3e 29 37 05 bc 8c 18 15 3e
       -0.07943966 0.15421888 -0.008130827 0.14560145
0003a0 0b 76 f8 3d 97 29 3a bd 19 5c ff 3d d8 b3 7c bd
       0.1213189 -0.04544982 0.12468738 -0.06169495
0003b0 72 4b df bb a4 01 f8 bd dd 52 09 3e 55 78 c2 3c
       -0.0068144137 -0.12109688 0.13410516 0.02373902
0003c0 7f c2 07 3d 51 e4 fb bc bb a9 cc 3d 11 da e2 3b
       0.03314447 -0.030748518 0.09993311 0.006922968
0003d0 7e 18 86 3c d9 00 16 3d bf bf 5c 3e ff 76 45 bd
       0.0163691 0.036621902 0.2155752 -0.048209187
0003e0 62 8e e4 3d b1 5d 72 be fd b9 64 3d d4 04 86 be
       0.1115997 -0.23668553 0.055841435 -0.2617556
0003f0 59 6a 84 3e 71 17 dc bc 58 6a bf bc 80 dc 02 bd
       0.25862387 -0.026866646 -0.023366138 -0.031948566

transformer_encoder.layers.0.linear1.bias f4 [128]
000000 05 d5 1f be 3a 37 b0 bd 36 4d d0 bd 70 ce 09 be
       -0.15608604 -0.08604284 -0.10170977 -0.13457656
000010 e7 8d a7 3c 34 a5 29 be 16 b9 3b be 0e 0a 05 bc
       0.020453406 -0.16566926 -0.18332323 -0.008120073
000020 77 a3 22 bd f4 76 83 be ad 65 f2 bd 63 8e 8d bd
       -0.039706673 -0.25676692 -0.11835799 -0.06911924
000030 78 41 6a be ab ef 37 be 57 33 33 bd 9b 71 c9 bd
       -0.22876537 -0.1796252 -0.043750133 -0.09836122
000040 03 d9 98 3d a1 1d 67 bd a9 f2 d9 bc a8 c3 8c 3d
       0.07463267 -0.05642474 -0.026604967 0.06873256
000050 4b 6e 80 3c 64 b4 bc 3c a2 af ac bc 7c a3 0e ba
       0.015677592 0.023035236 -0.021079842 -0.0005441231
000060 d1 6a a7 3c 67 93 1d be 71 55 10 3d f6 e1 58 bc
       0.020436676 -0.15388261 0.035237733 -0.013237467
000070 ee 60 32 3d a9 02 06 be 9e 4b 5f be 06 e7 16 bd
       0.04354947 -0.13086952 -0.2180619 -0.036841415
000080 ea 89 31 bd 37 40 ac bd 6d 72 e6 3b 5e c9 23 be
       -0.043344416 -0.084106855 0.0070326836 -0.15994784
000090 8b de 11 be 8c 12 08 be ed 17 29 3c 2e 2d aa bd
       -0.1424505 -0.13288325 0.010320646 -0.083093986
0000a0 a2 3b 9f bd 06 7b cf bd d9 aa 0d 3d 8c f4 0a be
       -0.07775046 -0.10130887 0.03458676 -0.1356985
0000b0 53 dc ea bd 8c c3 2f bd 15 17 1e bd 7f 79 48 bd
       -0.11467805 -0.042911097 -0.03859623 -0.048943993
0000c0 d0 5b 3c be df 9f 12 bd 7e 43 a5 bc fd 9e cc bd
       -0.18394399 -0.035796996 -0.020173784 -0.09991262
0000d0 bb fb 47 be a3 d0 19 be 3b 55 c5 bd e2 3c 7c bd
       -0.19529621 -0.15020995 -0.09635397 -0.0615815
0000e0 8c 4d fc bd dd 51 38 bc 39 78 db bc 94 d2 ad bc
       -0.123194784 -0.0112499865 -0.026790725 -0.021218576
0000f0 dc b8 00 3d 40 47 32 3c 96 a3 18 be 00 b1 3c bd
       0.031426296 0.010881245 -0.14906153 -0.046067238
000100 0a aa 6a be 56 7d 0a be d2 1b 47 be f5 57 83 bd
       -0.22916427 -0.13524374 -0.19444206 -0.06413261
000110 c9 90 0c bd 0b c2 0a be 9d c0 03 be a6 2f a0 3b
       -0.034317765 -0.13550584 -0.12866445 0.0048884926
000120 07 d6 31 3c 65 d8 51 be d1 44 85 3d 11 ef 91 bd
       0.010854251 -0.20492704 0.06507266 -0.071256764
000130 bb 7e e4 bd d4 91 58 be 6c 6f e9 bd f8 63 32 3d
       -0.111569844 -0.21149379 -0.11398205 0.04355237
000140 bb 3a 0c bd 0a 8e c4 bc 29 7c db bd 37 fc 86 bd
       -0.034235697 -0.02399351 -0.10717041 -0.06591075
000150 ed 60 18 be 4a 1a 33 be 6e 44 be bb 5f 0e 18 3d
       -0.14880724 -0.17490497 -0.0058064973 0.03712308
000160 58 aa 1b 3d 0b 7b 95 bd 9f 08 19 3d 5a ed 3e bd
       0.03800425 -0.07298859 0.037361737 -0.046613075
000170 13 d4 15 be 6e 5a f8 bc 9a d0 82 3c d4 28 eb bd
       -0.14631681 -0.030316558 0.01596861 -0.11482397
000180 29 fd 36 be 98 8e fd bd d7 d3 3e bd 05 1a 54 bd
       -0.1787001 -0.12380713 -0.046588745 -0.051782627
000190 dd 57 aa bd bb 93 c2 3c 1d 7b 4a bc e0 69 c4 bd
       -0.0831754 0.023752084 -0.012358454 -0.095905066
0001a0 69 c1 86 bd d0 0b 04 ba c0 c4 59 bd fd 8d 1d 3d
       -0.06579859 -0.00050371606 -0.05316615 0.03846549
0001b0 fc 30 03 be 83 f3 7f bd 66 24 eb bd dd 6a 0e be
       -0.12811655 -0.06248809 -0.11481552 -0.13907953
0001c0 fe a5 32 be 65 76 2c be 57 12 f6 bd 21 99 bf bd
       -0.17446133 -0.16842039 -0.12015217 -0.09355379
0001d0 ed 41 bf bd 72 64 48 3c 1e 07 04 be 02 2d 45 3d
       -0.09338746 0.012230979 -0.1289334 0.048138626
0001e0 f9 fa af bc ce ee 81 bd f0 8d 0f be b3 88 e5 3d
       -0.021481978 -0.063443765 -0.14018989 0.11207714
0001f0 cf 5a f9 bd 4d f3 1f be ea 18 19 bd 62 35 ae 3b
       -0.121755235 -0.15620156 -0.037377276 0.0053164223
